bone_model_default.onnx (onnx, 91448 bytes, 6 tensors)

fc1.weight f4 [64, 18]
0	0x3e000e22	0.12505391
1	0x3e230725	0.15920694
2	0x3e88a58a	0.26688796
3	0x3cf6ce97	0.030127807
4	0xbdc7ef0c	-0.097623914
5	0xbe7a32a4	-0.2443338
6	0x3e4313b1	0.1905048
7	0xbe5c7242	-0.21527961
8	0x3acded3d	0.0015710961
9	0xbe06a916	-0.13150439
10	0xbc457da2	-0.012053879
11	0xbd0f25d3	-0.03494818
12	0x3e659ab4	0.22422296
13	0xbdd1d1db	-0.10245105
14	0x3d766a4d	0.06015997
15	0xbd3c18b6	-0.045922004
16	0xbe2c0f9c	-0.1680283
17	0x3d9ca94f	0.076494806
18	0xbc45f221	-0.012081654
19	0x3dc0586a	0.09391864
20	0x3e2a4c8d	0.16630764
21	0x3d5ad078	0.053421468
22	0x3bcbf019	0.00622369
23	0xbda131b5	-0.07870809
24	0x3e3e78d3	0.18600778
25	0x3d83dbd2	0.06438412
26	0xbe6bf819	-0.2304386
27	0x3dba47e3	0.090957426
28	0x3e0ebf3a	0.13940135
29	0xbe89004b	-0.26758036
30	0xbcc3d62b	-0.023905834
31	0x3eb8aefd	0.36071005
32	0xbe9a9805	-0.30194107
33	0xbc66c5ca	-0.0140852425
34	0x3e867c3d	0.2626666
35	0x3c2dfce3	0.010619375
36	0x3e1751ed	0.14777346
37	0x3e2363fa	0.15956107
38	0x3eb078aa	0.3446706
39	0x3c8df155	0.01732699
40	0xbcfd280b	-0.030902883
41	0x3ce71704	0.028209217
42	0x3d67ae75	0.05656286
43	0x3e27b8ee	0.16379139
44	0xbdb7b8fc	-0.0897083
45	0x3cb864e1	0.02250904
46	0xbf332459	-0.6997734
47	0xbe6d75eb	-0.23189513
48	0x3ed709da	0.41999704
49	0x3cdcece2	0.026968423
50	0xbd99c3d0	-0.075080514
51	0xbc53df92	-0.012931721
52	0x3d3158fa	0.043297745
53	0xbd448c03	-0.047985088
54	0xbdc9c0b3	-0.098512076
55	0x3d69463b	0.056951743
56	0x3e7da841	0.24771215
57	0xbe062ee4	-0.13103825
58	0xbcb1afb8	-0.021690235
59	0x3e49c4b3	0.19703941
60	0x3e705fac	0.23473996
61	0xbe3b0c02	-0.182663
62	0xbd7835c9	-0.06059817
63	0x3d0c86dc	0.0343083
64	0xbdca5a50	-0.09880507
65	0xbe5af488	-0.21382344
66	0x3b947612	0.0045306766
67	0xbd42270c	-0.04740052
68	0x3e89aa71	0.2688785
69	0x3e2e7468	0.17036593
70	0x3e415558	0.18880212
71	0xbe115104	-0.14191061
72	0x3e6ead1f	0.23308228
73	0x3e6b5d01	0.22984697
74	0x3e33e13d	0.1756639
75	0x3dbb2d10	0.09139454
76	0xbe6596df	-0.22420834
77	0xbd57dc46	-0.052700303
78	0xbd6738c4	-0.05645062
79	0x3e4b5379	0.19856061
80	0x3e11b3d3	0.14228754
81	0xbe043563	-0.1291099
82	0x3e21f06c	0.1581437
83	0xbd300400	-0.042972565
84	0xbe44661d	-0.19179578
85	0xbca43cc3	-0.020048505
86	0x3d07792a	0.033074535
87	0xbb8c51c7	-0.0042822096
88	0xbcdc39c8	-0.026883021
89	0x3a8c6f2b	0.0010714283
90	0xbc453557	-0.012036643
91	0x3de9af67	0.114104085
92	0xbe8b9e4c	-0.27269208
93	0x3e099ab1	0.13437916
94	0xbd77acf4	-0.060467675
95	0x3e3fe28e	0.18738768
96	0xbd17dfe1	-0.037078742
97	0xbe9d9d08	-0.30783868
98	0xbe525ba9	-0.20542778
99	0x3ea570e0	0.3231268
100	0x3ddfc595	0.10926358
101	0xbd3dcff8	-0.046340913
102	0x3dfdf709	0.12400634
103	0xbead2e5f	-0.3382444
104	0x3deef73d	0.11668251
105	0x3e818e50	0.25303888
106	0x3da7d49d	0.0819485
107	0xbdf7f37d	-0.121069886
108	0xbe091484	-0.13386732
109	0x3e2b58f3	0.1673315
110	0x3e06a086	0.13147172
111	0xbd5962fa	-0.053072907
112	0xbd25be54	-0.040464714
113	0x3e223eb0	0.15844226
114	0x3e68003e	0.22656342
115	0x3e3839ea	0.17990842
116	0x3d70fdae	0.058835678
117	0xbc6af5ad	-0.0143408
118	0xbd1b8d39	-0.037976477
119	0xbe412a68	-0.18863833
120	0xbe0f20d8	-0.13977373
121	0xbd713f2d	-0.05889814
122	0xbe62cff6	-0.22149643
123	0x3e4d1eb3	0.20031242
124	0x3de50e56	0.11184375
125	0x3e396bd9	0.18107547
126	0xbcc5dc22	-0.024152819
127	0x3da0c41a	0.078499034
128	0xbd9ee83c	-0.07759139
129	0x3e19f34a	0.15034214
130	0x3e7e5abd	0.24839301
131	0xbe282af4	-0.16422635
132	0xbdfbb1b9	-0.12289757
133	0xbd224d0d	-0.039624263
134	0x3e0c3cf3	0.13695125
135	0xbdb1f5e7	-0.0868948
136	0x3d124fbb	0.03572057
137	0x3dd9db8a	0.10637577
138	0xbd66f7e0	-0.056388736
139	0xbe4a2399	-0.19740142
140	0xbd93c44b	-0.07215174
141	0x3e1a1915	0.1504863
142	0xbd63cd93	-0.055615973
143	0x3e668642	0.22512153
144	0xbe0d4ff5	-0.13800032
145	0xbd467b7d	-0.04845761
146	0x3d48ad4b	0.04899339
147	0x3e06c388	0.13160527
148	0x3d1929ee	0.037393503
149	0x3d909ee7	0.07061558
150	0x3c47a620	0.012185603
151	0x3d16252c	0.036656544
152	0xbe1ded61	-0.15422584
153	0x3d223a4e	0.039606385
154	0x3e806800	0.25079346
155	0x3caf97d0	0.021434695
156	0xbd2d459d	-0.042302717
157	0x3d027272	0.031847425
158	0xbc839c5f	-0.016065774
159	0x3e4110d5	0.18854077
160	0xbd3771c9	-0.04478625
161	0x3d0bbb5d	0.03411423
162	0xbcbe87e0	-0.02325815
163	0xbe21cf55	-0.15801747
164	0xbe59b818	-0.21261632
165	0xbe081a9f	-0.13291405
166	0x3e468f77	0.19390665
167	0x3e5fd87b	0.21859924
168	0xbe41660a	-0.18886581
169	0xbe363aee	-0.17795917
170	0xbd6505c4	-0.0559137
171	0xbe18fe85	-0.14940841
172	0x3d35b6fc	0.04436396
173	0xbd42395c	-0.047417983
174	0x3deb1912	0.11479391
175	0xbdd3c4f2	-0.10340299
176	0xbde5d8d8	-0.11223
177	0xbd978b66	-0.07399635
178	0xbdffd70f	-0.12492191
179	0xbe07ed2c	-0.13274068
180	0x3c0624e2	0.0081875045
181	0xbe5a145f	-0.21296833
182	0xbd11fb62	-0.035640128
183	0xbe4d000c	-0.20019549
184	0x3cd39ae6	0.025830697
185	0x3d1b557c	0.03792332
186	0xbe386ffb	-0.18011467
187	0x3df08269	0.11743624
188	0xbc2d58cd	-0.010580254
189	0x3e754000	0.23950195
190	0x3e5e30b2	0.21698263
191	0x3e886232	0.26637417
192	0x3df4bb79	0.1194982
193	0xbe053e64	-0.13012081
194	0x3e5dc4be	0.21657082
195	0xbe82a51c	-0.25516593
196	0xbd316acf	-0.04331475
197	0xbd9cb140	-0.07650995
198	0x3e08c79f	0.133574
199	0xbe217b42	-0.15769675
200	0xbd9ab164	-0.07553366
201	0xbde25c54	-0.110527664
202	0x3e731441	0.23738195
203	0x3d83bb5f	0.064322226
204	0x3e82c109	0.255379
205	0xbd6cb101	-0.05778599
206	0x3e6afbf4	0.22947675
207	0xbe7c53d0	-0.24641347
208	0x3e2f7c19	0.17137183
209	0xbe5805f4	-0.21096021
210	0x3e5aab20	0.21354342
211	0xbdbc9bfb	-0.092094384
212	0x3d9d32f4	0.07675734
213	0x3e49a76f	0.19692777
214	0xbdb89ae9	-0.09013922
215	0x3e192ab4	0.14957696
216	0x3aa9d6e4	0.0012957719
217	0x3e460c5b	0.1934065
218	0x3d3e533e	0.046466105
219	0x3e01635a	0.12635556
220	0xbe3a7f57	-0.18212639
221	0x3e6ad0fc	0.22931284
222	0x3d6f56f2	0.058432527
223	0x3c947d53	0.018126165
224	0x3d716dbd	0.058942545
225	0x3b8eb733	0.004355335
226	0xbd79d394	-0.060992792
227	0x3e34947e	0.1763477
228	0x3e05fa3f	0.13083743
229	0x3e513727	0.20431195
230	0x3e5d82f1	0.21631981
231	0xbde42698	-0.11140174
232	0x3e3e43a6	0.18580493
233	0xbe4d964d	-0.20076866
234	0xbe23111c	-0.15924495
235	0x3e3f2dca	0.18669811
236	0xbe532b6b	-0.20622031
237	0x3d19bbfe	0.0375328
238	0x3e385471	0.18000962
239	0xbd8c839e	-0.068610415
240	0x3e12984f	0.14315914
241	0xbe47c498	-0.19508588
242	0xbdb76232	-0.08954276
243	0xbc387f8a	-0.011260876
244	0x3e559c51	0.20860411
245	0xbe028768	-0.12746966
246	0xbe80d2f1	-0.25160936
247	0xbdb36ad2	-0.08760609
248	0x3e0cfacf	0.13767551
249	0x3dbfc6e2	0.09364106
250	0x3d049f48	0.032378465
251	0x3cfec9fc	0.031102173
252	0x3de505c2	0.11182739
253	0x3d79cc7c	0.060986027
254	0xbdb11bac	-0.08647856
255	0xbe0e37e6	-0.13888511

fc1.bias f4 [64]
0	0x3e5a0cb0	0.21293902
1	0x3c4d0a44	0.012514655
2	0xbd853a16	-0.0650522
3	0x3e275199	0.16339721
4	0xbe160e1b	-0.14653818
5	0x3c8c8e4f	0.017157702
6	0x3dc560d0	0.09637606
7	0x3e80980f	0.25116012
8	0xbd2e76ad	-0.042593647
9	0x3c7e0450	0.015503958
10	0xbe32ec87	-0.1747304
11	0x3e38ef08	0.18059933
12	0xbdbe1813	-0.092819355
13	0x3e40a632	0.18813398
14	0xbe2d75da	-0.16939488
15	0xbdf28340	-0.1184144
16	0xbe0037f7	-0.12521349
17	0xbe10ff87	-0.14159976
18	0x3d6f5963	0.058434855
19	0x3e844c44	0.25839436
20	0x3b68f38f	0.0035545563
21	0xbd413ceb	-0.047177237
22	0xbc7dae63	-0.015483472
23	0xbd68f400	-0.05687332
24	0x3e81633c	0.25271022
25	0xbe28bdcb	-0.1647865
26	0xbe738d01	-0.23784257
27	0xbe462ade	-0.1935229
28	0x3e2694e8	0.1626774
29	0x3d99060a	0.07471855
30	0xbe6fa5b0	-0.23403049
31	0x3e3f9a65	0.1871124
32	0x3d5a41bc	0.053285345
33	0xbe48d61b	-0.19612925
34	0x3e004afd	0.12528606
35	0xbe14bf50	-0.14526105
36	0xbe6a6e73	-0.22893696
37	0x3d478717	0.048712816
38	0x3da0bc1d	0.0784838
39	0x3d8cfe83	0.06884482
40	0xbd66ac5b	-0.056316715
41	0x3e00593d	0.12534042
42	0x3e8c3ac5	0.27388588
43	0xbd4124fa	-0.047154404
44	0xbe4f3e25	-0.2023855
45	0xbe3d27a1	-0.18472148
46	0x3da247ea	0.07923873
47	0x3e2e24f9	0.17006291
48	0x3d9c4b80	0.07631588
49	0x3e24d8c4	0.16098315
50	0xbe29a36b	-0.16566245
51	0x3a003863	0.0004891215
52	0x3e40a828	0.18814147
53	0xbdcd2a4b	-0.10017832
54	0xbde60367	-0.11231118
55	0x3dc1a2e7	0.09454899
56	0xbd0ba357	-0.03409132
57	0xbe5d6285	-0.21619613
58	0xbe3618d1	-0.17782904
59	0x3e336502	0.17519
60	0x3ddcea9b	0.10786935
61	0x3d9c0336	0.076178
62	0x3e512e6c	0.20427865
63	0xbe3850f3	-0.1799963

fc2.weight f4 [128, 64]
0	0x3e061709	0.13094725
1	0xbd98a32b	-0.07452997
2	0x3d29fd26	0.041501187
3	0x3d5312aa	0.05153147
4	0xbc354bbf	-0.011065423
5	0x3c5e2604	0.013558868
6	0x3d46a34e	0.048495583
7	0x3d317b4a	0.04333047
8	0xbd4bc5ad	-0.049749065
9	0x3df06d02	0.117395416
10	0xbe5c2295	-0.21497567
11	0x3ddab5e4	0.10679224
12	0x3dd36840	0.103226185
13	0x3d267b56	0.040644966
14	0x3d2fb150	0.042893708
15	0xbd235dff	-0.039884564
16	0x3c87375e	0.016505893
17	0xbddeb512	-0.1087438
18	0x3ec86dd4	0.39146292
19	0xbd96cad9	-0.07362909
20	0xbdbe18b9	-0.09282059
21	0xbbfe2011	-0.0077552875
22	0x3dfed783	0.12443449
23	0x3dd5331f	0.10410141
24	0xbd2ca4f6	-0.042149507
25	0xbd61c5c9	-0.055120263
26	0x3d311862	0.043236144
27	0x3dbe875f	0.09303164
28	0x3dc3895a	0.09547682
29	0x3c5e63b6	0.013573578
30	0xbbc08520	-0.0058752447
31	0x3d65f3e9	0.056140814
32	0x3d879d73	0.06621828
33	0xbe065ab9	-0.13120545
34	0x3ea203a6	0.3164341
35	0xbd0df589	-0.03465799
36	0xbd7b6cd8	-0.0613831
37	0xbd9638d3	-0.07335057
38	0xbdaef7c8	-0.08543354
39	0x3e223784	0.1584149
40	0x3da23124	0.07919529
41	0xbc97ceb8	-0.018531188
42	0xbdeb1b66	-0.11479835
43	0xbbf9cc09	-0.0076232
44	0xbbb6f6c7	-0.0055836174
45	0x3d79274c	0.060828492
46	0xbb381d1c	-0.0028093522
47	0xbc270eeb	-0.010196428
48	0x3ea07c46	0.31344813
49	0x3da6dce5	0.08147601
50	0xbd744182	-0.059632786
51	0xbd16d408	-0.036823303
52	0xbd1d2f21	-0.038375024
53	0xbe097f4c	-0.13427466
54	0xbd4070cc	-0.04698257
55	0x3d6cbe38	0.057798594
56	0x3de8d7af	0.113692634
57	0x3ceb08e0	0.028690755
58	0x3c9d358f	0.019190578
59	0x3d72bac6	0.059260152
60	0xbd435c75	-0.047695596
61	0xbd829d87	-0.06377702
62	0x3d1dfb0d	0.0385695
63	0xbd836546	-0.06415801
64	0x3e120072	0.14257982
65	0xbe3c690b	-0.18399446
66	0x3ca1b2a3	0.019738501
67	0xbe013541	-0.12617971
68	0xbd4c68dd	-0.049904693
69	0xbdcfa8a8	-0.101395905
70	0x3c91b4bf	0.017786382
71	0xbcdebfc3	-0.027191048
72	0x3d9ff812	0.078109875
73	0xbb9ece00	-0.0048463345
74	0xbe10cf40	-0.1414156
75	0x3dbe6f0e	0.09298526
76	0xbd5913b2	-0.0529973
77	0x3d9a6d93	0.07540431
78	0x3df69dca	0.120418146
79	0x3d89da9c	0.067311496
80	0x3dd9b913	0.10631003
81	0xbc9f1c93	-0.019422805
82	0x3f104712	0.56358445
83	0x3ce28775	0.027652482
84	0xbcc856f4	-0.024455525
85	0xbe211620	-0.15731096
86	0x3e17c9dc	0.14823097
87	0xbda04dbc	-0.07827327
88	0x3dd85022	0.10562159
89	0x3e2716f2	0.16317347
90	0xbe129319	-0.14313926
91	0x3de3fbc9	0.111320086
92	0xbdd0e75e	-0.1020038
93	0x3dc31746	0.095259234
94	0xbdf6aff4	-0.12045279
95	0xbd71fd7f	-0.059079643
96	0x3e1e41d5	0.154548
97	0x3dd828fe	0.10554694
98	0xbe3305c9	-0.17482676
99	0xbd590630	-0.052984416
100	0xbdc98e20	-0.09841561
101	0x3ec16225	0.3777019
102	0x3dfa3665	0.12217406
103	0x3e6cfd94	0.23143607
104	0xbd81c97b	-0.063372575
105	0xbcb151b8	-0.021645412
106	0xbc59b568	-0.0132878795
107	0xbdc623cb	-0.09674796
108	0xbe371f37	-0.17883001
109	0x3d95aec2	0.07308723
110	0x3e097384	0.13422972
111	0xbe06caba	-0.13163272
112	0x3e8209a2	0.25397974
113	0x3e76c4f5	0.2409857
114	0x3ddb999b	0.10722657
115	0xbe3f3751	-0.18673445
116	0x3d462f21	0.04838479
117	0x3e018929	0.12649979
118	0x3ccb6ea0	0.024833024
119	0x3b877b37	0.0041345614
120	0xbd52f3cd	-0.051502038
121	0xbd53b048	-0.051681787
122	0x3c376009	0.01119233
123	0xbd8fe682	-0.07026388
124	0x3e05fdbd	0.13085075
125	0x3c5315ec	0.012883645
126	0xbd00d6ba	-0.03145478
127	0x3c59495b	0.013262118
128	0x3ddd8e99	0.10818214
129	0x3e104e7c	0.1409244
130	0x3d8afe52	0.06786789
131	0xbdb9026e	-0.090336666
132	0xbb08b174	-0.0020857723
133	0xbd86a2cb	-0.06574019
134	0xbdb0bdd5	-0.086299576
135	0x3d6e2360	0.058139205
136	0xbc6756b4	-0.014119793
137	0xbb8f1c80	-0.004367411
138	0x3d766c03	0.0601616
139	0xbd373152	-0.04472477
140	0xbd8865dd	-0.06660054
141	0x3e04bff1	0.12963845
142	0xbd59c7b0	-0.053168952
143	0x3c84004f	0.016113428
144	0x3d454d2a	0.048169293
145	0xbd0c7252	-0.03428871
146	0x3d7df788	0.062003642
147	0xbe01191b	-0.12607233
148	0x3dcf7791	0.10130227
149	0x3d817d74	0.063227564
150	0x39917f72	0.0002775151
151	0xbd81cd75	-0.06338016
152	0xbe16b418	-0.14717138
153	0xbd84e998	-0.06489867
154	0xbe087c86	-0.13328752
155	0xbdeed100	-0.11660957
156	0xbd1162ed	-0.035494734
157	0x3d27830f	0.04089647
158	0xbd49d808	-0.04927829
159	0x3db4f4ca	0.08835752
160	0xbdf10c71	-0.11769951
161	0x3bd9a644	0.006642135
162	0x3d267386	0.040637515
163	0xbda657f6	-0.08122246
164	0xbde3ca5a	-0.1112258
165	0xbd6e097c	-0.058114514
166	0x3d94a6b1	0.07258356
167	0x3da96b50	0.08272421
168	0x3db7ae99	0.08968849
169	0xbc24d6d0	-0.010060981
170	0xbddbf810	-0.107406735
171	0x3dc74618	0.09730166
172	0x3d03ccff	0.03217792
173	0xbc1385e0	-0.009004086
174	0x3de372af	0.111058585
175	0x3d5ec148	0.054383546
176	0x3cab7eb9	0.02093445
177	0x3d5cda05	0.053918857
178	0x3d151f8e	0.036407046
179	0xbda36638	-0.07978481
180	0xbd1c5641	-0.038168196
181	0xbda3536a	-0.07974894
182	0xbdcab2cc	-0.09897384
183	0x3e2f540e	0.17121908
184	0x3de1b94d	0.110216714
185	0x3d8def28	0.06930381
186	0x3d20ae46	0.0392287
187	0xbd7de6db	-0.06198774
188	0xbdaddc87	-0.08489328
189	0xbcbbdc94	-0.022932328
190	0xbdc7d1b7	-0.09756797
191	0xbc754a5f	-0.014971345
192	0xbd23f9d7	-0.040033188
193	0xbe0eca0d	-0.13944264
194	0x3d0838f0	0.033257425
195	0x3de57312	0.112035885
196	0xbde502aa	-0.11182149
197	0x3c23941b	0.009984042
198	0xbcebf581	-0.028803589
199	0x3db563c5	0.0885692
200	0x3db52936	0.08845751
201	0x3dd3fe1c	0.10351202
202	0xbf3c0f18	-0.7346053
203	0x3dec1924	0.11528233
204	0x3db7bfde	0.08972143
205	0x3e38d053	0.1804822
206	0xbdc538a6	-0.096299455
207	0xbd399a38	-0.04531309
208	0xbf88e2ce	-1.0694215
209	0x3dcd4d81	0.10024548
210	0x3f133b3f	0.5751228
211	0xbe12ca01	-0.14334871
212	0xbe064042	-0.1311045
213	0xbcbf1fef	-0.023330657
214	0xbef52022	-0.47876078
215	0x3ddc1c7a	0.10747619
216	0x3eb7769b	0.35832676
217	0xbd8f280b	-0.069900595
218	0xbd85b116	-0.06527917
219	0xbe1dae87	-0.15398608
220	0x3c365bdc	0.011130299
221	0xbdb5df96	-0.08880536
222	0x3dfe0a44	0.12404302
223	0xbd4ec2f7	-0.0504789
224	0x3d5f7312	0.0545531
225	0xbee7c05d	-0.4526395
226	0xbfbc420e	-1.4707658
227	0x3e9fce89	0.3121226
228	0xbbe6c460	-0.0070424527
229	0xbd76c121	-0.060242776
230	0x3d8df329	0.06931145
231	0x3eb6cc3f	0.35702702
232	0xbe014c04	-0.12626654
233	0x3b8ef820	0.004363075
234	0xbe2fce75	-0.17168601
235	0x3e012a03	0.12613682
236	0x3d7474e8	0.059681803
237	0x3dcf5196	0.10122983
238	0x3d71e666	0.059057616
239	0x3d008902	0.03138066
240	0xbf351137	-0.7072939
241	0x3e9231b5	0.28553548
242	0xbde756c9	-0.1129585
243	0xbdb0fe23	-0.08642223
244	0x3d1d4685	0.03839733
245	0xbe006d2a	-0.12541643
246	0x3d999462	0.07499005
247	0x3dd637be	0.10459851
248	0xbd890380	-0.06690121
249	0x3dca9a8e	0.0989276
250	0xbee704e2	-0.45120913
251	0xbd5108e7	-0.05103388
252	0x3dd28f2d	0.10281215
253	0x3d8db54f	0.069193475
254	0x3d4d38e0	0.05010307
255	0xbd3617be	-0.044456236

fc2.bias f4 [128]
0	0xbc79d44a	-0.015248368
1	0xbcea6aed	-0.02861544
2	0x3dedfc2f	0.11620366
3	0xbdd14203	-0.10217669
4	0x3c355d78	0.011069648
5	0x3df7c584	0.1209822
6	0x3d077abe	0.03307604
7	0x3cda585d	0.026653463
8	0x3d97b6b3	0.07407894
9	0x3c9ff87b	0.019527664
10	0x3c3c1b9d	0.011481193
11	0x3ce64309	0.028108137
12	0x3cc5110d	0.024055982
13	0x3db57bd9	0.08861513
14	0x3d943687	0.07236963
15	0x3e0627a3	0.13101058
16	0xbdf5b966	-0.119982526
17	0xbd16460d	-0.0366879
18	0x3e161004	0.14654547
19	0x3dac958a	0.0842696
20	0x3de6dc27	0.112724595
21	0x3e5c8a5f	0.2153716
22	0x3d90e5fe	0.070751175
23	0x3c02c945	0.007982557
24	0x3c99974d	0.018748904
25	0x3ed85787	0.42254278
26	0x3d289442	0.041157015
27	0xbdfb9926	-0.1228507
28	0xbbf22320	-0.007389441
29	0xbd712223	-0.058870446
30	0x3cf3dfc5	0.029769788
31	0xbcc9af8d	-0.024619842
32	0x3df05a98	0.117360294
33	0x3de2d9bd	0.110766865
34	0xba90420e	-0.0011006014
35	0xbd51e368	-0.051242262
36	0x3d53e781	0.05173445
37	0x3de2ff1d	0.11083815
38	0x3dc3e035	0.095642485
39	0x3d365d2e	0.044522457
40	0xbcdf9165	-0.02729101
41	0x3db96820	0.090530634
42	0x3de1ccee	0.11025415
43	0x3d30b8b0	0.04314488
44	0xbd82dae2	-0.06389405
45	0xbc03e20d	-0.0080495
46	0x3d0c3b3d	0.03423618
47	0xbc98dbd2	-0.018659506
48	0x3d76ef90	0.06028706
49	0x3e01dede	0.12682673
50	0x3d8b26ad	0.06794486
51	0xbdccaa62	-0.099934354
52	0x3e0d5143	0.1380053
53	0xbab200d5	-0.001358057
54	0xbd63159d	-0.055440534
55	0xbce2216e	-0.027603831
56	0x3dc39711	0.09550298
57	0x3dca86fe	0.09889029
58	0x3dcc115f	0.09964251
59	0x3cd14274	0.025544383
60	0x3dd0cf66	0.10195808
61	0xbc7581ae	-0.014984531
62	0xbdd23fe3	-0.10266092
63	0x3e0c72b4	0.13715631
64	0x3c6fe7e4	0.014642689
65	0x3d8a3de1	0.06750084
66	0xbcdff3f2	-0.027338002
67	0x3cfc9b24	0.030835696
68	0xbd8d16ab	-0.06889089
69	0x3c750d73	0.01495682
70	0x3def91e7	0.116977505
71	0x3d47db3b	0.04879306
72	0xbd2e2a19	-0.042520616
73	0x3e0d2a9a	0.13785782
74	0x3d8559d4	0.06511274
75	0x3df79267	0.12088471
76	0xbc39df87	-0.011344797
77	0x3de70caa	0.11281712
78	0x3c980d39	0.018560993
79	0x3de685bd	0.11255977
80	0x3cb1096a	0.021610934
81	0x3e14cb3e	0.14530656
82	0x3cf10fd6	0.029426496
83	0xbb352cbb	-0.002764507
84	0x3d02b620	0.03191197
85	0x3d38bb24	0.045100346
86	0x3e27f4a7	0.16401921
87	0x3d741dc2	0.05959869
88	0x3dfec94a	0.124407366
89	0xbc170edf	-0.009219854
90	0xbe0a60be	-0.13513467
91	0x3d53c015	0.051696856
92	0xbd8ba1a8	-0.06817943
93	0xbd652534	-0.055943683
94	0x3dcb181a	0.099167064
95	0xbdff3a7c	-0.12462327
96	0x3d263beb	0.040584486
97	0xbdf913ca	-0.121619776
98	0x3d7c4c65	0.061596293
99	0x3d9ac6a4	0.07557419
100	0x3d2ede0c	0.04269223
101	0xbc50c364	-0.012741897
102	0xbcd2dfc5	-0.025741467
103	0xbe712a44	-0.2355128
104	0xbd8ec56c	-0.06971249
105	0xbca977e0	-0.020687044
106	0x3dca54b7	0.09879439
107	0xbdfe6efe	-0.12423514
108	0x3d6f4a36	0.058420382
109	0x3ce24c5a	0.027624298
110	0xbcdcc663	-0.026950067
111	0x3d8bf159	0.06833143
112	0x3dbe897d	0.093035676
113	0x3db543dd	0.088508345
114	0x3d591999	0.053002927
115	0xbd795bbb	-0.060878497
116	0x3d9d6af7	0.076864175
117	0xbda01270	-0.07816017
118	0xbc214e9c	-0.009845402
119	0xbdc3e512	-0.09565176
120	0xbcc26a34	-0.023732282
121	0x3dddf559	0.10837812
122	0x3cd6ceb9	0.02622162
123	0x3be248c5	0.0069056475
124	0x3d4d5ab6	0.050135337
125	0x3d7a2a57	0.061075535
126	0x3da56e5c	0.0807769
127	0x3d909e55	0.070614494

fc3.weight f4 [102, 128]
0	0x3b98af97	0.004659604
1	0x3d95a4a3	0.073067926
2	0x3d3bedd7	0.04588112
3	0x3d219789	0.039451156
4	0x3d6a857d	0.05725621
5	0x3cc10c05	0.023565302
6	0xbd88001f	-0.06640648
7	0xbd4e24b5	-0.050327975
8	0x3da0a037	0.078430586
9	0xbce7cf01	-0.02829695
10	0x3ca9c2ce	0.020722773
11	0xbd387324	-0.04503168
12	0x3d06464a	0.032781877
13	0xbd8d77f1	-0.06907643
14	0xbd67673d	-0.05649494
15	0x3c722ac0	0.0147807
16	0x3d93331d	0.071874835
17	0xbd7e6734	-0.06211014
18	0xbd56131b	-0.052264314
19	0x3d27e8b0	0.040993392
20	0xbcee1ca4	-0.029066391
21	0x3d6fd669	0.058554087
22	0x3d561b64	0.052272215
23	0x3cc4f70a	0.024043579
24	0x3d972db2	0.073817626
25	0xbc70784f	-0.014677121
26	0x3d8801b0	0.06640947
27	0x3c6eda76	0.014578452
28	0xbb8d9cd0	-0.004321672
29	0x3ca656e6	0.020305108
30	0x3c70fc65	0.014708613
31	0x3d4e01a2	0.050294526
32	0x3d97bbff	0.07408904
33	0xbd3b9032	-0.045791812
34	0x3d11017e	0.035401814
35	0x3d23d24f	0.039995488
36	0x3db888c7	0.09010463
37	0x3d5c810d	0.05383401
38	0x3d9efb73	0.07762804
39	0x3bc25410	0.005930431
40	0xbd58bcdf	-0.052914497
41	0x3d9a2224	0.07526043
42	0xbca2d68a	-0.01987769
43	0x3cfce02a	0.030868609
44	0x3c4e668e	0.012597693
45	0xbccb0068	-0.024780467
46	0xbbee2dad	-0.0072686286
47	0x3d63261a	0.05545626
48	0xbd834632	-0.06409873
49	0x3d81f1b9	0.06344933
50	0xbc09a3ae	-0.008400841
51	0x3d5f3d55	0.05450185
52	0x3ca18d8c	0.019720815
53	0x3c83bc0d	0.01608088
54	0xbb6b1fa8	-0.0035877023
55	0x3d120f9f	0.03565943
56	0x3d7247ed	0.059150625
57	0x3cdf0ea5	0.027228663
58	0xbd82a597	-0.0637924
59	0x3c08adbb	0.008342202
60	0x3d980a35	0.07423822
61	0xbd390eb1	-0.045180026
62	0x3d4572fb	0.048205357
63	0x3d259bf2	0.040431924
64	0x3de68e89	0.11257655
65	0xbb25541b	-0.0025227133
66	0x3d99d057	0.07510441
67	0xbcd8b9f2	-0.026455853
68	0x3dce9ba0	0.10088277
69	0xbc036875	-0.00802051
70	0x3de71ac0	0.11284399
71	0xbb388488	-0.0028155167
72	0x3d60611e	0.05478012
73	0x3b8c1e51	0.004276075
74	0x3b8f92cf	0.0043815146
75	0x3cfc7dbd	0.030821675
76	0xbcf55ae2	-0.029950563
77	0x3d576c0e	0.052593283
78	0x3ca41eb9	0.020034181
79	0xbda70b06	-0.081563994
80	0x3d0ad13b	0.033890944
81	0x3c404c8f	0.011737003
82	0xbb4ecb0b	-0.0031554129
83	0x3da734f0	0.08164394
84	0x3bc55e0d	0.0060231746
85	0x39b6e147	0.0003488159
86	0x3dac019d	0.08398745
87	0x3da13d7d	0.07873056
88	0x3d8a0b58	0.06740445
89	0xbd0dbc77	-0.034603562
90	0xbd4eb324	-0.05046381
91	0x3da18f4e	0.07888661
92	0xbcbdf96e	-0.023190226
93	0xbc27b5cb	-0.010236214
94	0x3c0564e8	0.008141734
95	0xbad4ee80	-0.0016245395
96	0xbce76b2c	-0.028249346
97	0xbbc26c14	-0.005933294
98	0xbda1c924	-0.07899693
99	0x3d0e56e3	0.03475083
100	0x3d876b0b	0.06612214
101	0x3da36344	0.07977918
102	0x3cfe76f6	0.031062584
103	0x3d2bb5e3	0.041921508
104	0x3da034ea	0.078225926
105	0xbc4f3cfc	-0.012648817
106	0x3da0a898	0.07844657
107	0x3d27bc6a	0.04095117
108	0x3d238c27	0.03992858
109	0xbb578212	-0.0032883924
110	0x3da0366d	0.07822881
111	0x3cc643a4	0.024202175
112	0x3d4a1eaa	0.04934565
113	0x3d6c1f4f	0.057647046
114	0xbc6cdfd2	-0.01445766
115	0x3d05de33	0.03268261
116	0xbcd4bb6c	-0.025968276
117	0x3d7939cc	0.060846135
118	0x3d3e9815	0.046531755
119	0x3d87aa1d	0.066242434
120	0xbd852ea0	-0.06503034
121	0x3d824618	0.063610256
122	0xbcfe4c71	-0.03104231
123	0xbc4a702c	-0.012355845
124	0xbd5f0e24	-0.054456845
125	0x3da1c009	0.07897956
126	0xbca38bf7	-0.019964201
127	0x3d197d9a	0.0374733
128	0xbc00ca12	-0.007860677
129	0xbc35af67	-0.011089182
130	0xbd8d3880	-0.06895542
131	0x3d0f12a2	0.03492988
132	0xbda1db61	-0.07903171
133	0x3d944dd0	0.07241404
134	0xbd5580a5	-0.052124638
135	0xbd42685c	-0.047462806
136	0xbda4bd17	-0.080438785
137	0xbbe63be1	-0.007026181
138	0xbc2c1ee3	-0.010505411
139	0xbcbe85b3	-0.023257112
140	0xbd711a23	-0.058862817
141	0x3d013e3a	0.031553484
142	0x3dac5e7c	0.08416459
143	0xbbac21bd	-0.0052530454
144	0xbbf8a4f0	-0.0075880215
145	0x3d83fd5a	0.06444807
146	0xbe6ec2dc	-0.2331652
147	0x3d030182	0.03198386
148	0x3ce9225a	0.028458763
149	0x3dc7f522	0.09763552
150	0xbace4d1d	-0.0015739534
151	0x3c240039	0.010009819
152	0x3cf4e885	0.02989603
153	0x3e1f12f2	0.15534571
154	0x3cfee337	0.031114204
155	0x3d353c25	0.04424681
156	0xbc2fa170	-0.010719642
157	0x3d9bdafe	0.07610129
158	0x3d94aa4d	0.07259045
159	0xbacfa655	-0.0015842417
160	0xbc314a1e	-0.010820894
161	0xbcc665c8	-0.024218455
162	0xbd031549	-0.03200272
163	0xbcbf644c	-0.023363255
164	0xbd7aec4e	-0.061260514
165	0x3d180ff9	0.037124608
166	0x3d94f6e8	0.07273656
167	0xbca53745	-0.020167956
168	0xbd4184ae	-0.047245674
169	0x3d5d68f6	0.054055177
170	0x3b072026	0.0020618527
171	0xbcc451c5	-0.023964772
172	0x3d8b2ef1	0.06796063
173	0xbd7c7002	-0.061630256
174	0xbc062bac	-0.008189123
175	0xbcce96b5	-0.025218347
176	0x3d89cec0	0.067288876
177	0xbd6ecd88	-0.05830148
178	0xbc8691eb	-0.016427001
179	0x3afea719	0.0019428461
180	0x3cb3ce56	0.021948975
181	0x3c2dce69	0.010608294
182	0x3daa282b	0.08308443
183	0x3d2c9671	0.04213566
184	0x3d9abad8	0.07555169
185	0x3c0449c9	0.008074232
186	0xbd22cb2d	-0.039744545
187	0xbd8944a6	-0.06702547
188	0x3d31a80b	0.04337315
189	0x3ce5457f	0.02798724
190	0xbcae31ac	-0.02126392
191	0x3dbc553c	0.09195945
192	0xbd2dad23	-0.042401444
193	0x3cd9c954	0.026585259
194	0x3d98937b	0.07450005
195	0x3db48d6e	0.08816038
196	0x3cbb6424	0.0228749
197	0xbd52f5cf	-0.051503953
198	0x3debdc83	0.11516669
199	0x3cffd462	0.031229202
200	0x3d1b8682	0.037970074
201	0xbd5e3bc1	-0.054256205
202	0x3d97a0ba	0.07403703
203	0xbd8d36aa	-0.06895192
204	0xbc3d52bc	-0.01155537
205	0xbd142816	-0.03617104
206	0x3d5dbd72	0.054135747
207	0x3cc52a20	0.024067938
208	0x3cb8d330	0.02256164
209	0xbd3f9ea7	-0.046782162
210	0xba515d83	-0.00079866516
211	0x3d204a42	0.039133318
212	0xbcb4f7f1	-0.022090884
213	0x3d83e3c2	0.06439926
214	0x3db6043b	0.08887526
215	0x3c6b9c76	0.014380565
216	0xbc96e333	-0.018418884
217	0xbd10e466	-0.035374068
218	0xbda8ba60	-0.08238673
219	0x3d51b6d5	0.051199753
220	0x3d0886e0	0.03333175
221	0xbb0d7dd0	-0.0021589883
222	0xbc1a814f	-0.009430244
223	0x3c88a87c	0.016681902
224	0x3d43a097	0.047760572
225	0x3c89cb05	0.01682044
226	0xbd1c2ff5	-0.038131673
227	0x3e2a86a5	0.16652925
228	0xbd376fb3	-0.04478426
229	0x3d88bc01	0.06676484
230	0x3bd895cd	0.0066096545
231	0xbe7c2fde	-0.24627635
232	0xbd3ff9ed	-0.046869207
233	0x3d2d804b	0.042358678
234	0x3c1e1ce9	0.009650447
235	0xbd887c09	-0.06664283
236	0xbcc9c8eb	-0.024631938
237	0xbcdfc8ff	-0.027317522
238	0x3be22f17	0.006902586
239	0x3db5c8d9	0.08876199
240	0xbc080da5	-0.008304034
241	0xbc967b42	-0.01836932
242	0x3c57b2a5	0.013165151
243	0x39e69dcd	0.0004398659
244	0x3bb2afba	0.005453077
245	0xbd4fa6fe	-0.050696366
246	0x3ce99228	0.028512076
247	0x3b22242d	0.00247408
248	0x3d9a0a35	0.07521478
249	0xbce8c571	-0.02841446
250	0x3c6d5655	0.014485915
251	0xbda90b8e	-0.08254157
252	0xbdd2e0c5	-0.10296778
253	0xbb5257a6	-0.00320957
254	0x3d5f9756	0.054587685
255	0x3ce806ea	0.02832361

fc3.bias f4 [102]
0	0x3cf88c68	0.030340388
1	0x3cf9db10	0.030499965
2	0x3dc10dd4	0.09426466
3	0x3ddf1076	0.108918115
4	0x3db84fa0	0.08999562
5	0xbd41cbdd	-0.04731356
6	0xbd1f5683	-0.038900863
7	0x3d6356d5	0.05550273
8	0xbc313108	-0.010814913
9	0xbd4ea821	-0.05045331
10	0xbd691d87	-0.056912925
11	0xbd0dd192	-0.03462369
12	0xbd2d5688	-0.04231885
13	0xbcbf991e	-0.023388442
14	0x3da62e0c	0.081142515
15	0xbcab2982	-0.020893816
16	0xbd172cd6	-0.036907993
17	0x3dc0e9da	0.09419604
18	0x3d2f3383	0.042773735
19	0x3d14c001	0.03631592
20	0x3d4055a6	0.04695668
21	0x3cb5af54	0.02217833
22	0xbd47fbc6	-0.048824094
23	0xbce9855d	-0.028505975
24	0xbc809ab3	-0.015698766
25	0x3ca821f1	0.020523997
26	0x3d8f7df6	0.07006447
27	0xbd4b1324	-0.0495788
28	0x3d904849	0.07045037
29	0xbd08a0af	-0.033356365
30	0xbd76e540	-0.060277224
31	0xbd442e83	-0.04789592
32	0xbd04cc00	-0.032421112
33	0xbd290b12	-0.041270323
34	0xbcdc75d1	-0.026911648
35	0xbd2ce262	-0.042208083
36	0x3cc2b06a	0.023765761
37	0xbc1a9deb	-0.009437065
38	0x3db107bd	0.08644054
39	0x3ddf5e45	0.10906652
40	0xbd886f70	-0.0666188
41	0x3d15cbee	0.036571436
42	0x3dba2b4e	0.09090291
43	0xbd7559a5	-0.059899945
44	0x3ce0d0da	0.027443338
45	0x3d6052c4	0.05476643
46	0x3d7c8120	0.06164658
47	0x3c455e93	0.012046474
48	0x3b053416	0.0020325235
49	0xbd68a185	-0.056794662
50	0x3aa71181	0.0012746305
51	0x3d5ee4a2	0.05441726
52	0x3dd1a995	0.10237423
53	0x3de428e8	0.11140615
54	0xbd88a2c1	-0.06671668
55	0x3ca3a29f	0.019975005
56	0x3ddda39f	0.10822224
57	0xbd885775	-0.06657306
58	0xbd31cc95	-0.043407995
59	0x3d98076d	0.07423291
60	0xbd744515	-0.059636194
61	0xbd7be2c4	-0.061495557
62	0x3db5e84b	0.08882197
63	0x3d8d8129	0.06909401
64	0xbb990122	-0.0046693245
65	0x3d9b8e19	0.07595462
66	0x3d8fcf2d	0.070219375
67	0x3db1ec03	0.08687594
68	0x3d95ea27	0.07320052
69	0xbca91412	-0.020639453
70	0x3db99c64	0.09063032
71	0x3d260d56	0.040540062
72	0x3b1b7334	0.002371979
73	0x3d497cff	0.04919147
74	0x3da1275c	0.07868835
75	0x3cf7eb0c	0.030263446
76	0x3d266445	0.04062297
77	0xbd337ecc	-0.043822095
78	0x3d3db726	0.046317242
79	0x3d22e26c	0.039766714
80	0xbd0c78ce	-0.034294896
81	0x3d109fdc	0.035308704
82	0xbd68007a	-0.05664108
83	0x3db502a8	0.08838397
84	0x3dca88c2	0.09889366
85	0xbd4b64d0	-0.04965669
86	0x3c16103f	0.009159147
87	0xbd3b37fd	-0.04570769
88	0x3ddcc45b	0.10779639
89	0xbd3af6f6	-0.045645677
90	0x3dc3bfb9	0.095580526
91	0x3d224a93	0.0396219
92	0xbc739e97	-0.014869354
93	0x3e837800	0.2567749
94	0xb89c3122	-7.4478114e-05
95	0x3da9f832	0.082992926
96	0x3d8a53ce	0.06754266
97	0x3dbd8f38	0.092558324
98	0x3d7e7596	0.062123857
99	0x3d9af2e1	0.07565857
100	0x3cc09b31	0.023511501
101	0xbd6043f1	-0.054752294
