Assets/ONNX models/bone_model_feet_only.onnx (onnx, 39604 bytes, 6 tensors)

fc1.weight f4 [64, 9]
0	0x3db67ce0	0.08910537
1	0x3cadfe00	0.02123928
2	0xbea69927	-0.3253872
3	0xbe1a391e	-0.15060851
4	0xbc55dca0	-0.013053089
5	0xbd708d28	-0.058728367
6	0xbda1fb2c	-0.07909235
7	0xbdde0ca6	-0.10842256
8	0x3da425ec	0.080150455
9	0xbc842819	-0.016132401
10	0x3e4f942f	0.20271371
11	0x3d03a2cd	0.03213768
12	0xbe33286f	-0.17495893
13	0x3e8c2bd3	0.27377185
14	0x3daf2c7b	0.08553406
15	0x3e4d48b2	0.20047262
16	0x3e820997	0.2539794
17	0xbebb6828	-0.36602902
18	0x3de7bcb0	0.11315286
19	0x3dd49d6b	0.103815876
20	0xbe3b4db2	-0.18291357
21	0x3e3ba824	0.1832586
22	0xbe9008b1	-0.2813163
23	0x3db9573e	0.09049843
24	0x3dbd7202	0.09250261
25	0xbd68bc55	-0.056820232
26	0x3dbfd844	0.09367421
27	0x3eace94b	0.33771738
28	0xbe004644	-0.12526804
29	0x3ea9344b	0.3304771
30	0x3ede1b18	0.43380046
31	0x3e5a884e	0.21341059
32	0xbe28f99e	-0.16501471
33	0xbd1ca103	-0.03823949
34	0x3d831550	0.064005494
35	0xbeb2f95f	-0.3495588
36	0xbeb2a516	-0.34891576
37	0x3e0ffb69	0.14060749
38	0xbd4691f9	-0.048479054
39	0x3defa9e4	0.11702326
40	0xbe2f5026	-0.17120418
41	0xbdd2e275	-0.102970995
42	0xbd8eeef1	-0.06979168
43	0x3e0935d9	0.13399448
44	0xbb7f75e3	-0.0038980178
45	0x3e0bbcb8	0.13646209
46	0xbcaa1270	-0.020760745
47	0xbde02b70	-0.10945785
48	0x3e266da6	0.16252765
49	0x3e2d9c26	0.16954097
50	0xbe8f4e94	-0.27989638
51	0xbe3edbeb	-0.1863858
52	0xbe85c598	-0.26127315
53	0xbdbc9590	-0.09208214
54	0x3e316f65	0.1732765
55	0x3e92e1d8	0.2868793
56	0xbd6f9599	-0.058492277
57	0xbe2df986	-0.16989717
58	0xbe9c2bc1	-0.30502132
59	0x3e0b7632	0.13619307
60	0x3e0a1655	0.13485081
61	0xbdcee9b3	-0.10103168
62	0xbde36517	-0.11103266
63	0x3e526565	0.20546491
64	0xbdddde25	-0.10833386
65	0xbb4e1bf6	-0.0031449771
66	0xbe47ab5e	-0.19498965
67	0xbe2af4e9	-0.16694988
68	0x3e91164d	0.28337327
69	0x3e81982d	0.25311413
70	0xbe9a619a	-0.3015259
71	0x3e70edf3	0.2352827
72	0x3d4c945f	0.049946185
73	0x3e6cd0b2	0.23126486
74	0xbce9ff76	-0.028564196
75	0x3d2fe1f8	0.04294011
76	0x3d2b05bf	0.041753527
77	0xbdad04b5	-0.084481634
78	0x3e8b751b	0.27237782
79	0x3e0fec12	0.14054897
80	0x3d0b9f75	0.034087617
81	0xbd8252fc	-0.06363484
82	0xbe0b715e	-0.13617465
83	0x3db7a8e0	0.08967757
84	0xbe87e944	-0.26545155
85	0x3ea9ddc3	0.33177003
86	0x3e3f130a	0.18659607
87	0x3e17687e	0.14785954
88	0x3cbc40d0	0.022980124
89	0xbd7ab300	-0.061205864
90	0x3cac5c36	0.021040063
91	0xbe9e87e3	-0.30963048
92	0x3e36d2b0	0.17853808
93	0xbd58383f	-0.052788015
94	0xbd78ce3c	-0.060743555
95	0xbd55e8c1	-0.052223925
96	0x3ddfb7df	0.109237425
97	0x3df1a330	0.11798704
98	0xbc0294f1	-0.007970081
99	0xbe87df19	-0.26537398
100	0x3e192e87	0.14959155
101	0xbe466d80	-0.19377708
102	0x3df02cfb	0.11727329
103	0x3e8a78a9	0.2704518
104	0x3e589db6	0.21153912
105	0x3e303980	0.17209435
106	0x3e0593c6	0.13044652
107	0x3e38ff1e	0.1806607
108	0xbea8d99c	-0.32978523
109	0x3e50689a	0.20352402
110	0x3da761fa	0.081729844
111	0xbd00380a	-0.031303443
112	0x3e62f8f9	0.22165288
113	0xbd45a2a7	-0.04825082
114	0xbdf819e0	-0.1211431
115	0x3e964dea	0.2935632
116	0xbe8f2d16	-0.27964085
117	0x3eb2dfa1	0.3493624
118	0xbe19cbb3	-0.15019111
119	0xbde4b6cd	-0.11167679
120	0xbe319b12	-0.17344311
121	0x3e988ae4	0.29793465
122	0x3e1aefc7	0.1513053
123	0xbe8d237e	-0.2756614
124	0x3e406af6	0.18790802
125	0x3dc139cf	0.09434854
126	0x3cefcac0	0.029271483
127	0x3e8c45b3	0.27396926
128	0x3d947fa0	0.07250905
129	0xbe2711b6	-0.1631535
130	0xbe493cce	-0.19652101
131	0xbe1725b8	-0.14760482
132	0xbe887a87	-0.2665598
133	0x3ddc102c	0.10745272
134	0x3d775ae0	0.0603894
135	0x3e911828	0.28338742
136	0x3e2db4d3	0.1696351
137	0xbe9196f5	-0.28435484
138	0x3e869529	0.26285675
139	0xbe0ef6b4	-0.13961297
140	0x3e4f1a6a	0.2022492
141	0x3e0fb78e	0.14034864
142	0xbea3da00	-0.32002258
143	0x3da66fe9	0.08126814
144	0xbe31cec8	-0.17364037
145	0xbe48628a	-0.1956884
146	0xbe92db2c	-0.2868284
147	0x3e5e779e	0.21725318
148	0xbe277af9	-0.16355504
149	0x3eaceea1	0.3377581
150	0xbe1d02f1	-0.15333153
151	0x3e4e6967	0.20157395
152	0x3c556756	0.0130251255
153	0xbe267cf8	-0.1625861
154	0x3e00e436	0.12587056
155	0xbdb6d1b0	-0.089267135
156	0xbe1c2e9e	-0.15252158
157	0x3e8789b7	0.26472256
158	0x3d498780	0.04920149
159	0x3dcc6ba0	0.09981465
160	0xbe94f787	-0.29095098
161	0xbc45b220	-0.012066394
162	0x3e73eaf6	0.23820099
163	0xbe97a82f	-0.296205
164	0x3ea1b40d	0.3158268
165	0xbdcbef56	-0.09957759
166	0xbd9e55b0	-0.07731187
167	0x3d966744	0.07343915
168	0x3dcf1900	0.1011219
169	0xbe41e4d0	-0.18934941
170	0x3dac6d44	0.08419278
171	0x3e3b094c	0.18265265
172	0xbe8aeed7	-0.27135345
173	0x3dc3e722	0.095655695
174	0x3ce0db36	0.027448278
175	0x3d262bf6	0.04056927
176	0x3e5ead8b	0.21745889
177	0xbcde4466	-0.027132224
178	0x3e856bbf	0.26058766
179	0xbde60ef3	-0.1123332
180	0xbc6b3bae	-0.01435749
181	0xbe17f9f7	-0.14841448
182	0xbe6906a0	-0.22756433
183	0x3e4f17bb	0.20223896
184	0xbdf2f878	-0.11863798
185	0x3cf86738	0.030322656
186	0x3e71fcbb	0.23631565
187	0x3eb15483	0.3463479
188	0xbe806fc3	-0.25085267
189	0x3d31bd7f	0.04339361
190	0x3e781992	0.24228504
191	0x3d70968b	0.05873732
192	0x3e8c20db	0.27368817
193	0xbd9a6bed	-0.075401165
194	0xbe692136	-0.22766575
195	0xbdd69d7f	-0.10479259
196	0xbde8861f	-0.113537066
197	0xbdb5ca89	-0.08876521
198	0x3b3853df	0.0028126163
199	0x3db32275	0.087468065
200	0xbdd49096	-0.1037914
201	0x3e9359da	0.2877949
202	0x3ea4e01f	0.3220224
203	0x3ea70102	0.32617956
204	0xbe797a7d	-0.24363132
205	0xbbe95bf5	-0.007121558
206	0xbe45b8d7	-0.19308792
207	0xbeacc132	-0.33741146
208	0x3e56635b	0.20936339
209	0xbe483c9d	-0.19554372
210	0x3d870184	0.06592086
211	0x3e133c43	0.14378457
212	0x3e6865c0	0.22695065
213	0x3eac3f82	0.33642203
214	0x3dc7dcaa	0.09758885
215	0xbe5b7a64	-0.21433407
216	0xbe6e6603	-0.23281102
217	0xbdd0d6a6	-0.10197191
218	0x3cf377d0	0.029720217
219	0xbbca3340	-0.0061706603
220	0x3e1f65d2	0.15566185
221	0xbe99e4cc	-0.3005737
222	0x3e6d0f92	0.23150471
223	0x3e8f934b	0.28042063
224	0xbe133896	-0.14377055
225	0xbe9b07a7	-0.30279276
226	0x3e858df1	0.26084855
227	0xbe481c2b	-0.19541995
228	0xbcd42f50	-0.025901467
229	0xbd4300d8	-0.047608227
230	0x3d85f4a4	0.06540802
231	0xbdca367c	-0.09873673
232	0x3ce66330	0.028123468
233	0xbe5843ab	-0.21119563
234	0x3e2cae22	0.16863301
235	0x3e3ffba0	0.18748331
236	0x3e01ec49	0.12687792
237	0xbcb41ac3	-0.021985417
238	0x3cf91da6	0.030409645
239	0x3df032e0	0.11728454
240	0xbe0de7b8	-0.13857925
241	0xbe4f98f3	-0.20273189
242	0x3e10c53a	0.14137736
243	0xbe68ad9e	-0.2272248
244	0xbe940be2	-0.28915316
245	0xbe06e51b	-0.13173334
246	0x3ce9f8f0	0.028561085
247	0xbe20b973	-0.15695743
248	0xbe2cd78b	-0.16879098
249	0x3e2d89c2	0.16947082
250	0x3da03590	0.07822716
251	0xbdb215a6	-0.08695535
252	0x3e4f004f	0.20214961
253	0xbdae61e0	-0.08514762
254	0xbe8fcea0	-0.2808733
255	0x3e9db1c5	0.3079969

fc1.bias f4 [64]
0	0xbe95c4c4	-0.29251683
1	0xbe8d34e7	-0.27579424
2	0x3e1ae0a0	0.1512475
3	0xbe826081	-0.25464252
4	0x3e8dc490	0.27689028
5	0xbe946a17	-0.2898719
6	0x3b31f8ec	0.0027156426
7	0xbe91ce0a	-0.28477508
8	0xbd9c1bcb	-0.076224886
9	0xbe72df98	-0.23718107
10	0x3e9db419	0.30801466
11	0x3e8d3dcd	0.27586213
12	0x3deb7d1c	0.11498472
13	0x3e5f541e	0.21809432
14	0xbde744b6	-0.112924024
15	0x3ea2bbe6	0.3178398
16	0x3ea619b8	0.32441497
17	0xbe45de08	-0.1932298
18	0xbe866ffb	-0.2625731
19	0x3e8e18cd	0.27753296
20	0x3da356bc	0.07975528
21	0x3ea40038	0.32031417
22	0x3d2bcf37	0.041945662
23	0x3e233845	0.15939434
24	0xbdec1870	-0.115280986
25	0xbdb75600	-0.0895195
26	0xbdfbb691	-0.12290681
27	0xbe89785c	-0.2684964
28	0x3e85b0fc	0.2611159
29	0x3dddcc39	0.10829968
30	0x3e6c8943	0.23099236
31	0x3e93c4ff	0.28861234
32	0xbe728e43	-0.23687081
33	0xbe1bbcc6	-0.1520873
34	0x3e67d1e4	0.2263866
35	0x3dd3989e	0.10331844
36	0xbea5ab5f	-0.32357308
37	0x3e6f2c9a	0.23356858
38	0x3d7da0ee	0.061921053
39	0xbea76dba	-0.32700902
40	0x3e6058b5	0.21908839
41	0xbe0aea58	-0.13565958
42	0x3decc540	0.1156106
43	0x3cde98fd	0.02717256
44	0x3e209f67	0.15685807
45	0xbe0b0ff0	-0.13580298
46	0x3d9bfe80	0.076169014
47	0xbbbe5388	-0.0058082975
48	0x3eab9160	0.3350935
49	0x3d3be0d1	0.0458687
50	0x3e683c91	0.22679354
51	0xbe5c2068	-0.21496737
52	0x3ceebbd0	0.02914229
53	0x3e96d478	0.29458976
54	0xbd00eb2e	-0.031474285
55	0xbc9d5388	-0.01920487
56	0x3dd2c046	0.102905795
57	0xbe941bc7	-0.28927442
58	0x3e954a6a	0.29158336
59	0xbe8210b0	-0.25403357
60	0x3e857d38	0.26072097
61	0xbd568fac	-0.05238311
62	0x3e8e6180	0.27808762
63	0x3e8d04ae	0.27542633

fc2.weight f4 [128, 64]
0	0x3d9e93de	0.07743047
1	0x3ee383a4	0.4443637
2	0x3dbd1795	0.092330135
3	0x3f1e6cf8	0.61885023
4	0x3c4ddcf7	0.012564889
5	0x3d771740	0.060324907
6	0x3d9cc2df	0.07654356
7	0x3cd78467	0.026308252
8	0x3ddd100f	0.107940786
9	0xbd4d7e44	-0.050169244
10	0x3df3030e	0.11865817
11	0x3df03a03	0.11729815
12	0x3d167eca	0.03674201
13	0x3d9f5ecc	0.07781753
14	0x3dd371e8	0.1032446
15	0xbdd5e05c	-0.10443184
16	0x3d9e214b	0.07721194
17	0x3b8ed240	0.00435856
18	0x3c63df80	0.013908267
19	0xbcb0cd2e	-0.021582212
20	0x3f0bfed0	0.5468569
21	0xbddb2675	-0.107006945
22	0x3d72055d	0.059087146
23	0x3cad1dd1	0.021132382
24	0x3d62c988	0.055367976
25	0xbca35a80	-0.019940615
26	0xbd39b0ae	-0.04533451
27	0x3d1aa994	0.03775938
28	0xbe96fe65	-0.29490963
29	0xbe233b5f	-0.15940617
30	0x3db7590a	0.0895253
31	0x3e82fe9d	0.2558488
32	0xbe4df8c0	-0.20114422
33	0x3d5ca9b6	0.053872786
34	0xbe12c95a	-0.14334622
35	0x3e190bf3	0.14945965
36	0xbd9baeb2	-0.0760168
37	0xbcfbb5ef	-0.030726401
38	0xbe0e9243	-0.13922982
39	0x3d270234	0.040773585
40	0xbcfae034	-0.030624487
41	0x3dbcbc40	0.09215593
42	0xbdf48faa	-0.11941464
43	0xbee2bd1c	-0.44284904
44	0x3de11226	0.1098979
45	0xbcdb97d8	-0.026805803
46	0x3d8999de	0.06718801
47	0xbd32e156	-0.04367193
48	0xbe09b38d	-0.134474
49	0x3dbcc2d8	0.09216851
50	0x3d376cdf	0.044781562
51	0xbb3b060e	-0.0028537544
52	0x3b938860	0.004502341
53	0xbda5f296	-0.0810291
54	0x3f3484ed	0.7051533
55	0x3f1627fc	0.5865476
56	0x3d6dba22	0.05803884
57	0xbd050f8c	-0.03248553
58	0x3de2c349	0.11072404
59	0x3c86ec38	0.01647006
60	0xbdb14c26	-0.08657102
61	0x3e21bcf9	0.15794744
62	0xbc0d1b3d	-0.008612451
63	0xbbef912a	-0.007311006
64	0x3c824088	0.015899912
65	0x3ca4f18f	0.020134715
66	0x3ce50978	0.027958617
67	0x3d644434	0.055729106
68	0x3d877b98	0.066153705
69	0x3afef380	0.0019451231
70	0x3ba252c5	0.0049537146
71	0xbdf8f259	-0.12155599
72	0x3d3f2932	0.046670146
73	0x3da7fc46	0.08202414
74	0x3da089a8	0.07838756
75	0xbdb44575	-0.088023104
76	0xbdcbc27a	-0.09949203
77	0xbd7124be	-0.05887293
78	0x3cf5aa40	0.029988408
79	0xbce6652b	-0.028124413
80	0x3d8f5376	0.06998341
81	0x3dea085e	0.11427377
82	0x3ca6c440	0.020357251
83	0xbd822aa8	-0.06355792
84	0x3d287686	0.041128658
85	0x3de8abae	0.1136087
86	0xbd92937b	-0.07157036
87	0xbd4bcf8e	-0.049758486
88	0xbb41c840	-0.0029568821
89	0xbba9b400	-0.0051789284
90	0xbcb26c8e	-0.021780279
91	0x3dc9e34a	0.09857805
92	0x3d427d13	0.04748256
93	0xbcd22aa3	-0.025655096
94	0x3dc713ad	0.0972055
95	0x3dc22f99	0.09481735
96	0xbdaec004	-0.08532718
97	0x3dd2699a	0.10274048
98	0x3de2f204	0.11081317
99	0xbcbb4577	-0.022860272
100	0xbd16cc2c	-0.036815807
101	0xbdd6d2c2	-0.104894176
102	0x3d763a69	0.060114298
103	0xbd8f1572	-0.06986512
104	0x3d2528b1	0.04032201
105	0x3c285b10	0.010275617
106	0xbde8a156	-0.113588974
107	0xbca01edc	-0.019545965
108	0xbd3603b8	-0.04443714
109	0x3d4eb688	0.050467044
110	0xbb6da894	-0.003626381
111	0xbca29935	-0.019848445
112	0x3d28dd1f	0.041226503
113	0x3d513ff1	0.05108637
114	0xbdb1b3be	-0.08676861
115	0xbd9adce4	-0.07561663
116	0x3dbee998	0.09321898
117	0x3d002a79	0.031290505
118	0x3d7fb328	0.062426716
119	0xbd612d10	-0.054974616
120	0x3d268e3e	0.040662996
121	0x3da88da0	0.08230138
122	0xbdd03bf1	-0.10167683
123	0x3d5d1b50	0.053981125
124	0x3db38a17	0.08766573
125	0x3ca38f99	0.019965934
126	0xbd802418	-0.06256884
127	0xbd66651c	-0.05624877
128	0xbda33642	-0.07969333
129	0xbbe2e940	-0.006924778
130	0xbdfd9f4a	-0.123838976
131	0xbd7ba31c	-0.06143485
132	0xbdc876b2	-0.09788264
133	0xbdaf9dd0	-0.08575022
134	0xbb719280	-0.0036861002
135	0xbd698758	-0.05701384
136	0xbdabcbe2	-0.08388497
137	0x3d0e12dc	0.034685954
138	0xbcd58708	-0.026065364
139	0xbdfc7038	-0.123260915
140	0x3d5cc9cc	0.053903386
141	0xbd5fe1d4	-0.054658726
142	0xbd7e367c	-0.06206368
143	0x3cc9d0f0	0.024635762
144	0x3dca2b6e	0.09871565
145	0x3db5b5fe	0.08872603
146	0x3da42a7e	0.08015917
147	0xbdca723e	-0.09885071
148	0xbb2a1540	-0.0025952607
149	0xbce93000	-0.028465271
150	0xbdbf0c2c	-0.093284935
151	0xbd3d86f0	-0.046271265
152	0xbdc3f176	-0.095675394
153	0x3d71f23c	0.059068903
154	0x3df58890	0.11988938
155	0xbd92cebe	-0.07168339
156	0xbda6f304	-0.0815182
157	0x3dec53c6	0.11539416
158	0x3d9c050c	0.0761815
159	0xbdaf51fa	-0.08560558
160	0x3da83066	0.08212356
161	0xbda422e4	-0.08014467
162	0x3d5a0e08	0.053236037
163	0xbde0c544	-0.109751254
164	0x3dd68ec8	0.10476452
165	0xbd92f490	-0.07175553
166	0xbded87ae	-0.115981445
167	0x3d1b3468	0.037891775
168	0xbdc62442	-0.096748844
169	0x3d540338	0.051760882
170	0xbdd4a5da	-0.10383196
171	0x3d63f220	0.05565083
172	0xbd0bc838	-0.03412649
173	0xbdc19f12	-0.094541684
174	0xbd9ea7a0	-0.07746816
175	0xbd9246ce	-0.07142411
176	0x3ccaa1e8	0.024735406
177	0x3dc07aac	0.09398398
178	0xbdd95252	-0.106114045
179	0xbd867cba	-0.065667585
180	0x3c35e600	0.0111022
181	0xbd928664	-0.07154539
182	0x3d785914	0.060631827
183	0x3d6836dc	0.056692943
184	0x3dd61d54	0.10454813
185	0xbc267240	-0.010159075
186	0xbdbd1d40	-0.092340946
187	0xbd961eb0	-0.07330072
188	0x3d9d3780	0.076766014
189	0x3dee9156	0.116488144
190	0xbde16520	-0.11005616
191	0xbdd79386	-0.10526185
192	0x3d9bdd30	0.076105475
193	0x3e21446c	0.15748757
194	0xbdbce077	-0.09222501
195	0xbe25a942	-0.16177848
196	0xbd522518	-0.051304907
197	0xbdec88dc	-0.11549541
198	0x3dd6bae1	0.10484863
199	0xb9ce031a	-0.00039293693
200	0xbdc59635	-0.0964779
201	0x3d8799fc	0.06621167
202	0x3d9bf1ec	0.07614502
203	0x3cfba061	0.030716123
204	0x3de977d3	0.11399808
205	0x3dd5b778	0.104353845
206	0x3cae1360	0.021249473
207	0x3ddc77a7	0.107650094
208	0x3d98b009	0.07455451
209	0x3dbc20b8	0.09185928
210	0x3dab160a	0.08353813
211	0xbca37332	-0.01995239
212	0xbc79863c	-0.015229758
213	0xbda5bcb6	-0.080926344
214	0x3d864d43	0.06557705
215	0x3dff9328	0.1247924
216	0xbdae6a86	-0.085164115
217	0xbd69d320	-0.05708611
218	0xbcffa1a4	-0.031205006
219	0x3df7a968	0.120928586
220	0x3dab2ee3	0.08358552
221	0x3d5fb7e7	0.054618742
222	0xbd90665f	-0.07050776
223	0x3d9d98a1	0.07695127
224	0x3d905a7d	0.07048509
225	0x3da3a943	0.079912685
226	0xbd7da7f9	-0.06192777
227	0x3d94026a	0.07227023
228	0xbda60bda	-0.08107729
229	0xbd93cfc3	-0.07217362
230	0xbdc8dc19	-0.09807605
231	0xbdf14a7c	-0.11781785
232	0x3dd83977	0.105578355
233	0xbdcb2454	-0.099190384
234	0xbcc0a638	-0.02351676
235	0x3d8dde6c	0.06927189
236	0xbc85280d	-0.01625445
237	0x3c357d80	0.011077285
238	0x3cf94c20	0.030431807
239	0x3da1fae7	0.07909184
240	0x3d821987	0.06352525
241	0x3dcceb46	0.10005812
242	0x3d98f39a	0.07468338
243	0x3dccf6e0	0.10008025
244	0xbd91d06a	-0.0711983
245	0x3d51a23e	0.051180117
246	0x3d9bff04	0.07617
247	0xbe3af7a9	-0.18258537
248	0xbd08bd1f	-0.033383485
249	0xbd8fd52e	-0.07023083
250	0x3dd0b856	0.10191409
251	0x3ba54b40	0.005044371
252	0x3b8cf3ad	0.0043015094
253	0xbdc1212e	-0.09430157
254	0x3ba824c5	0.0051313364
255	0xbd4ad428	-0.049518734

fc2.bias f4 [128]
0	0xbccfe35c	-0.025376968
1	0xbdd293e4	-0.10282114
2	0xbb54a200	-0.0032445192
3	0xbdb4fcd5	-0.088372864
4	0x3e131b79	0.14365949
5	0x3db0c32d	0.08630977
6	0xbc5c8185	-0.013458614
7	0xbd0e4c65	-0.034740824
8	0x3dfc0539	0.12305684
9	0xbdde6ca6	-0.10860567
10	0xbd6c3b81	-0.057673935
11	0xbcc35f48	-0.023849145
12	0xbca68ed0	-0.02033177
13	0xbd0b9920	-0.03408158
14	0x3b9426e0	0.004521236
15	0xbd9fa622	-0.07795359
16	0xbded78a4	-0.11595276
17	0xbd8d7f72	-0.06909074
18	0x3dcb3087	0.09921365
19	0x3ddd2306	0.10797696
20	0xbda20904	-0.07911876
21	0xbb9d2544	-0.004795702
22	0x3c8e9a98	0.0174077
23	0x3d1668ce	0.036721043
24	0xbdeabf2a	-0.11462243
25	0xbddf3aac	-0.10899863
26	0xbd7e4bec	-0.062084123
27	0xbddaf08c	-0.10690412
28	0x3d543258	0.051805824
29	0xbc0e59b0	-0.008688375
30	0x3d34ac76	0.044109784
31	0xbd53eed5	-0.05174144
32	0x3d9787c0	0.07398939
33	0x3e0be791	0.13662554
34	0xbd7736d3	-0.06035502
35	0xbd8cc8d4	-0.068742424
36	0xbd38e84c	-0.04514341
37	0x3c60d0ae	0.013721628
38	0xbbd469c0	-0.006482333
39	0xbd942bc7	-0.07234912
40	0x3c9480a8	0.018127754
41	0x3da7bac1	0.08189917
42	0x3d24f7b8	0.040275306
43	0x3dbaf2d8	0.0912835
44	0xbd793833	-0.06084461
45	0x3b92aac0	0.0044759214
46	0xbd2dc983	-0.042428505
47	0xbb354fdc	-0.0027666008
48	0x3d9a365c	0.075298995
49	0x3caf28b8	0.02138172
50	0xbd00d500	-0.031453133
51	0xbda43334	-0.08017579
52	0xbe0c89fd	-0.13724513
53	0x3d038c92	0.03211648
54	0x3dfe7a43	0.12425663
55	0xbcb3c044	-0.021942265
56	0xbddd0698	-0.10792273
57	0x3ab87a80	0.0014074594
58	0x3dc00035	0.093750395
59	0xbded3f26	-0.1158431
60	0x3d12a138	0.03579828
61	0x3e043845	0.1291209
62	0x3d9f7bdd	0.07787297
63	0xbc1011d1	-0.00879331
64	0xbdf042ae	-0.11731468
65	0xbdf55f42	-0.119810596
66	0x3c81f600	0.015864372
67	0xbd9f18a0	-0.07768369
68	0xbd50113c	-0.050797686
69	0x3d6eef21	0.05833352
70	0xbcdf45a9	-0.027254896
71	0xbd05c3b4	-0.03265734
72	0xbda939d4	-0.08262983
73	0xbdbc3384	-0.09189513
74	0x3e02c73e	0.12771317
75	0x3db86183	0.09002974
76	0x3dc8ab8a	0.097983435
77	0x3d8ce8b4	0.06880322
78	0xbd10cd1b	-0.035351854
79	0x3dac8371	0.08423508
80	0x3d14af24	0.03629984
81	0xbd3182bc	-0.04333757
82	0x3c8e87b2	0.017398689
83	0x3dc9d314	0.09854713
84	0x3d907a29	0.0705455
85	0x3c898e76	0.016791563
86	0x3d0df61b	0.034658533
87	0x3d5e859e	0.054326646
88	0x3dc5bf5f	0.09655642
89	0xbcd11488	-0.025522485
90	0x3dc70cc8	0.09719235
91	0xbb7f1f80	-0.0038928688
92	0x3dc5cbc9	0.096580096
93	0x3d34b07e	0.04411363
94	0xbd12d104	-0.035843864
95	0x3e01fa82	0.12693217
96	0x3b61d2fb	0.003445803
97	0x3da0a9dd	0.07844899
98	0x3d602882	0.05472613
99	0xbcedd190	-0.029030591
100	0xbdba47aa	-0.090957
101	0x3c665b90	0.014059916
102	0xbc68e3a9	-0.014214435
103	0xbdcae276	-0.09906475
104	0xbd1b1fe0	-0.037872195
105	0xbdd70f46	-0.1050096
106	0x3d15685c	0.036476478
107	0x3c4e50c9	0.012592503
108	0x3d8acb02	0.06777002
109	0x3dfefa90	0.12450135
110	0xbd227414	-0.039661482
111	0xbdf31f66	-0.11871223
112	0x3d62da17	0.055383768
113	0xbd976ac2	-0.07393409
114	0x3d8170da	0.06320353
115	0xbd136784	-0.035987392
116	0xbdf14dd2	-0.11782421
117	0xbd92c074	-0.07165614
118	0xbdedb265	-0.11606292
119	0x3ce6c1c0	0.02816856
120	0x3dbb325f	0.09140467
121	0xbc37d0e0	-0.011219233
122	0xbc7c14b5	-0.015385796
123	0x3d97ed3e	0.07418297
124	0x3dea1cbe	0.114312634
125	0x3d853b9c	0.0650551
126	0xbb5f4d80	-0.0034073293
127	0xbcfab288	-0.030602708

fc3.weight f4 [6, 128]
0	0xbcf102b2	-0.02942023
1	0x3dc060b7	0.09393447
2	0x3bd6edb0	0.0065590963
3	0x3dd0bc22	0.101921335
4	0xbc4e3af8	-0.012587301
5	0xbcf7d3f7	-0.03025244
6	0x3d7a2fea	0.06108085
7	0x3d8dc5d2	0.06922497
8	0x3da7bb61	0.081900366
9	0x3daa2a3f	0.08308839
10	0x3d1da418	0.03848657
11	0xbd9815b9	-0.07426018
12	0x3c8a0fb0	0.016853184
13	0x3d94882d	0.07252536
14	0xbc256bb0	-0.0100964755
15	0x3c3b1ac0	0.011419952
16	0xbd25cfda	-0.040481426
17	0xbd9cab94	-0.076499134
18	0x3cccdf63	0.025008863
19	0x3cc1874b	0.023624083
20	0xbc1e67ff	-0.009668349
21	0xbd654b24	-0.055979863
22	0xbb0dff20	-0.002166696
23	0x3d5ef5eb	0.054433744
24	0x3d929ce7	0.07158833
25	0x3d92b802	0.07164003
26	0x3a957640	0.0011403039
27	0x3a3bcf16	0.0007164342
28	0x3be300aa	0.0069275694
29	0x3bf602d0	0.0075076595
30	0x3c827774	0.0159261
31	0xbd344838	-0.044014186
32	0x3d4aa1b5	0.049470622
33	0xbe1cb9c8	-0.15305245
34	0xbd77e656	-0.0605224
35	0xbd9f63f7	-0.07782739
36	0x3d2accf2	0.041699357
37	0x3dcc9766	0.099898145
38	0xbccc036c	-0.024903975
39	0x3dabd8ca	0.083909586
40	0xbba59f20	-0.0050543696
41	0x3d97a1e8	0.07403928
42	0x3d9caa2b	0.076496445
43	0x3dcab657	0.0989806
44	0xbcdbb58f	-0.026819972
45	0xbd602732	-0.05472488
46	0x3c28a347	0.010292835
47	0x3c918eff	0.017768381
48	0x3d414912	0.047188826
49	0x3d929e03	0.071590446
50	0xb91d7a00	-0.00015018135
51	0x3d847e1d	0.06469367
52	0xbd6ab670	-0.057302892
53	0x3dbb629b	0.09149667
54	0x3d0a1503	0.033711445
55	0xbd732ae7	-0.059367087
56	0x3d84cfa7	0.06484919
57	0x3d559c4e	0.052151017
58	0x3d0ce150	0.034394562
59	0xbccd4c48	-0.025060788
60	0x3d426f8c	0.04746966
61	0x3cfb832d	0.030702198
62	0xbc162719	-0.009164595
63	0xbcf0112a	-0.02930506
64	0xbd00defc	-0.031462654
65	0xbd8ab92c	-0.067736
66	0x3ca23a04	0.019803055
67	0x3d921be4	0.07134226
68	0xbce4fd92	-0.027952943
69	0xbd7391d3	-0.05946524
70	0xba92aba0	-0.0011190064
71	0xbd6d33dc	-0.057910785
72	0xbd462280	-0.048372746
73	0xbda06074	-0.07830897
74	0x3cc7ded7	0.02439825
75	0xbd734663	-0.059393298
76	0x3d2df856	0.04247316
77	0x3cd5744c	0.026056431
78	0x3cf38204	0.029725082
79	0xbd87511e	-0.06607269
80	0xbd6d0724	-0.057868138
81	0xbc2b3960	-0.010450691
82	0xbd5336b4	-0.05156584
83	0xbd4d71e7	-0.050157454
84	0xbd560bc2	-0.052257307
85	0xbd1ea7dd	-0.038734306
86	0x3d3f4999	0.046701048
87	0xbd094122	-0.03350938
88	0x3db18825	0.08668546
89	0x3d14eec6	0.036360525
90	0xbd9f3819	-0.07774372
91	0x3d54b466	0.051929854
92	0xbd815a24	-0.06316021
93	0x3dcec8cb	0.10096892
94	0xbd267fde	-0.040649287
95	0x3d5867fe	0.05283355
96	0x3c4c83cd	0.012482596
97	0x3c8358c1	0.016033532
98	0x3de0401a	0.109497264
99	0xbda365be	-0.0797839
100	0xbda4c682	-0.08045675
101	0xbd700ca0	-0.05860579
102	0xbd3343ed	-0.04376595
103	0xbcae3df8	-0.021269783
104	0x3d70f9de	0.058832042
105	0xbd3db494	-0.04631479
106	0xbd840e18	-0.06448001
107	0x3d85397a	0.065051034
108	0x3d542256	0.051790558
109	0x3da5a945	0.08088926
110	0xbdb32b1b	-0.08748456
111	0x3db04549	0.08606965
112	0xbc80e056	-0.015731972
113	0x3c509a0a	0.012732038
114	0xbcb5f020	-0.022209227
115	0x3d17dfbe	0.03707861
116	0x3d25f826	0.040519856
117	0x3d88e093	0.06683459
118	0xbd07087f	-0.032967087
119	0xbd9079c2	-0.070544735
120	0xbb7be3e9	-0.0038435406
121	0xbcf77b66	-0.030210208
122	0x3c76e0f1	0.015068279
123	0x3da95fbe	0.082702145
124	0xbd29c7d3	-0.041450333
125	0x3cc7a495	0.024370471
126	0x3d5d6a0e	0.05405622
127	0xbd807200	-0.06271744
128	0x3e1f87ef	0.15579198
129	0xbd2ac867	-0.041695025
130	0x3d27e652	0.040991135
131	0x3d0d60e1	0.03451622
132	0xbb5edeb3	-0.003400725
133	0xbd89ec81	-0.06734563
134	0x3da45fe5	0.08026103
135	0xbb19c743	-0.0023464717
136	0xbd89acc9	-0.06722409
137	0x3dab7233	0.08371391
138	0x3d5887fc	0.05286406
139	0x3d451b3e	0.048121683
140	0x3d5ddd6a	0.054166235
141	0x3cea8428	0.02862747
142	0xbcdb4fc4	-0.026771434
143	0x3c801058	0.015632793
144	0x3b6f16a0	0.0036481991
145	0xbd634584	-0.055486217
146	0xbd720e27	-0.059095528
147	0x3d0629a3	0.03275455
148	0xbc45a81d	-0.012064007
149	0x3c0e4a1e	0.008684663
150	0xbd79bd61	-0.06097162
151	0xbd8ba7fe	-0.06819151
152	0x3da28e8d	0.07937346
153	0x3d4420f6	0.047882996
154	0x3c560c30	0.013064429
155	0x3db0d5d1	0.08634532
156	0x3d4c8145	0.04992797
157	0xbd437496	-0.047718607
158	0xbcc0ea2a	-0.023549158
159	0xbcbdc2e6	-0.023164224
160	0x3d062cdb	0.03275762
161	0x3ea9180f	0.33026168
162	0x3ca9b371	0.020715447
163	0xbda0143b	-0.07816359
164	0xbd8d7a91	-0.06908143
165	0xbca849de	-0.020543035
166	0x3da0247f	0.07819461
167	0x3c9604d9	0.018312858
168	0xbd4fa3d3	-0.050693344
169	0xbd7864bd	-0.060642947
170	0x3da3496b	0.07972988
171	0x3d9727f8	0.0738067
172	0x3d9f4b95	0.07778088
173	0xbd8ee45d	-0.069771506
174	0x3d248a46	0.04017093
175	0xbd8dc14d	-0.06921635
176	0xbcb5ef68	-0.022208884
177	0x3d728aa2	0.05921424
178	0xbd08e7fd	-0.033424366
179	0x3d670446	0.05640056
180	0xbc614a4e	-0.013750626
181	0x3c4366db	0.011926378
182	0x3b0e375b	0.0021700475
183	0xbd54f3a0	-0.05199015
184	0x3c96c3d4	0.018403925
185	0x3cb87c98	0.022520348
186	0x3d159414	0.03651817
187	0x3ca05be0	0.01957506
188	0x3d8607c1	0.06544448
189	0xbd3e4615	-0.046453554
190	0x3dad2684	0.08454612
191	0x3d80fb8b	0.06297978
192	0x3d892b9f	0.06697773
193	0xba70c700	-0.0009184927
194	0x3d8707f3	0.06593313
195	0x3d74b27a	0.05974052
196	0xbdab4387	-0.08362489
197	0xbde4828b	-0.111577116
198	0x3db0881b	0.0861971
199	0x3da3ddb0	0.08001268
200	0x3cbacf91	0.022804054
201	0x3c6f38c0	0.014600933
202	0xbb483836	-0.0030551082
203	0x3d486c03	0.048931133
204	0x3d150b1d	0.03638755
205	0x3dbe2b0b	0.092855535
206	0x3cf49287	0.029855026
207	0xbca68f85	-0.020332107
208	0x3d1edfa6	0.038787507
209	0x3d9052d7	0.070470504
210	0xbc61de1d	-0.013785866
211	0x3d9f16d3	0.07768025
212	0xbd140b75	-0.03614374
213	0x3d9ce71a	0.076612666
214	0x3b93a472	0.0045056874
215	0xbd6916d1	-0.056906525
216	0x3d02b0ef	0.03190702
217	0x3d76f77e	0.06029462
218	0x3d7658f2	0.06014342
219	0xbd6f0664	-0.058355704
220	0x3cd31c26	0.025770258
221	0xbca3e1f4	-0.020005204
222	0xbd1bf244	-0.03807284
223	0x3db735a7	0.0894578
224	0xbd027716	-0.03185185
225	0x3c57e4dd	0.013177124
226	0x3dd44f8c	0.10366735
227	0x3d4c5782	0.04988814
228	0xbd96e13f	-0.07367181
229	0x3d85dc67	0.06536179
230	0xbd176331	-0.03695983
231	0x3daac837	0.08338969
232	0x3b07a5a0	0.0020698085
233	0x3c331e30	0.01093249
234	0xbd86fb64	-0.06590918
235	0x3d949038	0.0725407
236	0x3ca12f98	0.019676015
237	0xbbc96e50	-0.0061471835
238	0xbd63c3b7	-0.05560657
239	0x3d684f94	0.056716517
240	0x3dae805f	0.085205786
241	0xbd82ef1c	-0.06393263
242	0x3d981ee3	0.07427766
243	0x3da075a1	0.07834936
244	0x3d869609	0.06571586
245	0x3c80e078	0.015732035
246	0xbcf43294	-0.029809274
247	0xbd3a9e0e	-0.04556089
248	0x3d88a1aa	0.0667146
249	0x3cc1f8cc	0.023678206
250	0xbd53d177	-0.051713433
251	0x3d8fa784	0.07014373
252	0xbd66213f	-0.05618405
253	0xbcb88ba6	-0.022527527
254	0xbd19a333	-0.037509155
255	0x3ccf368c	0.025294565

fc3.bias f4 [6]
0	0xbc683529	-0.014172831
1	0xba1f5701	-0.0006078333
2	0xbbda8d1c	-0.0066696536
3	0xbcf4715c	-0.02983921
4	0x3db52648	0.08845192
5	0xbd62c5dc	-0.055364475
