Assets/TestVRMovement/bone_model_head_bounds.onnx (onnx, 91448 bytes, 6 tensors)

fc1.weight f4 [64, 18]
0	0x3d6a4090	0.057190478
1	0x3dc7d11b	0.097566806
2	0x3dbe06bc	0.09278628
3	0x3e5680a1	0.20947506
4	0xbe6f6598	-0.23378599
5	0xbda07dd2	-0.07836498
6	0xbddb09e8	-0.10695249
7	0xbcb76b0f	-0.022389917
8	0x3e4ad89d	0.19809194
9	0xbdc5f02b	-0.09664949
10	0x3e6d1190	0.23151231
11	0xbc0b4d3d	-0.008502302
12	0xbbd1a37a	-0.0063976618
13	0xbd88c390	-0.066779256
14	0x3e152582	0.1456509
15	0x3e081935	0.13290866
16	0xbdd0c3ad	-0.10193572
17	0x3e07a999	0.1324829
18	0x3e2afa42	0.16697028
19	0xbd92f3bf	-0.07175397
20	0x3e635605	0.22200783
21	0x3de3c292	0.11121096
22	0xbe51d008	-0.20489514
23	0x3e38cdff	0.18047331
24	0x3c07b2fb	0.008282418
25	0x3d11f908	0.035637885
26	0x3d21dee1	0.039519195
27	0x3d5461dc	0.05185114
28	0x3e24f2d2	0.16108254
29	0xbc5c7790	-0.01345624
30	0x3d0d43a7	0.034488346
31	0x3da7262e	0.08161579
32	0xbd1d934f	-0.038470563
33	0xbe290c19	-0.16508521
34	0xbe5f0a82	-0.21781352
35	0x3d77f7b8	0.060538977
36	0xbdcfdd64	-0.10149649
37	0x3e0c35f3	0.13692455
38	0xbda11efd	-0.07867239
39	0x3de2ab14	0.11067787
40	0xbe094069	-0.13403477
41	0x3e25cc1f	0.16191147
42	0x3e2641b5	0.16236003
43	0xbe0c9dd0	-0.13732076
44	0x3ea083b2	0.31350476
45	0xbcb2b217	-0.021813435
46	0xbc22c8df	-0.009935587
47	0xbd3fcb87	-0.04682496
48	0x3e1caa0c	0.15299243
49	0xbe9a6e6c	-0.3016237
50	0xbe2a03ab	-0.16602962
51	0xbbd7313f	-0.00656715
52	0x3ca7c47d	0.020479435
53	0xbc94d5c6	-0.018168341
54	0x3caf815e	0.021423992
55	0x3e3d5c55	0.18492253
56	0xbe525587	-0.20540439
57	0x3d159623	0.036520135
58	0xbdc6d9a1	-0.09709478
59	0xbde3e506	-0.11127667
60	0x3e665672	0.22493914
61	0x3ced9a22	0.02900416
62	0xbe0177ac	-0.12643307
63	0x3e6e8cc0	0.2329588
64	0xbde733b0	-0.112891555
65	0x3e2bc6c1	0.16775037
66	0xbd5217f2	-0.051292367
67	0x3d37d3e4	0.04487981
68	0x3e4169c5	0.18888004
69	0x3e469cef	0.19395803
70	0xbe6db853	-0.23214845
71	0xbe8d8276	-0.27638596
72	0xbd9cc879	-0.076554246
73	0x3e0698ec	0.13144273
74	0x3e5d0f12	0.2158778
75	0xbe554457	-0.20826851
76	0x3d81e009	0.063415594
77	0xbe26a56d	-0.16274042
78	0xbd4e3e7c	-0.05035256
79	0xbe171b27	-0.14756452
80	0xbe1bc99c	-0.15213627
81	0xbcbb2314	-0.022843875
82	0xb944c7ed	-0.00018766495
83	0xbe570833	-0.20999222
84	0xbd789ad6	-0.060694538
85	0x3e2f9acb	0.17148893
86	0x3e68fa5c	0.22751755
87	0xbdf7bad8	-0.120961845
88	0xbdc48639	-0.095959134
89	0xbe52387d	-0.20529361
90	0x3e64361f	0.2228627
91	0x3de813c6	0.113318965
92	0x3da2daf4	0.07951918
93	0x3d9e65f1	0.077342875
94	0x3b484499	0.0030558466
95	0xbf81ff66	-1.0156066
96	0x3d45c3f1	0.048282567
97	0xbd82acf6	-0.06380646
98	0xbdaca8e4	-0.08430651
99	0x3ce1bd7a	0.02755617
100	0xbc1192c9	-0.008885094
101	0x3d1545df	0.036443587
102	0xbdcd31dc	-0.100192755
103	0xbc4e5ff5	-0.01259612
104	0x3e5abb71	0.21360566
105	0xbd4e92cf	-0.050432976
106	0x3d9dc895	0.077042736
107	0x3d8f4771	0.06996048
108	0xbe064761	-0.13113166
109	0xbd9b7bde	-0.07591985
110	0xbe0df697	-0.13863598
111	0x3df40a4b	0.11916026
112	0x3cd360b0	0.02580294
113	0x3dd3252a	0.10309823
114	0xbe7dda7b	-0.24790375
115	0xbe8cf2db	-0.27529034
116	0x3e512761	0.20425178
117	0x3ec9bb10	0.3940053
118	0xbd96f6e2	-0.07371308
119	0x3e8593ea	0.26089412
120	0xbe23cead	-0.1599681
121	0x3ca864ea	0.020555932
122	0x3ebe3a0f	0.3715367
123	0xbedfdf32	-0.43724972
124	0xbccdfac3	-0.025143987
125	0x3e5ff7f8	0.21871936
126	0x3dc8ce18	0.09804934
127	0x3dbe5cf6	0.09295075
128	0xbe5e3897	-0.21701275
129	0x3d8a86e9	0.06764013
130	0xbd957c27	-0.07299071
131	0xbd462e4e	-0.048384003
132	0x3e7c9621	0.24666645
133	0x3e143963	0.14475016
134	0x3cc9fb03	0.024655825
135	0x3de677b1	0.11253298
136	0x3d9145c9	0.070933886
137	0xbe5e5796	-0.21713099
138	0x3dad9d75	0.08477298
139	0xbea2b137	-0.3177583
140	0x3d06f499	0.03294811
141	0x3e16eec0	0.14739513
142	0x3d92b605	0.07163624
143	0xbc90a50f	-0.017656831
144	0xbe4c20a7	-0.19934331
145	0x3d31d58b	0.04341654
146	0xbb049750	-0.002023179
147	0xbd8661ba	-0.065616086
148	0xbd11b987	-0.035577323
149	0xbea37592	-0.31925637
150	0xbd35384e	-0.04424315
151	0xbe4eb57f	-0.20186423
152	0x3e8c310f	0.2738118
153	0xbe15b30c	-0.14619082
154	0xbe7d4a4c	-0.24735373
155	0xbef8ebc7	-0.48617384
156	0x3e95ee29	0.29283264
157	0x3d0f2cdc	0.03495489
158	0x3e8193f5	0.25308195
159	0xbca2e1ae	-0.019883003
160	0xbe9a56fd	-0.30144492
161	0x3ec1d784	0.37859738
162	0x3e2ce6ce	0.1688492
163	0x3dbf9f43	0.09356549
164	0x3e116746	0.14199552
165	0xbdaac2ea	-0.08337958
166	0x3d6674fc	0.05626391
167	0x3d6a4d11	0.057202403
168	0x3df29226	0.11844282
169	0x3eb1a271	0.34694245
170	0x3dc80f75	0.09768573
171	0x3e0eb710	0.1393702
172	0xbdb4c0ae	-0.08825813
173	0x3c868ead	0.016425455
174	0x3dda00df	0.106446974
175	0xbe5a3c00	-0.2131195
176	0xbe1fb67d	-0.15596958
177	0xbeafa287	-0.34303686
178	0x3d2ecb1a	0.04267416
179	0xbd914a81	-0.070942886
180	0xbd36867f	-0.04456186
181	0x3c797dba	0.015227729
182	0x3d8138e4	0.06309679
183	0x3df20c86	0.11818795
184	0x3d7e679f	0.06211054
185	0x3e09233a	0.13392344
186	0x3e47d5ff	0.19515227
187	0xbd82f571	-0.063944705
188	0xbd893956	-0.06700389
189	0xbd876366	-0.066107556
190	0xbd92e7fe	-0.07173155
191	0x3d543420	0.051807523
192	0x3e04e8ff	0.12979506
193	0xbd58b433	-0.052906226
194	0xbdbc72ba	-0.0920157
195	0x3e23fb76	0.16013893
196	0x3d7ae4f5	0.061253507
197	0x3dd6e92d	0.104936935
198	0xbe4e04c8	-0.20119011
199	0xbe3baba8	-0.183272
200	0x3da4ea67	0.08052521
201	0xbe3bc90f	-0.18338417
202	0xbd56d8e1	-0.052452926
203	0x3e0a4178	0.13501537
204	0xbe0a0935	-0.13480075
205	0x3d88bd41	0.06676722
206	0x3db7cd3e	0.08974694
207	0xbd1f0701	-0.03882504
208	0xbd1cf028	-0.03831497
209	0x3e2fd2d0	0.17170262
210	0x3e2fdf23	0.17174964
211	0xbe9a0676	-0.30083054
212	0x3e58c37a	0.21168318
213	0x3dfbce3c	0.122951955
214	0xbd58ad94	-0.052899912
215	0x3cc83f8e	0.024444368
216	0x3e3b542d	0.1829383
217	0x3ea20eef	0.31652018
218	0x3e4524fb	0.19252388
219	0xbd34a2ff	-0.044100758
220	0xbcc1a42b	-0.023637852
221	0x3c2a937c	0.01041114
222	0x3d911e65	0.070858754
223	0xbed675de	-0.418868
224	0x3f1874a9	0.5955301
225	0x3cdfa6df	0.02730125
226	0xbe3916f1	-0.18075158
227	0xbcd79991	-0.026318343
228	0xbd315640	-0.043295145
229	0x3d90f9ef	0.07078921
230	0xbf0665d0	-0.52499104
231	0x3e06d854	0.1316846
232	0xbe3cc0cf	-0.18432926
233	0xbd148646	-0.036260866
234	0xbcc6d7f2	-0.024272893
235	0xbd24729b	-0.04014836
236	0x3d87a7d2	0.06623806
237	0x3dc361b1	0.095401175
238	0x3db9be8e	0.090695485
239	0x3dfeb544	0.124369174
240	0xbe285634	-0.16439134
241	0xbc56ffa6	-0.013122475
242	0xbc7f4bf7	-0.015582076
243	0x3daf564b	0.08561381
244	0xbe72cc60	-0.23710775
245	0xbe281edb	-0.1641802
246	0x3e65f171	0.22455384
247	0xbe1cd203	-0.15314488
248	0xbda301a5	-0.07959298
249	0x3d7f7e63	0.06237639
250	0x3e577440	0.2104044
251	0x3d951997	0.072802715
252	0x3ddd8970	0.1081723
253	0x3da971e4	0.08273676
254	0xbe0d1a3e	-0.13779542
255	0xbdbf8c3a	-0.09352918

fc1.bias f4 [64]
0	0xbe0ca34a	-0.13734165
1	0x3d84c213	0.06482329
2	0x3ce34ad8	0.02774565
3	0xbe60b618	-0.21944463
4	0xbe30d16e	-0.17267391
5	0x3c4c78b6	0.012479952
6	0xbdb2fe2a	-0.08739884
7	0x3e008c7f	0.12553595
8	0xbe5488df	-0.20755337
9	0xbdaa10a9	-0.08303959
10	0x3d8dc4f2	0.0692233
11	0x3c0fdf81	0.008781315
12	0x3c3246ff	0.010881185
13	0x3dd89c30	0.105766654
14	0x3e584d0b	0.2112314
15	0xbe0e0140	-0.13867664
16	0xbe258338	-0.16163337
17	0xbe27b6b4	-0.1637829
18	0xbd82b0ac	-0.06381354
19	0xbd945d40	-0.072443485
20	0xbe57d3e2	-0.2107692
21	0xbba15640	-0.004923612
22	0xbdfd3211	-0.12363065
23	0x3e10a5c5	0.14125736
24	0x3dc9f403	0.09860995
25	0x3e55cf5a	0.2087988
26	0x3d89a08c	0.06720075
27	0xbde6cbe7	-0.1126936
28	0xbd96c744	-0.07362226
29	0xbdd0506f	-0.101715915
30	0xbe360644	-0.17775828
31	0x3e185ed4	0.14879924
32	0xbbe4845c	-0.0069737863
33	0xbe26f4c0	-0.16304302
34	0xbe44cb46	-0.19218168
35	0xbd9c2d5e	-0.076258406
36	0xbe2c4887	-0.16824542
37	0xbe17649b	-0.14784472
38	0xbe4f7af0	-0.2026174
39	0xbe5d77c3	-0.21627717
40	0xbda29a32	-0.07939567
41	0xbda86be7	-0.08223706
42	0xbd131e2c	-0.035917446
43	0x3e84b1df	0.25916955
44	0xbe00e85a	-0.12588635
45	0x3d611065	0.054947276
46	0xbe62845c	-0.22120804
47	0x3d7a6b35	0.061137397
48	0x3e111a72	0.14170244
49	0xbe2fb948	-0.17160523
50	0xbdd431b8	-0.103610456
51	0x3e938bb6	0.28817528
52	0xbe096cdf	-0.13420437
53	0x3cd58a91	0.02606705
54	0xbdabd481	-0.08390141
55	0x3cd360f3	0.025803065
56	0xbe495b12	-0.19663647
57	0xbc7e409c	-0.015518334
58	0xbd5ca15e	-0.05386483
59	0x3d6be3f6	0.057590447
60	0x3dea5974	0.11442843
61	0x3dc14e58	0.09438771
62	0x3da1ed41	0.07906581
63	0x3da6ff8e	0.08154212

fc2.weight f4 [128, 64]
0	0xbd321e22	-0.04348577
1	0xbd1e56bf	-0.038656946
2	0x3d7ec0ca	0.062195577
3	0xbd1cabc8	-0.03824976
4	0xbd950573	-0.0727643
5	0x3f1851ce	0.59499824
6	0x3e266d3d	0.16252609
7	0x3daba01b	0.08380147
8	0x3e1cfb7f	0.15330313
9	0x3e6d00a6	0.23144779
10	0x3db20de1	0.086940534
11	0x3e453588	0.19258702
12	0xbf0103b9	-0.50396305
13	0xbcb4c72b	-0.022067627
14	0x3dd91eab	0.106015526
15	0xbc59654d	-0.013268781
16	0xbdc754e8	-0.097329915
17	0xbe2306ec	-0.15920609
18	0xbe4bee89	-0.19915213
19	0x3cb5915f	0.022164045
20	0xbe102bed	-0.14079256
21	0x3e213d46	0.1574603
22	0x3e15e0a5	0.14636476
23	0xbd291e50	-0.041288674
24	0xbd92490f	-0.07142841
25	0x3d585413	0.052814554
26	0x3d6786a3	0.056524884
27	0xbd2fbdcb	-0.04290561
28	0xbd2bf78c	-0.041984126
29	0x3e348b8d	0.1763136
30	0x3decb261	0.115574606
31	0x3e939a02	0.28828436
32	0x3aa17d44	0.0012320657
33	0x3cb0932e	0.021554556
34	0x3d71cd78	0.05903384
35	0xbec2dc20	-0.38058567
36	0x3dacd88b	0.0843974
37	0xbdefb09d	-0.11703608
38	0x3e61f010	0.22064233
39	0xbe053572	-0.13008669
40	0x3da1aa18	0.07893771
41	0xbe1f152a	-0.15535417
42	0x3a9ead99	0.001210618
43	0xbde04db1	-0.109523185
44	0x3d1ea7f4	0.03873439
45	0xbd04d0e9	-0.032425795
46	0x3d8d27b2	0.06892337
47	0x3d179d8e	0.03701549
48	0x3de623a4	0.11237267
49	0x3d665503	0.056233417
50	0xbe303b3e	-0.17210099
51	0x3ebbe703	0.36699685
52	0xbd1d38b3	-0.03838415
53	0x3d6fdad9	0.05855832
54	0x3e944aba	0.28963262
55	0x3def2a4d	0.1167799
56	0x3c822e18	0.01589112
57	0xbdf1fabe	-0.118154034
58	0x3d89da68	0.06731111
59	0x3c8dbfc5	0.017303357
60	0x3d55910e	0.052140288
61	0x3bcede22	0.0063131014
62	0x3c8d1583	0.017222172
63	0xbe960716	-0.2930228
64	0xbbcce89e	-0.006253316
65	0x3dc2a30b	0.09503754
66	0x3e585542	0.21126273
67	0x3c963d11	0.018339666
68	0x3dc01f7c	0.09381005
69	0x3c4be71f	0.01244524
70	0x3c70a46a	0.014687637
71	0xbc9492c7	-0.018136395
72	0xbdeeb9c6	-0.11656527
73	0x3ccb8876	0.024845343
74	0x3d024fd4	0.03181441
75	0x3dc8e739	0.09809727
76	0x3ebcb498	0.36856532
77	0x3dc47c49	0.09594018
78	0x3c65d5ca	0.014028022
79	0xbd85e5b8	-0.06537956
80	0x3d9384eb	0.072030865
81	0x3cd972e5	0.026544044
82	0x3d8467f1	0.06465138
83	0xbdc3f8ea	-0.09568961
84	0x3e9ab045	0.30212608
85	0x3d9aef6e	0.07565199
86	0x3d9ab84f	0.07554685
87	0xbe4ff166	-0.2030693
88	0x3cb16926	0.021656584
89	0xbd269eee	-0.04067891
90	0x3d6158db	0.05501638
91	0x3e12caa6	0.14335117
92	0x3c5c0b10	0.013430372
93	0xbeaeebbc	-0.34164226
94	0x3d15babc	0.036555037
95	0x3d4e8e33	0.05042858
96	0xbca442a5	-0.02005131
97	0x3d7450df	0.059647437
98	0xbdbfb3b4	-0.093604475
99	0xbe8625eb	-0.26200804
100	0x3d8fbca0	0.07018399
101	0xbdbc1852	-0.09184326
102	0xbe8c7137	-0.27430126
103	0xbeac6927	-0.33673975
104	0xbd9d89d2	-0.07692303
105	0xbca4e51f	-0.020128785
106	0x3cef5c94	0.02921895
107	0x3da65870	0.08122337
108	0x3caca140	0.021072984
109	0xbc9fa626	-0.019488405
110	0xbdfa3d82	-0.12218763
111	0x3d2494d0	0.04018098
112	0x3d0c9c1a	0.034328558
113	0x3d504301	0.05084515
114	0xbd7cbaab	-0.061701458
115	0x3d7586a4	0.059942856
116	0x3d886f77	0.06661885
117	0xbdaf4ec5	-0.08559946
118	0x3d3248bf	0.043526407
119	0x3e14c3c3	0.14527802
120	0x3be304c0	0.0069280565
121	0xbd5a9a81	-0.053370003
122	0x3db9f2f3	0.09079542
123	0xbd3accb8	-0.04560539
124	0x3db2e600	0.08735275
125	0xbb8f8627	-0.004380006
126	0x3dfc0031	0.12304724
127	0x3a4e52ac	0.00078705954
128	0x3dd094e8	0.101846516
129	0x3d3b6c48	0.045757562
130	0x3d84fd0c	0.06493577
131	0x3c99ec50	0.01878944
132	0xbda83d6e	-0.08214842
133	0x3da2148a	0.07914074
134	0xbcd33a78	-0.025784716
135	0xbd3d9fac	-0.046294853
136	0xbd487bf4	-0.048946336
137	0xbdf324a2	-0.118722215
138	0xbd7d0e58	-0.061781257
139	0x3cdf5f70	0.027267188
140	0xbdc0943c	-0.094032735
141	0xbdfb2a30	-0.12263906
142	0x3cc91a10	0.02454856
143	0xbdbc93be	-0.09207867
144	0x3cdddb68	0.02708216
145	0xbcbf4cc0	-0.023352027
146	0x3dbce470	0.092232585
147	0x3b6158c0	0.0034385175
148	0x3d9e6a20	0.077350855
149	0xbdc61f34	-0.0967392
150	0x3c1a8820	0.009431869
151	0xbdfaecf2	-0.12252225
152	0xbdeed3a6	-0.116614625
153	0xbde3f8d2	-0.11131443
154	0xbd4ad730	-0.049521625
155	0xbd377418	-0.04478845
156	0x3d2293a8	0.039691597
157	0xbd998854	-0.07496706
158	0x3da28646	0.07935767
159	0xbd96a038	-0.07354778
160	0xbd898ad2	-0.06715931
161	0xbdb7734a	-0.089575365
162	0xbd5438dc	-0.051812038
163	0xbdd9378c	-0.10606298
164	0xbbb85cc0	-0.005626291
165	0x3d9a4140	0.07531977
166	0xbdbb500c	-0.09146127
167	0xbd6c8790	-0.05774647
168	0x3d87299e	0.06599735
169	0xbdcdcb22	-0.1004851
170	0xbda03dda	-0.07824297
171	0x3d367ecc	0.044554517
172	0x3dddedc6	0.10836367
173	0x3d9a8450	0.07544768
174	0xbd4fea3c	-0.050760493
175	0x3d5daa2c	0.054117367
176	0xbdb764c0	-0.089547634
177	0xbcbc6b30	-0.02300033
178	0xbc34f7c0	-0.011045396
179	0x3b27d480	0.0025608838
180	0xbd1f5d70	-0.03890747
181	0xbcd5c448	-0.02609457
182	0xbdb95fcc	-0.09051475
183	0xbdedd322	-0.11612536
184	0x3d8a3fc0	0.067504406
185	0xbde76032	-0.11297645
186	0xbdcde11c	-0.10052702
187	0xbd536314	-0.05160816
188	0x3ded2ce8	0.11580831
189	0xbdee0f62	-0.11624028
190	0xbb9ab020	-0.004720703
191	0xbd91f360	-0.07126498
192	0xbd8e21ef	-0.06940066
193	0x3dc1c708	0.0946179
194	0x3d859917	0.0652334
195	0x3d8bd415	0.06827561
196	0xbda706b8	-0.081555784
197	0x3e24fcc4	0.16112047
198	0x3e044a3b	0.12918942
199	0xbd45dbe9	-0.048305426
200	0xbe0bd0c8	-0.13653862
201	0x3d92b8a9	0.071641274
202	0x3de0a37d	0.10968683
203	0xbdb3d7d2	-0.08781399
204	0x3e082a56	0.132974
205	0xbd3919ce	-0.045190625
206	0x3cd40d7e	0.02588534
207	0x3cd2796c	0.025692664
208	0x3d60f10a	0.054917373
209	0xbc666822	-0.014062913
210	0xbd8261d0	-0.063663125
211	0xbbbdd5f8	-0.0057933293
212	0xbda7b62d	-0.08189044
213	0x3c0288f4	0.0079672225
214	0x3d85113b	0.06497427
215	0xbe088d4b	-0.13335149
216	0x3d31dd9e	0.04342424
217	0x3d838db8	0.06423515
218	0xbd048877	-0.032356706
219	0x3df144c5	0.11780695
220	0x3df7d7a6	0.121016786
221	0x3d47920c	0.048723266
222	0x3d44ec9f	0.048077222
223	0x3e39b561	0.18135597
224	0x3e035d2e	0.12828514
225	0x3df3b553	0.11899819
226	0xbdbd311a	-0.09237881
227	0xbf0cf5c3	-0.550625
228	0xbd032e9a	-0.032026865
229	0x3e18e573	0.14931278
230	0x3d792b70	0.06083244
231	0xbcf936ff	-0.030421732
232	0x3d43d9ac	0.04781501
233	0xbd936b69	-0.07198221
234	0xbdbe9c73	-0.09307184
235	0x3d38dc98	0.04513225
236	0x3d18a3c0	0.03726554
237	0xbd8cfe7b	-0.06884476
238	0x3ddcd0e7	0.107820325
239	0x3deeadd9	0.116542526
240	0x3de9ac8f	0.11409866
241	0x3cd5f4bc	0.026117675
242	0xbd98f5b4	-0.07468739
243	0x3d55d248	0.052202493
244	0xbc22ac30	-0.009928748
245	0x3d40f910	0.047112525
246	0x3bebafb6	0.0071925772
247	0x3b7ed4d2	0.0038884175
248	0x3dbb892c	0.09157023
249	0xbd8b8505	-0.06812481
250	0x3c5007d1	0.012697176
251	0x3da16c7d	0.078820206
252	0x3d547105	0.051865596
253	0xbd01f458	-0.031727165
254	0x3dc432f4	0.09580031
255	0x3ce5d29a	0.028054524

fc2.bias f4 [128]
0	0xbda82c64	-0.08211592
1	0x3d707fc9	0.058715615
2	0xbd10fddc	-0.03539835
3	0xbd2c1443	-0.04201151
4	0x3d3f05a2	0.04663623
5	0x3da19424	0.07889584
6	0xbdfabb94	-0.12242809
7	0xbe00d614	-0.12581664
8	0xbc1ab3a9	-0.009442248
9	0x3e0b8a6c	0.13627023
10	0xbd85ce44	-0.06533483
11	0xbc2a58a0	-0.010397106
12	0x3e05b055	0.13055547
13	0x3c005336	0.007832339
14	0x3de6274e	0.112379655
15	0x3d5f78c0	0.054558516
16	0xbd403e94	-0.04693468
17	0x3c4d5168	0.012531616
18	0xbd53bd17	-0.051694002
19	0x3d8d0ff9	0.06887812
20	0x3d044dc9	0.032300744
21	0x3d71ad8e	0.059003405
22	0xbd1056d4	-0.035239056
23	0x3cc326f0	0.023822278
24	0x3d898307	0.067144446
25	0x3dc73b6d	0.097281314
26	0x3e8f450e	0.27982372
27	0xbc94fcf0	-0.018187016
28	0x3dcc29e1	0.09968925
29	0x3d49680d	0.049171496
30	0xbb06d423	-0.002057322
31	0xbdfd5b46	-0.12370925
32	0xbc55c00f	-0.013046279
33	0x3c9e2095	0.019302646
34	0xbcc0947f	-0.023508308
35	0x3d590986	0.052987598
36	0x3cd7b910	0.026333362
37	0xbd9fedaa	-0.07809003
38	0xbdf34812	-0.11878981
39	0xbd6b5d6d	-0.057462145
40	0x3c7f7d6e	0.01559387
41	0x3de511db	0.11185046
42	0x3d957ad3	0.072988175
43	0x3ca938dd	0.020656997
44	0x3c2260a6	0.009910738
45	0x3c4ba490	0.0124293715
46	0xbcccc018	-0.024993941
47	0xbddb9ec6	-0.10723643
48	0xbd0ef3e9	-0.03490058
49	0xbddb41f6	-0.107059404
50	0xbd820dc4	-0.06350282
51	0xbcd949b5	-0.026524404
52	0x3be2c1d5	0.0069200792
53	0x3db1a4e3	0.08674028
54	0x3dfbf353	0.1230227
55	0xbdccdde0	-0.10003257
56	0x3dd7fa8e	0.105458364
57	0x3dec4810	0.11537182
58	0x3e09eb55	0.13468678
59	0x3d436c21	0.04771054
60	0x3df20108	0.11816603
61	0xbc9d8df0	-0.01923272
62	0xbc6faa73	-0.014628041
63	0xbd9b51b8	-0.07583946
64	0xbd9054eb	-0.07047447
65	0x3b7b4464	0.0038340325
66	0xbd513cb4	-0.05108328
67	0x3df31ccc	0.11870727
68	0x3e04b150	0.12958264
69	0xbd228929	-0.039681587
70	0x3d2c445c	0.04205738
71	0x3d8dcb94	0.06923595
72	0xba02ed95	-0.0004994509
73	0x3d4a4712	0.049384184
74	0x3d9ac669	0.07557375
75	0xbd8331b8	-0.064059675
76	0x3e08d9d2	0.13364342
77	0xbcd105e4	-0.025515504
78	0x3e016a4a	0.12638202
79	0x3cb04525	0.021517346
80	0x3c7e0c1e	0.015505819
81	0xbddba2b4	-0.107243925
82	0x3da11ea0	0.078671694
83	0x3e08aa40	0.13346195
84	0x3e1a7b19	0.1508602
85	0xbc0da7e5	-0.008645986
86	0x3c65d621	0.014028103
87	0xbc9ccf68	-0.019141868
88	0xbd777ed7	-0.0604237
89	0x3db8c227	0.090214066
90	0x3dc6ad2b	0.09700998
91	0x3cbef859	0.02331178
92	0x3db2c1f9	0.087284036
93	0xbdbb8a18	-0.09157199
94	0x3d7bfc24	0.061519757
95	0xbd4c9928	-0.04995075
96	0xbd2d09da	-0.042245723
97	0x3df833fa	0.12119289
98	0xbd8e1231	-0.069370635
99	0x3c7be225	0.015373741
100	0xbd50901a	-0.050918676
101	0x3e093680	0.13399696
102	0x3d1686e4	0.036749735
103	0x3debcedb	0.11514064
104	0x3d9e1691	0.07719148
105	0x3c30c69d	0.010789541
106	0xbd0ba1c0	-0.034089804
107	0xbd15fc78	-0.036617726
108	0xbd36719f	-0.04454195
109	0x3dfc4782	0.123183265
110	0x39213c12	0.00015376534
111	0xbd86c886	-0.065812156
112	0x3da4db1e	0.08049606
113	0x3c24144f	0.010014608
114	0xbd107dee	-0.035276346
115	0x3c16920b	0.009190093
116	0x3dcaf1f9	0.09909434
117	0x3de1b5fc	0.11021039
118	0x3cf495e8	0.029856637
119	0x3d667591	0.056264464
120	0x3e177142	0.14789298
121	0x3dd9914c	0.10623416
122	0xbd3e375e	-0.04643952
123	0x3c5b0a77	0.013369194
124	0xbd030ff8	-0.03199765
125	0xbd899439	-0.06717724
126	0xbd1a9625	-0.037740845
127	0xbde5f1b4	-0.11227742

fc3.weight f4 [102, 128]
0	0x3c0c92e3	0.008579942
1	0xbd76a327	-0.060214188
2	0xbd4890f2	-0.048966356
3	0xbd86634c	-0.06561908
4	0xba070d02	-0.00051517796
5	0xbb077a2e	-0.002067219
6	0x3d9f35a3	0.07773902
7	0xbda74655	-0.08167712
8	0x3cdfa062	0.027298156
9	0xbd2fbee3	-0.042906653
10	0x3da69a67	0.08134919
11	0x3d1465f4	0.036230043
12	0xbd55eeac	-0.05222957
13	0x3d80bc9c	0.062859744
14	0xbd1ed40f	-0.038776454
15	0xbd423a89	-0.047419105
16	0xbd3c2516	-0.045933805
17	0xbcebaedf	-0.028769908
18	0x3d6a32e0	0.057177424
19	0x3dbf3283	0.09335806
20	0x3cdd4dcf	0.027014641
21	0xbbb01bf3	-0.0053744256
22	0xbdadadda	-0.08480425
23	0xbd6ddce2	-0.05807198
24	0x3c880896	0.016605657
25	0x3b556453	0.0032561019
26	0x3dac1f50	0.0840441
27	0x3c628c7e	0.013827441
28	0x3d984a3e	0.074360356
29	0x3d649a53	0.055811238
30	0x3da65d96	0.08123319
31	0x3c19452c	0.009354871
32	0x3d25e2a8	0.04049936
33	0xbde70d60	-0.11281848
34	0x3d6a1ce6	0.057156466
35	0xbcc4db98	-0.024030492
36	0x3de67062	0.11251904
37	0xbc9e1c68	-0.019300655
38	0x3d64939e	0.05580484
39	0xbc9c6e66	-0.01909561
40	0x3c5f849e	0.013642458
41	0x3cfa1f07	0.030532373
42	0x3d9b0f2b	0.075712524
43	0x3d6ca166	0.05777111
44	0x3d3ffd84	0.04687263
45	0x3c8381bd	0.016053075
46	0xbb376a90	-0.00279871
47	0x3c766320	0.015038282
48	0x3c4b4e7a	0.012408847
49	0xbcbcbd44	-0.023039468
50	0x3d5a55c4	0.05330445
51	0xbbd9d8a9	-0.0066481424
52	0x3dbfdc68	0.09368211
53	0x3da071ea	0.078342274
54	0xbca494b0	-0.020090431
55	0xb9d96300	-0.00041463226
56	0xbd4b50e0	-0.049637675
57	0x3d1a0708	0.03760436
58	0xbbcead5e	-0.006307288
59	0xbd48d958	-0.0490354
60	0x3d64ce79	0.05586097
61	0xbd146283	-0.03622676
62	0x3d1bd6cf	0.038046654
63	0x3d8ff775	0.070296206
64	0x3d1d1c8f	0.038357314
65	0x3d019e60	0.03164518
66	0xbd685057	-0.056717243
67	0x3c97db69	0.01853724
68	0xbd1b5b83	-0.03792907
69	0xbc7daecb	-0.015483568
70	0x3d74ab6f	0.059733804
71	0x3db1d5ca	0.08683355
72	0x3d93254c	0.07184848
73	0x3d80ed81	0.062953
74	0x3cfa4776	0.030551653
75	0x3c76495c	0.015032139
76	0x3d8cd27b	0.068760835
77	0x3ce4a6a0	0.027911484
78	0x3cf6c4e2	0.030123178
79	0xbba8a09b	-0.005146099
80	0xbd6b1fc9	-0.05740336
81	0xbcbf1928	-0.023327425
82	0x3d5553cc	0.052081868
83	0xbd351756	-0.044211708
84	0xbd05e296	-0.032686792
85	0x3cb5e0f0	0.022201985
86	0x3af637f4	0.0018784986
87	0x3d9b9dd5	0.075984634
88	0x3ded74e7	0.11594563
89	0x3d242d11	0.04008204
90	0xbd152b8d	-0.036418486
91	0xbd0d3758	-0.034476608
92	0x3c735030	0.014850661
93	0xbda0fceb	-0.0786074
94	0xbd6f4b98	-0.0584217
95	0x3d7e324a	0.062059678
96	0x3d633459	0.055469844
97	0x3dd3cdab	0.103419624
98	0x3c7a3e07	0.0152735775
99	0xbce33f72	-0.027740214
100	0x3bb69243	0.005571635
101	0x3d453aaf	0.04815167
102	0x3df5b9aa	0.11998303
103	0xbc10919c	-0.0088237785
104	0x3e0363b6	0.12831005
105	0xbd4094f6	-0.04701706
106	0x3c01b19a	0.007915879
107	0x3d75aa42	0.059976824
108	0xbc92052b	-0.01782473
109	0xbd2a0873	-0.041511964
110	0x3d22c1c5	0.039735574
111	0x3c7c1120	0.015384942
112	0xbd528c7a	-0.0514035
113	0x3ca3b0bd	0.019981736
114	0xbcc14620	-0.023593009
115	0xbce3a6ab	-0.027789434
116	0x3d99e8a9	0.075150795
117	0x3d20be05	0.039243717
118	0x3dc55ae0	0.09636474
119	0x3be3a8ea	0.0069476264
120	0xbcdd366e	-0.027003493
121	0x3d8a3a49	0.06749398
122	0x3bdcd0c5	0.0067387545
123	0x3d48e53f	0.04904675
124	0xbc11c520	-0.008897096
125	0x3de42d03	0.11141398
126	0xbcdfc027	-0.027313305
127	0xbb978650	-0.0046241656
128	0xbc45f73d	-0.012082872
129	0x3dcd806d	0.10034261
130	0x3d57dc9a	0.052700616
131	0x3d5a29c2	0.05326248
132	0x3ceacd6a	0.028662402
133	0x3bb3adf5	0.005483384
134	0x3d81779f	0.06321644
135	0xbc7f08d6	-0.0155660715
136	0xbc008c39	-0.007845932
137	0xbd4366c2	-0.04770542
138	0x3c3bb4b0	0.0114566535
139	0xbc82c05e	-0.015960868
140	0xbd50952a	-0.050923504
141	0xbd557760	-0.052115798
142	0xbd21ad1f	-0.03947174
143	0xbd8a4369	-0.06751139
144	0xbd9b1d37	-0.07573932
145	0xbce304e3	-0.027712291
146	0xbd55a73b	-0.052161437
147	0x3d323dbc	0.043515906
148	0xbd241ecc	-0.040068433
149	0xbd157153	-0.036485028
150	0xbd8d29d0	-0.06892741
151	0x3cfe818b	0.03106763
152	0xbd485381	-0.04890776
153	0xbd912bee	-0.07088457
154	0x3e16058e	0.14650556
155	0x3d3c53cb	0.04597835
156	0x3d002c4e	0.031292252
157	0x3d852807	0.06501775
158	0x3d99a6ca	0.075025156
159	0x3d4ff147	0.05076721
160	0x3cc32f98	0.023826405
161	0x3e63700c	0.22210711
162	0x3cb78475	0.022402028
163	0x3d521e4d	0.05129843
164	0xbcde3f85	-0.027129898
165	0x3d26592e	0.040612392
166	0x3d23a122	0.03994859
167	0x3c742f72	0.01490389
168	0xbd09ec72	-0.033672757
169	0x3d5f4e50	0.054518044
170	0x3c48ac42	0.012248101
171	0xbb44854d	-0.002998668
172	0xbd5c46f7	-0.053778615
173	0x3ca54646	0.02017511
174	0x3b6fbe1c	0.003658182
175	0x3d8d7391	0.06906808
176	0xbd895b15	-0.06706826
177	0xbd55b414	-0.05217369
178	0xbc9645a8	-0.018343762
179	0xbd5ffb5c	-0.054683074
180	0x3d4d1e1c	0.050077543
181	0x3dbc969f	0.09208416
182	0xbcc33d15	-0.023832837
183	0x3d4238b6	0.047417365
184	0x3b745ea8	0.0037287865
185	0x3c4dca9a	0.012560511
186	0x3d041f43	0.032256376
187	0x3db75438	0.0895161
188	0x3ced33c5	0.02895535
189	0x3d8f7169	0.07004053
190	0xbd64b3b3	-0.055835437
191	0xbd8bc225	-0.068241395
192	0xbd9288b3	-0.071549796
193	0xbd3749a6	-0.04474797
194	0xbd5971da	-0.053087093
195	0x3d95f271	0.07321633
196	0x3d863aa0	0.065541506
197	0xbbd28d60	-0.0064255446
198	0x3c541acc	0.012945842
199	0x3c656143	0.01400024
200	0x3d46bbce	0.04851895
201	0xbd7a03a5	-0.061038632
202	0x3d47cc69	0.048778925
203	0xbd1ed4fd	-0.03877734
204	0xbd50c98b	-0.050973456
205	0xbc71c2d1	-0.0147559205
206	0x3dd46bc0	0.10372114
207	0x3c5a5288	0.013325341
208	0x3d64cdd4	0.055860355
209	0xbd9ec785	-0.07752899
210	0x3c3ab29c	0.011395123
211	0x3c90899a	0.017643739
212	0x3cc97b1a	0.024594832
213	0xbd8bd69e	-0.06828044
214	0x3cb675db	0.022272995
215	0x3d762009	0.060089145
216	0x3d305042	0.04304529
217	0x3dbc0460	0.09180522
218	0x3d8a892f	0.06764447
219	0x3cf1d51d	0.029520566
220	0x3da86a8c	0.08223447
221	0x3cc69fe0	0.024246156
222	0x3d59ebb8	0.053203315
223	0x3c143a90	0.0090471655
224	0xbce11507	-0.027475847
225	0xbd0db88f	-0.034599837
226	0x3db53f1b	0.08849927
227	0x3d87f016	0.0663759
228	0x3cb13a07	0.021634115
229	0x3d97c64d	0.0741087
230	0x3d8404da	0.06446238
231	0x3dd946ce	0.10609208
232	0xbb09df5e	-0.0021037678
233	0xbc319dd5	-0.010840853
234	0xbc0b18ed	-0.0084898295
235	0x3d01547c	0.03157471
236	0xbd2c6741	-0.042090658
237	0x3d7ce6a8	0.06174341
238	0x3d046632	0.032324024
239	0xbd3f5da3	-0.04672016
240	0xbd765653	-0.06014092
241	0xbd551bf0	-0.052028596
242	0xbd527066	-0.051376723
243	0x3d50c9cd	0.050973702
244	0x3d35a7fc	0.044349656
245	0xbba8618b	-0.005138581
246	0x3bd37960	0.006453678
247	0x3d703d82	0.05865241
248	0x3cd2fcc3	0.025755292
249	0xbd362a2f	-0.044473823
250	0x3db65df1	0.08904637
251	0x3dc34b7a	0.095358804
252	0x3cb2d3c4	0.021829493
253	0x3d5c6b31	0.053813163
254	0x3d95bca5	0.07311372
255	0x3c4e8148	0.012604065

fc3.bias f4 [102]
0	0x3cb89990	0.022534162
1	0xbd7096fe	-0.058737747
2	0xbd73933a	-0.059466578
3	0x3da0e2d3	0.07855763
4	0x3a5cb78f	0.00084196863
5	0xbc47f713	-0.012204903
6	0x3c294057	0.010330281
7	0xbc86d45b	-0.01645868
8	0xbcbaeed6	-0.022818964
9	0x3d1d4712	0.038397856
10	0x3d4cc269	0.04999009
11	0xbb21ea9c	-0.0024706488
12	0xbd2e6f60	-0.042586684
13	0x3dd16983	0.10225203
14	0x3c8e4b88	0.01737
15	0xbd4fe096	-0.05075129
16	0xbc6ecb0b	-0.014574776
17	0x3dc47211	0.09592069
18	0xbd0948c9	-0.03351668
19	0xbd2a0e22	-0.041517384
20	0x3bc2b29d	0.0059417025
21	0xbcd20d1b	-0.025641015
22	0xbd2bcc87	-0.0419431
23	0xbbfc5490	-0.0077005103
24	0x3dd1b7a3	0.10240104
25	0x3dc0029d	0.093754984
26	0x3db3a1ff	0.08771133
27	0x3d9073eb	0.070533596
28	0x3d402e29	0.04691902
29	0x3cb88018	0.022522017
30	0x3daf6b41	0.08565379
31	0xbd4f36e0	-0.050589442
32	0x3dc585c8	0.096446574
33	0xbd4a24cd	-0.049351502
34	0x3db46fc4	0.0881038
35	0x3d9359f1	0.07194889
36	0xbd559ad1	-0.052149598
37	0xbd7e38c2	-0.062065847
38	0x3cc5b188	0.024132505
39	0x3cd5af99	0.026084708
40	0x3c88d117	0.016701264
41	0x3dc3817f	0.09546184
42	0x3d2f0273	0.042726945
43	0x3be4b22b	0.006979247
44	0xbd12976d	-0.035788942
45	0xbbfd137d	-0.0077232704
46	0x3c8aa440	0.016924024
47	0x3d9bdee6	0.07610874
48	0xbd39f6d2	-0.0454014
49	0x3d62b3ed	0.05534737
50	0xbd234dbd	-0.03986906
51	0xbd361c31	-0.04446048
52	0x3dbe888d	0.09303389
53	0x3de0a40d	0.1096879
54	0xbb06c1bb	-0.002056225
55	0xbd6b9f2b	-0.05752484
56	0xbc48b873	-0.012251007
57	0x3d9e36f3	0.077253245
58	0xbd247904	-0.040154472
59	0x3d86be97	0.06579321
60	0x3db70176	0.089358255
61	0xbac5eb1c	-0.0015099975
62	0x3d39d4d6	0.04536899
63	0x3dace28c	0.08441648
64	0x3d9b93df	0.075965635
65	0x3dbe48cd	0.092912294
66	0x3d5bda4b	0.053674977
67	0x3d96c71a	0.07362194
68	0x3d9611a8	0.073275864
69	0xbd871161	-0.06595112
70	0x3d2b5f90	0.041839182
71	0xbc38b627	-0.011273897
72	0xbd79f871	-0.061027948
73	0x3d5b8183	0.05359031
74	0x3d9879b9	0.07445092
75	0x3dc040da	0.093873695
76	0x3d469693	0.048483443
77	0x3d07b6b9	0.033133242
78	0x3c78131b	0.015141274
79	0x3d38a644	0.04508044
80	0x3da03812	0.078231946
81	0x3d522029	0.0513002
82	0xbd7172bb	-0.058947306
83	0x3d729711	0.0592261
84	0x3dd601a5	0.104495324
85	0x3da38fb9	0.07986397
86	0xbc6b9edc	-0.014381137
87	0xbca39c13	-0.019971883
88	0xbd00b6b5	-0.031424243
89	0x3d2c2a85	0.042032737
90	0x3cf81111	0.030281575
91	0x3da49a74	0.08037272
92	0x3d9cd5fc	0.07658002
93	0x3d0d10e8	0.03443995
94	0xbc940613	-0.018069303
95	0x3d873395	0.06601635
96	0x3ddc4dba	0.10757013
97	0xbbc48286	-0.005997005
98	0x3d1ad6a7	0.037802365
99	0x3d0bbc47	0.034115102
100	0xbd751e15	-0.05984314
101	0x3d2a2763	0.04154147
