Assets/TestVRMovement/bone_model_full_model.onnx (onnx, 89144 bytes, 6 tensors)

fc1.weight f4 [64, 9]
0	0x3e84f64a	0.25969154
1	0x3dd8fe24	0.105953485
2	0xbe286e70	-0.16448379
3	0x3e51a572	0.20473269
4	0x3dad4256	0.08459918
5	0xbcced473	-0.025247788
6	0x3e9a7b76	0.30172318
7	0x3cc2292a	0.02370127
8	0x3e75b79b	0.23995821
9	0xbda890aa	-0.082307175
10	0x3e87c5bf	0.26518056
11	0xbe54f73e	-0.2079744
12	0xbe05eb8d	-0.13078137
13	0xbdc30f39	-0.09524388
14	0x3cd89208	0.02643682
15	0x3e26f4d2	0.16304329
16	0x3e9fe4a5	0.3122913
17	0x3cc7841e	0.02435499
18	0xbe3f9ba4	-0.18711716
19	0xbc3c1835	-0.011480381
20	0xbe72b5b2	-0.23702124
21	0xbe52afca	-0.2057487
22	0xbd92634a	-0.07147844
23	0x3ebe8496	0.3721053
24	0x3d91a5dc	0.07111713
25	0x3e0dbf4e	0.13842508
26	0xbdb88261	-0.09009243
27	0xbe85dce6	-0.26145095
28	0xbe9a82d2	-0.30177933
29	0xbea8fee0	-0.33006954
30	0xbe60fef6	-0.2197226
31	0x3e5baa4e	0.21451685
32	0xbe1fd800	-0.15609741
33	0x3e02aaa6	0.1276041
34	0x3e89166d	0.26774922
35	0x3e91e88b	0.2849773
36	0x3e5b04e8	0.2138859
37	0xbdfe2549	-0.12409455
38	0x3e2f6f65	0.17132337
39	0x3e745769	0.2386147
40	0xbeacb7fb	-0.33734116
41	0x3f3b01fa	0.7304989
42	0xbee79855	-0.45233408
43	0xbd32c108	-0.04364112
44	0xbeb4d9c7	-0.353224
45	0xbd271e55	-0.04080041
46	0x3e87eed3	0.26549396
47	0xbe3e483f	-0.18582247
48	0x3bf334dc	0.007422073
49	0x3ea8bd06	0.32956713
50	0x3b592993	0.0033136352
51	0x3cce41a8	0.025177792
52	0x3e986831	0.29766992
53	0x3e76d19a	0.24103394
54	0x3e9fe11a	0.31226426
55	0xbe8c2266	-0.27369994
56	0xbd16b876	-0.03679701
57	0x3e6ac822	0.22927907
58	0xbf34e09a	-0.70655215
59	0x3ea6088f	0.32428405
60	0x3e250060	0.16113424
61	0xbf572542	-0.84041226
62	0xbca2744c	-0.019830845
63	0xbe60385e	-0.21896502
64	0x3e8d03fd	0.27542105
65	0xbe126c98	-0.14299238
66	0x3e7b73e2	0.24555925
67	0xbd9b4234	-0.075809866
68	0xbe115870	-0.14193892
69	0x3dfd9d80	0.12383556
70	0xbcb90090	-0.022583276
71	0xbe932113	-0.2873617
72	0x3d9de31d	0.07709334
73	0xbe9beee5	-0.304557
74	0x3e01d961	0.1268058
75	0xbe4df455	-0.20112737
76	0xbe9dfaa6	-0.30855292
77	0x3e227f4e	0.15868875
78	0x3e671065	0.22564848
79	0x3e97fbe4	0.29684365
80	0x3ea8f503	0.3299943
81	0xbde82933	-0.11335983
82	0x3e978923	0.29596815
83	0x3ce64520	0.028109133
84	0x3cfc8d0c	0.030828975
85	0xbb707f9e	-0.003669716
86	0xbd83682d	-0.06416354
87	0xbe8ba007	-0.2727053
88	0x3e363db3	0.17796974
89	0x3e1dd028	0.15411437
90	0x3c9a2270	0.01881525
91	0xbe6ca7db	-0.23110907
92	0xbe8d7110	-0.27625322
93	0xbe8a63b8	-0.27029204
94	0x3e4ccb3a	0.199994
95	0xbcde58f0	-0.027142018
96	0xbd3eaaf8	-0.046549767
97	0x3d32d300	0.043658257
98	0xbe06baab	-0.13157146
99	0xbda27251	-0.079319604
100	0x3e8e2744	0.27764332
101	0x3dc301c7	0.095218234
102	0x3e6ff85d	0.23434587
103	0xbe9c892d	-0.30573407
104	0x3e4044c2	0.18776229
105	0xbe87e9a0	-0.2654543
106	0x3ec3df86	0.38256472
107	0xbeac8e86	-0.33702487
108	0x3d25192a	0.0403072
109	0xbdab147e	-0.08353518
110	0x3d27c932	0.04096336
111	0xbe9b5b71	-0.30343202
112	0x3e92a21b	0.28639302
113	0x3de0cf41	0.109770305
114	0x3d57f31a	0.052722074
115	0x3ea040d9	0.31299475
116	0x3e885f18	0.2663505
117	0xbe7935b6	-0.24336895
118	0x3db2d590	0.0873214
119	0x3e2622d2	0.1622422
120	0xbe63e12b	-0.22253864
121	0xbd48bc60	-0.049007773
122	0xbdb68a90	-0.089131474
123	0xbeaa197a	-0.33222562
124	0xbca124f0	-0.019670933
125	0xbe9060c7	-0.28198835
126	0x3be8ba40	0.007102281
127	0xbeaa24f2	-0.33231312
128	0xbe996858	-0.2996242
129	0xbe298908	-0.1655618
130	0x3e126de0	0.14299726
131	0xbdd77bfc	-0.10521695
132	0xbe6c85ae	-0.2309787
133	0xbe41a19e	-0.18909308
134	0x3e180eb8	0.14849365
135	0xbe5bc113	-0.2146037
136	0xbe0bc253	-0.13648348
137	0xbe32c93b	-0.17459576
138	0xbe9d197b	-0.30683503
139	0x3e9d3d79	0.30710962
140	0x3d21fe28	0.039549023
141	0xbce5c940	-0.028050065
142	0x3dca4cf0	0.09877956
143	0xbe774c1e	-0.2415013
144	0x3e5d47ff	0.21609496
145	0x3e8e78fd	0.27826682
146	0xbd8619a7	-0.065478615
147	0xbea2df55	-0.31811014
148	0x3d965504	0.07340434
149	0x3e8d0e01	0.27549747
150	0xbce89825	-0.02839286
151	0x3eb3b7e3	0.35101232
152	0xbe5cbc1b	-0.21556132
153	0x3e0c35ef	0.13692449
154	0x3d994c77	0.07485288
155	0xbdebb614	-0.11509338
156	0x3c10933a	0.008824164
157	0xbe24890f	-0.16067909
158	0x3e447b9e	0.19187781
159	0x3e809f2e	0.25121444
160	0x3e951eb3	0.29124984
161	0xbd8f804f	-0.07006895
162	0xbecff975	-0.40620008
163	0xbe97603b	-0.29565606
164	0x3dc0fed4	0.094236046
165	0x3e30ab0e	0.17252752
166	0x3f70ec78	0.9411082
167	0xbde0c80c	-0.10975656
168	0x3f5967fa	0.8492428
169	0xbed23bf9	-0.4106138
170	0xbe27eed4	-0.163997
171	0x3e9ff760	0.3124342
172	0x3eb22f72	0.34801823
173	0xbe4a05e1	-0.19728805
174	0xbdbdca17	-0.09267061
175	0xbdf72b8b	-0.12068852
176	0x3e3b3df8	0.18285358
177	0x3e16bce3	0.14720492
178	0x3de6ce0c	0.11269769
179	0x3e1c14d0	0.15242314
180	0xbe5b5855	-0.21420415
181	0xbd0bf5d6	-0.034169994
182	0xbe7e0e99	-0.24810256
183	0x3e74d668	0.23909914
184	0x3dfc05ae	0.12305771
185	0x3cffae09	0.031210916
186	0x3e516ff8	0.20452869
187	0xbe920d22	-0.28525645
188	0xbd0d1b98	-0.034450144
189	0xbe065d88	-0.13121617
190	0xbe36a306	-0.17835626
191	0xbe23a653	-0.15981416
192	0x3e075690	0.13216615
193	0xbca99e80	-0.020705462
194	0x3dac9fc4	0.084289104
195	0xbe189f86	-0.14904603
196	0xbe1d2b20	-0.15348482
197	0xbdbe4240	-0.0928998
198	0x3e516aac	0.20450848
199	0xbddeabff	-0.108726494
200	0x3e32985e	0.17440936
201	0xbeed07b9	-0.46294954
202	0xbe8c184b	-0.27362284
203	0xbf3ac30d	-0.72953874
204	0x3e418692	0.18898991
205	0xbcc43e94	-0.02395562
206	0x3f1fd225	0.6243003
207	0xbd947078	-0.07248014
208	0x3d66f9b5	0.056390483
209	0x3e407c83	0.18797497
210	0x3e8a8bc6	0.27059764
211	0x3df708d1	0.120622285
212	0x3c817384	0.015802152
213	0x3eb297b5	0.34881368
214	0xbe0a217a	-0.13489333
215	0x3d64d797	0.055869665
216	0xbe5c66ce	-0.21523592
217	0xbe337406	-0.17524728
218	0xbd0d3058	-0.034469932
219	0x3e6a08d2	0.22854927
220	0x3e832069	0.25610664
221	0x3e7ff11e	0.24994323
222	0xbe30fc96	-0.17283854
223	0xbd7f95b8	-0.062398642
224	0xbe5b46b8	-0.21413696
225	0x3d9675ee	0.07346712
226	0x3e94812b	0.29004797
227	0x3da76b05	0.08174709
228	0x3e8f7b87	0.2802393
229	0x3d2cc67c	0.042181477
230	0x3eb8f1ba	0.36121923
231	0xbe7e336c	-0.24824303
232	0x3eb4015b	0.35157284
233	0xbe273767	-0.16329728
234	0x3c8efcf0	0.017454594
235	0x3e92053d	0.28519621
236	0xbea6d44c	-0.32583845
237	0xbd924050	-0.07141173
238	0xbe2b9f66	-0.16760024
239	0xbe716ac8	-0.2357589
240	0xbe88a1cb	-0.26685938
241	0x3cdf6310	0.027268916
242	0x3b8408c0	0.0040293634
243	0xbe94dfde	-0.29077047
244	0x3de0e5d0	0.10981333
245	0xbe29cb78	-0.16581523
246	0x3e75c48e	0.24000761
247	0x3ea75ac1	0.32686427
248	0xbe757060	-0.23968649
249	0x3de44654	0.111462265
250	0x3d9b08c4	0.07570031
251	0xbe4b5b03	-0.19858937
252	0x3e2f58c1	0.171237
253	0xbe6047ec	-0.21902436
254	0x3e029971	0.12753846
255	0x3e3fa5a8	0.18715537

fc1.bias f4 [64]
0	0xbe31b1b4	-0.17352945
1	0xbe709436	-0.23494038
2	0x3ea50411	0.32229665
3	0xbe9aace7	-0.3021004
4	0xbd73eaa8	-0.059549958
5	0xbdbda5da	-0.09260149
6	0x3e8b1067	0.27160951
7	0xbe33ad78	-0.17546642
8	0xbd3b8184	-0.045777813
9	0x3e54aca7	0.20768987
10	0xbe5f8fb6	-0.21832165
11	0xbda538f8	-0.080675066
12	0xbe4d090e	-0.20022985
13	0x3e8ca637	0.27470562
14	0xbcbb7500	-0.022882938
15	0x3ce9a770	0.028522223
16	0xbcd93399	-0.026513861
17	0x3e24c95a	0.16092435
18	0xbe1e03ba	-0.15431109
19	0x3e26516e	0.16242
20	0x3ea53bdf	0.3227224
21	0x3d30fa58	0.043207496
22	0x3e84ef90	0.25964022
23	0x3e81f390	0.25381136
24	0xbd4ce3b8	-0.050021857
25	0xbe802399	-0.2502716
26	0xbe2dd5e3	-0.16976123
27	0xbe3cc950	-0.1843617
28	0x3d241156	0.040055595
29	0xbe36ff6b	-0.17870872
30	0x3e136ae1	0.1439624
31	0x3e8f757b	0.28019318
32	0xbe4cea73	-0.2001131
33	0x3e124d8c	0.14287394
34	0xbe1a5650	-0.15071988
35	0x3e4a797b	0.19772904
36	0x3d9525d4	0.07282606
37	0xbe8f555e	-0.27994817
38	0x3dbcfd80	0.09228039
39	0xbea12602	-0.3147431
40	0xbe844f0c	-0.25841558
41	0xbda42551	-0.0801493
42	0x3dc6a60f	0.09699642
43	0xbe89ccf5	-0.26914182
44	0x3ea06543	0.31327257
45	0xbc9cb9f1	-0.019131633
46	0x3df20970	0.11818206
47	0x3e83ce7c	0.25743473
48	0xbe069aed	-0.13145037
49	0xbe8a1c13	-0.26974544
50	0xbe0cca41	-0.13749029
51	0xbe268200	-0.16260529
52	0x3e807942	0.25092512
53	0xbe7984f3	-0.24367122
54	0x3ea6dd9d	0.32590953
55	0xbe3adb2e	-0.18247673
56	0x3d6a0188	0.057130367
57	0xbdf0a8b1	-0.11750925
58	0x3dc830ed	0.09774957
59	0xbe0f6028	-0.14001524
60	0x3e82c6eb	0.25542387
61	0x3e6b379c	0.22970432
62	0xbdd29d1a	-0.10283871
63	0xbdec9fd6	-0.11553924

fc2.weight f4 [128, 64]
0	0x3dd86e01	0.105678566
1	0x3dc48e83	0.095974945
2	0x3dc94f74	0.098296076
3	0xbde727ac	-0.11286864
4	0xbcf92ab8	-0.030415878
5	0x3ce19e12	0.027541194
6	0x3d9f77d2	0.07786526
7	0xbb24ae80	-0.0025128424
8	0x3ae5885e	0.0017511954
9	0x3d230fe9	0.039810095
10	0x3d4019fc	0.04689978
11	0x3d5138ed	0.05107968
12	0x3d7ae1e5	0.061250586
13	0x3df395f0	0.11893833
14	0xbd9cefc2	-0.07662918
15	0x3d8dda94	0.06926456
16	0xbd465d67	-0.04842892
17	0x3ce32944	0.027729638
18	0x3ec5eb2b	0.3865598
19	0xbd55b3b2	-0.052173324
20	0x3d40b062	0.04704321
21	0x3dddc2a6	0.10828142
22	0xbeee3b8c	-0.46529806
23	0x3d76f7fc	0.06029509
24	0x3dab2780	0.083571434
25	0xbbb038d3	-0.0053778677
26	0x3debd79c	0.115157336
27	0xbd169348	-0.036761552
28	0xbce93bc3	-0.02847088
29	0xb9873400	-0.0002578795
30	0xbcebf243	-0.028802043
31	0x3e1d12c0	0.15339184
32	0xbc59f850	-0.013303831
33	0x3da29a77	0.07939618
34	0xbd8b52a8	-0.06802875
35	0x3ddf5232	0.109043494
36	0xbd195704	-0.0374365
37	0xbdc65d86	-0.09685807
38	0xbc90a010	-0.017654449
39	0xbcf51928	-0.029919222
40	0x3ab04800	0.0013449192
41	0x3d75f796	0.06005057
42	0x3d277535	0.04088326
43	0x3d830f93	0.06399455
44	0x3df6a9fc	0.12044141
45	0xbd4c0a45	-0.04981448
46	0xbdf02aa4	-0.11726883
47	0x3dc24732	0.09486236
48	0x3e19e804	0.15029913
49	0xbd5467f0	-0.051856935
50	0xbdeda7ce	-0.11604272
51	0xbdb3d4b2	-0.08780803
52	0xbd50dd44	-0.050992265
53	0xbd93fcda	-0.07225962
54	0xbd292994	-0.041299418
55	0xbca5cb88	-0.020238653
56	0xbdb4e72c	-0.08833155
57	0xbc1b4e4e	-0.0094791185
58	0x3d07776c	0.033072874
59	0x3d99101c	0.07473776
60	0x3de5ad0f	0.11214649
61	0xbb84b35b	-0.004049701
62	0xbbe87abb	-0.0070947087
63	0x3d5dc214	0.054140165
64	0xbdb543eb	-0.08850845
65	0x3d40570e	0.04695802
66	0x3da3ae98	0.079922855
67	0x3daea4b0	0.085275054
68	0xbed91f1f	-0.42406556
69	0xbcc322f6	-0.023820382
70	0x3c698ba3	0.014254483
71	0xbb818a80	-0.003953278
72	0x3c46aa32	0.012125539
73	0xbcae8e5d	-0.021308118
74	0x3d91616e	0.07098661
75	0xbda9096e	-0.08253752
76	0x3cefcc43	0.029272204
77	0xbda0f672	-0.07859506
78	0x3dfe3b42	0.12413646
79	0xbde5a62e	-0.11213337
80	0xbd9bbf1a	-0.07604809
81	0xbc6b3ac6	-0.014357274
82	0x3f3d9eb2	0.74070275
83	0x3a96eadf	0.0011514089
84	0xbd60a853	-0.054848026
85	0x3cbdd190	0.023171216
86	0x3f002259	0.5005241
87	0x3cc821cf	0.024430184
88	0xbd2c9b68	-0.042140394
89	0x3c6dbca7	0.01451031
90	0xbd1abb18	-0.037776083
91	0xbcf38fe8	-0.029731706
92	0xbb77d399	-0.003781533
93	0xbd90ba64	-0.07066801
94	0x3d9e1765	0.07719306
95	0x3d14b07b	0.036301117
96	0xbd2b6ddc	-0.041852817
97	0x3d689d22	0.05679048
98	0xbdbb3682	-0.09141256
99	0xbd01b5a8	-0.03166738
100	0xbcbfe898	-0.023426339
101	0x3d91d47b	0.071206056
102	0x3db3e5f2	0.08784093
103	0x3db802aa	0.08984883
104	0x3dcc2a36	0.099689886
105	0x3c888108	0.01666309
106	0x3e037e80	0.12841225
107	0x3d9e43c0	0.07727766
108	0xbd010044	-0.031494394
109	0xbda30bc5	-0.07961229
110	0xbdc4f204	-0.09616473
111	0x3dbf6e5b	0.093472205
112	0xbd9140f5	-0.07092468
113	0x3db9b5e6	0.090678975
114	0x3e5b20be	0.21399209
115	0xbd799138	-0.060929507
116	0x3e08d2cc	0.13361663
117	0xbdc68f7e	-0.09695338
118	0x3deda3bc	0.116034955
119	0xbbb4a660	-0.0055129975
120	0xbdaf8d80	-0.08571911
121	0x3de75363	0.11295202
122	0x3c6cd55e	0.014455168
123	0xbda070a0	-0.078339815
124	0x3daf3628	0.08555251
125	0xbc22da36	-0.009939721
126	0x3b448334	0.002998543
127	0x3de3325a	0.11093588
128	0x3d34c044	0.04412867
129	0xbdf7f199	-0.12106628
130	0x3dc8d974	0.09807101
131	0xbbbd5dc0	-0.005778998
132	0x3eabd7c0	0.33563042
133	0x3d7ee569	0.0622305
134	0xbd393390	-0.04521519
135	0x3d8afd4e	0.06786595
136	0x3d78ab01	0.060709957
137	0x3d60123c	0.05470489
138	0xbdf3a8b2	-0.118974105
139	0x3e217ac7	0.15769492
140	0x3dbb9fa3	0.09161308
141	0x3c82ed78	0.015982375
142	0x3ca48708	0.02008392
143	0xbdcc2cdc	-0.09969494
144	0x3d714ed2	0.05891306
145	0x3d9b6a2a	0.075886086
146	0xbf4e26ed	-0.80528146
147	0x3dc45b09	0.09587676
148	0xbdf560b5	-0.11981336
149	0x3d9354ca	0.071939066
150	0xbdae4246	-0.085087344
151	0xbc267212	-0.010159032
152	0xbc43e3e0	-0.011956185
153	0xbd009ce4	-0.031399623
154	0x3d5f10ac	0.05445926
155	0xbc474510	-0.012162462
156	0x3dc3c238	0.09558529
157	0xbdcc72e0	-0.09982848
158	0xbdab67f3	-0.08369436
159	0x3d830744	0.0639787
160	0xbcf74b40	-0.03018725
161	0x3c3db2f0	0.011578307
162	0xbdcc4bc0	-0.09975386
163	0xbcc00d4c	-0.02344384
164	0xbde4f174	-0.11178866
165	0x3e0c82ea	0.13721815
166	0xbde0c2e8	-0.109746754
167	0x3cc1b540	0.023645997
168	0x3d2c5d88	0.042081386
169	0x3d385b3d	0.045008887
170	0xbccd51fb	-0.025063505
171	0xbde9955e	-0.11405443
172	0x3d5d3328	0.054003865
173	0xbcc76fd6	-0.02434532
174	0xbc368af0	-0.011141524
175	0x3d97bb03	0.074087165
176	0x3d42a7f5	0.047523458
177	0xbdf01742	-0.11723186
178	0x3e30aa38	0.17252433
179	0x3dc502be	0.09619664
180	0x3da9cf1c	0.08291456
181	0xbde536ce	-0.11192094
182	0x3dad4bd1	0.084617265
183	0xbde949a8	-0.11391002
184	0x3daaa4d6	0.08332221
185	0xbd4c05cd	-0.04981022
186	0xbdb845f5	-0.08997718
187	0x3db8c39a	0.09021683
188	0x3d20fb1d	0.03930198
189	0xbd512b3f	-0.051066633
190	0x3c199080	0.00937283
191	0x3df0415c	0.11731216
192	0x3c2bdadb	0.010489191
193	0xbcc381e8	-0.023865655
194	0xbd05c60e	-0.032659583
195	0x3d964c5a	0.07338782
196	0xbef26942	-0.4734593
197	0xbdc81799	-0.09770126
198	0xbcb901e1	-0.022583904
199	0xbda91330	-0.08255613
200	0xbd5ce10e	-0.053925566
201	0xbd309e13	-0.0431195
202	0xbdb10a7a	-0.08644576
203	0x3cf2974a	0.029613156
204	0x3cfda4ef	0.030962436
205	0xbcdae720	-0.026721537
206	0x3c8992f0	0.016793698
207	0x3dfa0ac4	0.12209085
208	0x3d2f1828	0.042747647
209	0x3c8460d8	0.01615946
210	0xbeb74511	-0.3579488
211	0x3d19246d	0.037388254
212	0xbca9f8a0	-0.020748436
213	0x3dc8ca8e	0.09804259
214	0xbc80f2b7	-0.015740735
215	0x3d92ff0f	0.07177555
216	0xbdfb8fe4	-0.12283304
217	0x3c0d8079	0.008636587
218	0x3d21d880	0.03951311
219	0x3dc4dba4	0.096122056
220	0x3df7ccb1	0.12099589
221	0xbdf087d6	-0.11744659
222	0x3dde2f64	0.10848883
223	0xbe034f7d	-0.12823291
224	0xbd2730d4	-0.04081805
225	0x3c7f6ed7	0.015590391
226	0x3bdaea40	0.006680757
227	0xb92feb5e	-0.00016776982
228	0xbdb36eb6	-0.08761351
229	0xbdb45b96	-0.08806531
230	0xbd9cb29c	-0.076512545
231	0xbdc92e2c	-0.0982326
232	0xbdd45482	-0.10367681
233	0x3da98cf1	0.082788356
234	0xbd942921	-0.07234407
235	0x3b6352a1	0.0034686702
236	0xbd1c1cc4	-0.03811337
237	0x3c85138b	0.01624467
238	0xbdd0c166	-0.10193138
239	0x3df9ed2a	0.122034386
240	0xbe1ab08d	-0.15106411
241	0x3d4a9ff0	0.049468935
242	0x3db04624	0.08607128
243	0xbd457444	-0.048206583
244	0x3d40f8a9	0.04711214
245	0xbdc58dfe	-0.096462235
246	0x3ddf8688	0.10914332
247	0xbd090754	-0.033454254
248	0x3db8c00c	0.09021005
249	0xbca2bd97	-0.019865794
250	0xbcfa45db	-0.030550888
251	0x3db32310	0.08746922
252	0x3d139eda	0.036040165
253	0x3dba39f0	0.09093082
254	0xbdc2a55b	-0.09504195
255	0xbda01bc4	-0.07817796

fc2.bias f4 [128]
0	0x3e144a73	0.14481525
1	0x3ca26d1e	0.019827422
2	0x3de7f8ac	0.11326727
3	0x3de5b4fd	0.112161614
4	0x3d66a0c0	0.056305647
5	0xbd97ea82	-0.07417776
6	0xbc0b3ec4	-0.008498851
7	0x3d995ce5	0.07488421
8	0x3cc78c6a	0.024358947
9	0xbdf8c095	-0.12146107
10	0x3d304761	0.043036822
11	0x3dc5e170	0.096621394
12	0xbdfbd60f	-0.12296688
13	0xbc039b00	-0.00803256
14	0xbdbcbc5c	-0.09215614
15	0x3d87ae24	0.066250116
16	0x3c71de98	0.014762543
17	0xbc81461c	-0.015780501
18	0xbde8fff5	-0.11376945
19	0xbdec0f72	-0.115263835
20	0x3df6ca24	0.12050274
21	0x373f8000	1.14142895e-05
22	0xbda3fa24	-0.08006695
23	0xbd7c3482	-0.061573513
24	0x3cdcb9bb	0.026944032
25	0xbdd397ec	-0.10331711
26	0x3d402b3d	0.046916235
27	0xbc776629	-0.0151000405
28	0x3d01856d	0.031621385
29	0xbd8bb7da	-0.06822176
30	0xbcd2146b	-0.025644502
31	0x3db192c8	0.086705744
32	0x3d66f8ee	0.05638974
33	0xbde3a8ea	-0.11116202
34	0xbd0e6ac4	-0.03476979
35	0x3d61d8ed	0.055138517
36	0x3d93cbbb	0.07216593
37	0xbc950d8d	-0.018194938
38	0xbe0be10d	-0.13660069
39	0xbd33ef04	-0.043929115
40	0x3d262f49	0.04057244
41	0xbdb27b4c	-0.08714923
42	0x3e0b81d4	0.13623744
43	0xbdf8094c	-0.12111148
44	0x3d9df9e0	0.077136755
45	0xbdb2f9fb	-0.08739086
46	0x3e8eb6ac	0.27873743
47	0x3d124009	0.0357056
48	0x3d41693d	0.047219504
49	0x3d0a19a8	0.033715874
50	0xbd9a9b6a	-0.07549174
51	0xbd96054c	-0.07325229
52	0x3d3d1b21	0.04616845
53	0xbd985d0e	-0.07439624
54	0x3dad7c8c	0.08471021
55	0x3e0b881b	0.13626139
56	0xbd9e8c66	-0.077416226
57	0x3d8a3632	0.06748618
58	0x3de30e06	0.11086659
59	0x3d673fdc	0.056457385
60	0x3d925539	0.07145161
61	0x3de9ef00	0.11422539
62	0x3e10af46	0.14129362
63	0x3d4c1dba	0.049833037
64	0x3c8e4308	0.017365947
65	0xbd7b2d18	-0.0613223
66	0xbde8123c	-0.11331603
67	0xbd817a9e	-0.063222155
68	0xbd9cd544	-0.07657865
69	0xbd81179c	-0.06303331
70	0x3d80dd14	0.06292167
71	0xbdbb9a88	-0.09160334
72	0x3bb6a14f	0.0055734287
73	0x3d9acf30	0.07559049
74	0xbdf6a453	-0.12043061
75	0xbdd541a8	-0.104129136
76	0xbdf27c98	-0.118401706
77	0xbd58448c	-0.052799746
78	0x3d317349	0.043322835
79	0x3da6f3ae	0.08151947
80	0x3d9ec988	0.07753283
81	0xbb913ed3	-0.004432538
82	0x3c2fb7b0	0.010724947
83	0x3d48d4a0	0.0490309
84	0xbdb76da0	-0.08956456
85	0xbcec96f0	-0.028880566
86	0xbd2dab2a	-0.042399563
87	0xbdbb3907	-0.091417365
88	0x3d3ef1af	0.046617206
89	0x3b991440	0.0046716034
90	0xbd6cc704	-0.057806984
91	0x3bf73ae7	0.0075448635
92	0x3de91a60	0.11381984
93	0x3e07552d	0.13216086
94	0x3e023a94	0.12717658
95	0xbd9291c2	-0.07156707
96	0xbde791b8	-0.113070905
97	0xbcf89b10	-0.030347377
98	0x3d7ece25	0.062208313
99	0x3df90ba4	0.121604234
100	0xbd8c7700	-0.06858635
101	0x3d831fba	0.06402536
102	0x3e160d71	0.14653565
103	0xbd02c2b0	-0.03192395
104	0xbda08323	-0.07837512
105	0xbba4a9e0	-0.0050251335
106	0xbdde87cc	-0.10865745
107	0x3dd06637	0.10175746
108	0x3dcdc524	0.10047367
109	0xbdd3b474	-0.10337153
110	0x3d84e5a0	0.0648911
111	0xbda42755	-0.080153145
112	0x3e11b72b	0.1423003
113	0xbd2f300c	-0.04277043
114	0x3d3736d9	0.04473004
115	0xbbc784e0	-0.006088838
116	0xbc42e0a0	-0.011894375
117	0x3e0b4c5c	0.13603348
118	0xbd83d605	-0.06437305
119	0x3e175039	0.14776696
120	0xbcc50bf8	-0.024053559
121	0xbde71b30	-0.112844825
122	0x3d802a78	0.062581
123	0x3d9de416	0.077095196
124	0xbdae6399	-0.085150905
125	0xbde6214c	-0.112368196
126	0x3cb46789	0.022022026
127	0x3d61b3d7	0.05510315

fc3.weight f4 [102, 128]
0	0x3dc3b122	0.0955527
1	0x3db04198	0.08606261
2	0xbc6b825e	-0.014374344
3	0xbd6e32b4	-0.058153823
4	0xbcd54f24	-0.026038714
5	0xbce98936	-0.02850781
6	0xbd49bc3f	-0.04925179
7	0xbbbd9d7b	-0.0057865954
8	0x3ca8ea38	0.020619497
9	0xbc82814f	-0.0159308
10	0x3dd0b2d2	0.10190357
11	0x3cbe45d6	0.02322666
12	0xbd4b4979	-0.049630616
13	0x3da8c941	0.08241511
14	0xbcd3a5b4	-0.02583585
15	0xbc863d0b	-0.01638653
16	0xbd7272cf	-0.05919152
17	0x3cad97a6	0.021190476
18	0xb8aa8e35	-8.13272e-05
19	0xba437f00	-0.0007457584
20	0x3ae2b8c0	0.0017297491
21	0xbdb38087	-0.08764749
22	0x3d9a9826	0.07548551
23	0xbb9b811a	-0.0047456147
24	0x3d9d31c0	0.07675505
25	0x3d3e63be	0.04648184
26	0x3db6dea8	0.08929187
27	0x3d5c099b	0.053720098
28	0x3dd2ff01	0.103025444
29	0xbd9a8590	-0.07545006
30	0xbc412b26	-0.011790073
31	0x3d6bd6b3	0.0575778
32	0xbbdbad81	-0.006704033
33	0xbc6cc250	-0.014450625
34	0xbd9a4fbf	-0.075347416
35	0x3d7f3fc9	0.06231669
36	0x3c646d4c	0.013942074
37	0x3d45ceca	0.048292913
38	0x3dbaf4cb	0.09128722
39	0xbd82000f	-0.063476674
40	0x3d5edc67	0.05440941
41	0xbd5de00d	-0.05416875
42	0x3d83e200	0.064395905
43	0xbcdb86e6	-0.026797723
44	0xbd0542f1	-0.032534543
45	0x3dc8907c	0.09793183
46	0x3deef330	0.11667478
47	0x3d2beb6e	0.04197257
48	0xbd712f1f	-0.05888283
49	0x3c9010ac	0.017586075
50	0x3d63b702	0.05559445
51	0x3bb08350	0.0053867474
52	0x3a6849bd	0.00088610855
53	0xbd9a4b7b	-0.07533928
54	0x3dcbe434	0.09955636
55	0x3d9f0d60	0.07766223
56	0xbd81ea63	-0.06343534
57	0x3d95fb2f	0.073233
58	0xba09ece3	-0.0005261434
59	0x3dac1129	0.084017105
60	0xbd050ec6	-0.032484792
61	0x3b2a9c0a	0.0026032948
62	0xbd3ea1fb	-0.046541195
63	0x3dce4d7a	0.10073371
64	0xbd855d12	-0.065118924
65	0x3ccf2511	0.02528623
66	0x3d95d5db	0.0731618
67	0xba4ef200	-0.0007894337
68	0x3da751b7	0.08169883
69	0x3c6a4e38	0.014300875
70	0xbd4c9a58	-0.04995188
71	0xbc98c5dc	-0.018649034
72	0x3c286c73	0.010279763
73	0xbd66d5da	-0.05635629
74	0x3d745e7d	0.059660424
75	0x3d469bb6	0.04848834
76	0xbc8dbef4	-0.017302968
77	0x3d5af4ee	0.05345624
78	0x3d1edcb5	0.0387847
79	0x3d5d7186	0.054063343
80	0xbc5cf25f	-0.01348552
81	0xbd089b1c	-0.03335105
82	0x3d8a5d9e	0.06756137
83	0x3ddc460f	0.1075555
84	0x3db1a099	0.0867321
85	0xbd3aaf80	-0.045577526
86	0xbb7d5ebf	-0.003866121
87	0x3d12052b	0.03564946
88	0xbd1303af	-0.035892185
89	0xbdaa167a	-0.08305068
90	0x3da68b37	0.08132022
91	0x3d417a34	0.047235683
92	0x3cc72e65	0.024314115
93	0x3dc0aa22	0.0940745
94	0x3dd92fff	0.10604858
95	0x3d33e87a	0.04392288
96	0xbcf48d88	-0.029852644
97	0x3d1e7f6e	0.038695745
98	0xbc285d4c	-0.01027615
99	0xbd400c8c	-0.046886966
100	0xbd9a3c20	-0.07530999
101	0x3b65bd2d	0.0035055385
102	0x3ceaf9ce	0.02868357
103	0xbd48c38d	-0.049014617
104	0x3d92f7f8	0.071762025
105	0x3d961209	0.07327659
106	0xbc81dd50	-0.0158526
107	0x3d9f6de5	0.077846326
108	0x3d0c3d96	0.03423842
109	0x3cc5baa8	0.024136856
110	0xbd34db9b	-0.044154745
111	0xbdc1d37e	-0.09464167
112	0x3d81bce8	0.06334859
113	0xbd880172	-0.06640901
114	0xbd5fff88	-0.054687053
115	0x3d0ff464	0.03514518
116	0xbb789dc0	-0.0037935823
117	0x39c12431	0.00036838793
118	0x3d335457	0.043781605
119	0xbd0d9393	-0.034564566
120	0x3ba62510	0.005070336
121	0x3b06d5a0	0.0020574108
122	0x3d1a6795	0.03769644
123	0x3d9fd395	0.07804028
124	0xbd8ea539	-0.069651075
125	0x3d74383a	0.059623934
126	0xbd248602	-0.040166862
127	0x3d01508d	0.03157096
128	0xb9967586	-0.0002869779
129	0x3a96fc17	0.001151922
130	0xbcc75a43	-0.024335032
131	0xbd6a315d	-0.057175983
132	0x3cdf82c4	0.027284034
133	0xbd831fbf	-0.064025395
134	0xbd5bfd31	-0.05370826
135	0xba9b11d2	-0.0011830872
136	0xbd6d4a2c	-0.057932064
137	0xbc882134	-0.016617395
138	0x3cf4252f	0.029802887
139	0x3d7c42ea	0.06158725
140	0xbc9473bf	-0.018121598
141	0xbdb454ff	-0.08805274
142	0x3cb58c34	0.02216158
143	0x3c9edf15	0.019393483
144	0x3d88e34f	0.06683981
145	0xbd727407	-0.059192684
146	0xbb362fce	-0.002779949
147	0xbc80713c	-0.015678994
148	0x3d658cae	0.056042366
149	0xbd8db91a	-0.06920071
150	0xbd81075a	-0.0630023
151	0x3d6f01b2	0.058351226
152	0xbcbedfc5	-0.023300061
153	0xbd260866	-0.040535353
154	0x3aa6916a	0.0012708132
155	0xbdb31a98	-0.08745307
156	0x3dbfdab2	0.09367885
157	0xbc6f9600	-0.014623165
158	0xbd1eaadf	-0.038737174
159	0xbd43edc1	-0.04783416
160	0x3de8c09d	0.11364863
161	0x3c4188b0	0.011812374
162	0xbb4af120	-0.0030966476
163	0x3ce341c2	0.027741317
164	0x3d891378	0.066931665
165	0xbd8dce98	-0.0692417
166	0xbd3a58a7	-0.0454947
167	0x3cd06e08	0.025443092
168	0xbc0d7ae3	-0.0086352555
169	0xbd126e70	-0.035749853
170	0x3d8f10ee	0.06985651
171	0xbd9a64a9	-0.07538731
172	0x3d504f9a	0.050857164
173	0xbd3259a8	-0.043542534
174	0x3d8180fa	0.063234285
175	0xbc5e936e	-0.013584955
176	0xbd58ea57	-0.05295786
177	0xbd61576b	-0.05501501
178	0x3d1288ca	0.035774983
179	0xbd39eb04	-0.045390144
180	0xbbd803f9	-0.0065922705
181	0xbd9d7b7d	-0.07689569
182	0x3d11aab7	0.035563197
183	0x3da12a02	0.078693405
184	0x3db41253	0.087925576
185	0xbd62f37e	-0.055407993
186	0xbc8e0b3d	-0.017339343
187	0x3cb1a364	0.021684356
188	0x3d020da6	0.031751297
189	0x3dd76891	0.10517991
190	0xbc34e3d9	-0.011040651
191	0x3ddb96e4	0.107221395
192	0x3d25b71a	0.040457822
193	0x3db8a86c	0.09016499
194	0x3bd9df10	0.0066489056
195	0x3c9c6c68	0.01909466
196	0x3a4cbe80	0.0007810369
197	0x3b152b40	0.0022761375
198	0x3d9e39e5	0.07725886
199	0xbd301e90	-0.042997897
200	0xbd20cb21	-0.03925622
201	0xbcbf149b	-0.023325255
202	0x3d31f7d5	0.04344924
203	0x3daad695	0.083417095
204	0xbd52e731	-0.051490013
205	0xbd73d16c	-0.059525892
206	0xbd5944bf	-0.053044077
207	0xbd49be32	-0.04925365
208	0x3d6aff3a	0.05737231
209	0xbbe56111	-0.0070000966
210	0xbd355da6	-0.044278763
211	0x3d10dd9f	0.035367604
212	0x3d452026	0.048126362
213	0xbd8a54be	-0.067544445
214	0x3db7633c	0.08954474
215	0xbc203f29	-0.009780684
216	0xbd18b5b9	-0.03728268
217	0xbdb24e17	-0.08706301
218	0xbd8547d8	-0.06507844
219	0xbc8ce8c7	-0.01720084
220	0x3d573b08	0.05254653
221	0x3a1f2f77	0.00060724415
222	0x3d248f14	0.040175512
223	0xbcc70ef4	-0.024299122
224	0x3cee6574	0.029101111
225	0x3b5bb260	0.0033523068
226	0x3d4dcd8d	0.050244857
227	0x3dd2b582	0.10288526
228	0x3d2a57e2	0.041587718
229	0xbcab7ff9	-0.020935046
230	0x3d229ff9	0.039703343
231	0xbd2c7219	-0.042101
232	0x3d6820c2	0.056671865
233	0xbc7beb50	-0.015375927
234	0xbd4d885e	-0.050178878
235	0x3d34d3bf	0.04414725
236	0xba979da2	-0.0011567364
237	0xbb8beec0	-0.0042704046
238	0xbd95085f	-0.07276987
239	0xbd4559fc	-0.04818152
240	0x3d5a9db7	0.053373065
241	0xbd6ea66a	-0.058264174
242	0xbdab7f4e	-0.08373891
243	0x3d76357a	0.060109593
244	0x3cf083a8	0.029359654
245	0x3c99633f	0.018724082
246	0xbda04780	-0.078261375
247	0xbd2b9310	-0.041888297
248	0x3d8d7315	0.06906716
249	0xbca146d0	-0.019687086
250	0x3d6e3679	0.058157418
251	0x3c1b9342	0.009495558
252	0x3da5deef	0.08099162
253	0x3dac4a43	0.08412602
254	0xbd45317d	-0.0481429
255	0x3d950de8	0.07278043

fc3.bias f4 [102]
0	0xbc8a0790	-0.01684931
1	0x3d0c6d25	0.034283776
2	0x3da5b441	0.08091021
3	0x3dc69470	0.09696281
4	0x3da560fc	0.08075139
5	0xbbb711f7	-0.0055868584
6	0xbd01cbf4	-0.031688645
7	0xbc01e50b	-0.007928143
8	0x3de3726c	0.111058086
9	0x3dbceed5	0.09225241
10	0xbd69fe27	-0.057127144
11	0x3b2344a1	0.0024912732
12	0x3da777c5	0.08177141
13	0xbcd05b72	-0.02543423
14	0x3dd2b02d	0.10287509
15	0x3d6fa535	0.058507163
16	0xbb4903d2	-0.0030672443
17	0x3dac6c0f	0.08419048
18	0x3d1f97b2	0.038963027
19	0x3da4f31a	0.080541804
20	0xbd76df85	-0.06027176
21	0x3dba9d90	0.09112084
22	0x3db6ef0e	0.08932315
23	0x3b72962b	0.0037015777
24	0xbc879fcf	-0.016555695
25	0x3d804a13	0.062641285
26	0xbd120526	-0.03564944
27	0xbc8675b7	-0.016413553
28	0x3d86c4d8	0.06580514
29	0xbc0abfd8	-0.008468591
30	0xbc5e355b	-0.013562526
31	0x3d777164	0.060410872
32	0xbd13f7fb	-0.036125164
33	0xbd391566	-0.045186423
34	0x3d5a529a	0.05330143
35	0x3dc50bba	0.09621377
36	0x3d4d280d	0.050087024
37	0xbd8b50a9	-0.06802494
38	0xbd4dd184	-0.050248638
39	0xbd4be822	-0.049781926
40	0x3d0eeebe	0.03489565
41	0x3d3c721e	0.046007268
42	0x3d8ecf71	0.0697316
43	0xbc397679	-0.01131975
44	0x3d2efbe4	0.04272069
45	0xbc872bb9	-0.01650034
46	0xbc6b8177	-0.014374129
47	0x3bb4d797	0.0055188644
48	0x3de569b1	0.112018
49	0xbd5dd41b	-0.054157358
50	0x37909128	1.7233731e-05
51	0x3c8b8e90	0.017035753
52	0xbcdb1bca	-0.02674665
53	0x3d763363	0.0601076
54	0xbc467049	-0.012111732
55	0xbd214956	-0.03937658
56	0xbc9cefb3	-0.019157266
57	0x3bc3223a	0.005955008
58	0xbd1eb55e	-0.038747184
59	0x3dc1de4c	0.09466228
60	0x3c800ccb	0.0156311
61	0x3d8a629b	0.06757089
62	0x3d74dcef	0.05978101
63	0xbd59da0c	-0.05318646
64	0x3d3125f2	0.043249078
65	0x3dfba0c3	0.12286522
66	0xbcf61cec	-0.030043088
67	0x3b03c02c	0.0020103557
68	0xbc15cc05	-0.00914288
69	0x3c38ba9b	0.011274959
70	0x3c4128f0	0.011789545
71	0x3d82eda0	0.063929796
72	0x3c87716b	0.016533574
73	0x3c9129c1	0.017720105
74	0x3d3ac3d4	0.045596913
75	0x3cb480e7	0.022034122
76	0xbc6b814e	-0.01437409
77	0x3dc510a8	0.096223176
78	0x3ddcd9e0	0.10783744
79	0x3d5b7c80	0.05358553
80	0x3d448e0f	0.04798704
81	0xbd8104b0	-0.06299722
82	0xbd1de78d	-0.038550902
83	0x3df98a3c	0.12184569
84	0x3d5d61d2	0.054048367
85	0xbb0fefe6	-0.002196306
86	0x3bc2b27f	0.0059416885
87	0x3c28574d	0.01027472
88	0x3dc3d2f9	0.09561724
89	0x3d82a31f	0.06378769
90	0x3c53f892	0.012937682
91	0x3db3c521	0.08777834
92	0xbcd08a98	-0.025456712
93	0x3d361a85	0.044458885
94	0x3deaaccc	0.1145874
95	0x3da727d3	0.08161893
96	0x3c570d6b	0.013125758
97	0x3db25b08	0.08708769
98	0x3cac3b49	0.021024363
99	0xbd228bf4	-0.03968425
100	0xbd5da9e3	-0.054117095
101	0x3ddab783	0.10679533
