Assets/TestVRMovement/bone_model_with_local.onnx (onnx, 91448 bytes, 6 tensors)

fc1.weight f4 [64, 18]
-0.053857774 -0.042017516 -0.11225907 0.15650764 -0.035444845 0.079700984 -0.062258586 -0.044321757
0.2187738 0.1696902 0.059152987 0.12729877 -0.12007559 0.22014062 0.04855113 -0.12943506
0.19446133 0.1614166 -0.04190096 -0.12444456 -0.08002799 0.15047328 -0.2060776 -0.121642314
-0.040940624 0.30673757 0.1425425 -0.0400964 0.007200297 0.02345123 0.08484767 -0.088013634
-0.14073238 0.09341373 -0.29326057 0.09326891 -0.0034186016 0.34526408 -0.25190702 0.07262019
0.038669173 0.0067889043 -0.11790294 0.38433388 -0.066936396 -0.07908076 0.23718768 0.25469548
-0.14619249 0.21176195 -0.18670683 0.10920735 0.27553618 0.050781425 -0.21018966 0.21754901
-0.17946783 0.1897783 -0.04719421 -0.00784424 -0.16130659 0.13963763 0.09131124 0.038340922
-0.21230496 0.13407546 -0.0345467 -0.098942585 -0.045032587 0.189613 -0.20507671 0.25787538
-0.03159036 0.15899342 0.1863067 0.15689313 0.05917524 0.11342932 0.021412525 -0.1843375
-0.015811434 0.15636031 -0.173707 -0.25429174 -0.11902851 -0.19137985 -0.10375977 0.17522739
-0.062280957 0.06434628 -0.089961015 -0.032914072 0.12858418 0.16751648 0.19375019 -0.08202593
0.10207155 0.013990443 -0.0600192 -0.09597386 0.31689677 -0.23449627 0.20054011 0.07754763
-0.16028532 -0.0022704364 -0.19328018 0.19071968 0.07903269 0.1955797 0.27087647 -0.05258698
-0.018725993 -0.15328181 0.28943622 0.1956692 -0.1663211 -0.11411976 -0.13660215 0.02721065
0.10408734 0.17511152 0.059625093 0.15612823 0.11656118 -0.08731108 -0.027611615 -0.023969432
-0.042834055 -0.06150279 0.22937196 0.08981996 0.29218394 -0.0016926149 -0.14030594 0.2335289
0.2625839 -0.021027988 0.06742559 0.25485146 0.22802004 -0.053236436 -0.17858179 -0.11442733
0.13794722 0.030846322 0.23412421 0.1193876 0.10448126 0.11421627 0.24450202 -0.11522953
0.10902817 0.11163513 -0.18752438 -0.10514451 -0.011233573 -0.10774528 -0.11184124 0.14475009
0.16921404 0.15781763 0.100364394 0.1873208 -0.16012104 0.18027164 -0.16840796 0.003182935
0.1113926 0.048726186 -0.1397802 0.16094238 0.1655517 0.0282297 0.06186655 -0.017299773
-0.02683098 0.22415535 -0.009059764 0.18647666 0.08257009 -0.024679203 -0.13521287 -0.058444466
0.22984758 -0.22705306 0.21120861 0.09784693 -0.18761429 -0.030672144 0.038559694 0.19235225
-0.22524725 0.044067103 0.1361718 0.016122688 0.21670757 -0.09069647 0.03067407 -0.15204117
0.22279471 -0.21697219 -0.060102362 0.05883344 0.23228374 0.10247344 0.10281339 0.14468405
0.21554404 -0.30617368 0.08073339 -0.07823946 -0.22461747 -0.10396336 0.15140218 -0.06689376
0.25605816 0.066317245 0.21052985 -0.11443949 0.23440044 0.18522541 -0.032265827 -0.17871457
0.058967084 0.051393736 -0.039338864 -0.17987679 0.19376265 0.013822457 0.19482581 -0.0073333126
0.20042653 -0.17536393 0.27826294 0.13378377 -0.008267618 -0.0045495476 -0.3126556 0.17714155
0.1851686 0.056850113 0.25126162 0.18204665 -0.30440512 -0.006516161 0.14012194 -0.02239039
0.16110922 -0.034200143 0.006297176 -0.12037687 -0.2048519 -0.09799759 -0.08915923 0.25590426
00000000: f899 5cbd 8f1a 2cbd 15e8 e5bd 8a43 203e
00000010: 9d2e 11bd 453a a33d dc02 7fbd bb8a 35bd
00000020: 3d06 603e 45c3 2d3e 674a 723d 9c5a 023e
00000030: 31ea f5bd 8b6c 613e 8ddd 463d a08a 04be
00000040: df20 473e 654a 253e 57a0 2bbd cadc febd
00000050: b7e5 a3bd ab15 1a3e 0206 53be 9b1f f9bd
00000060: 5bb1 27bd b50c 9d3e a9f6 113e 1f3c 24bd
00000070: 78f0 eb3b cb1c c03c 9dc4 ad3d 7e40 b4bd
00000080: 261c 10be b34f bf3d 4026 96be c503 bf3d
00000090: 9e0a 60bb 74c6 b03e f5f9 80be e5b9 943d
000000a0: 9163 1e3d 7575 de3b 1977 f1bd 69c7 c43e
000000b0: f315 89bd 18f5 a1bd 54e1 723e 7267 823e
000000c0: 7cb3 15be 20d8 583e 1330 3fbe 1aa8 df3d
000000d0: 1413 8d3e 2f00 503d f53b 57be 2bc5 5e3e
000000e0: 6ac6 37be 3e55 423e b74e 41bd 2185 00bc
000000f0: 8e2d 25be 2bfd 0e3e 6301 bb3d 5f0b 1d3d
00000100: 7966 59be 144b 093e d780 0dbd 69a2 cabd
00000110: 1774 38bd e929 423e a1ff 51be 3e08 843e
00000120: e564 01bd 2ccf 223e 2fc7 3e3e 98a8 203e
00000130: bd61 723d a24d e83d 5269 af3c f8c2 3cbe
00000140: fb86 81bc eb1c 203e 3fe0 31be 8732 82be
00000150: 38c5 f3bd 14f9 43be 0180 d4bd cf6e 333e
00000160: 511a 7fbd fcc7 833d 7b3d b8bd e8d0 06bd
00000170: 92ab 033e 7189 2b3e 7366 463e 36fd a7bd
00000180: e40a d13d 2c38 653c b1d6 75bd f18d c4bd
00000190: 4b40 a23e ca1f 70be 635a 4d3e 4bd1 9e3d
000001a0: d621 24be 9acb 14bb 3deb 45be 054c 433e
000001b0: e4db a13d 0b46 483e 52b0 8a3e 7265 57bd
000001c0: 4167 99bc e8f5 1cbe fc30 943e 825d 483e
000001d0: 1450 2abe 9fb7 e9bd 6fe1 0bbe dee8 de3c
000001e0: be2b d53d 6f50 333e 7139 743d 14e0 1f3e
000001f0: a1b7 ee3d 27d0 b2bd c131 e2bc 8b5b c4bc
00000200: c372 2fbd 59ea 7bbd 7ce0 6a3e 87f3 b73d
00000210: 2299 953e bbda ddba 5cac 0fbe 3322 6f3e
00000220: 6671 863e e342 acbc 6d16 8a3d e47b 823e
00000230: 167e 693e 730e 5abd 25de 36be e058 eabd
00000240: 0942 0d3e 6db1 fc3c 42be 6f3e 7c81 f43d
00000250: 45fa d53d 38ea e93d bd5e 7a3e 76fd ebbd
00000260: 294a df3d f6a0 e43d 6406 40be 0156 d7bd
00000270: 050d 38bc 8fa9 dcbd 050d e5bd 5e39 143e
00000280: 7246 2d3e f29a 213e d98b cd3d 06d1 3f3e
00000290: c5f6 23be 2199 383e 2373 2cbe ca98 503b
000002a0: ce21 e43d 1c95 473d 8a22 0fbe 14ce 243e
000002b0: 6386 293e f941 e73c c867 7d3d 41b8 8dbc
000002c0: a5cc dbbc fb88 653e 686f 14bc bdf3 3e3e
000002d0: 821a a93d 0a2c cabc 3e75 0abe 7763 6fbd
000002e0: 2a5d 6b3e 9980 68be 1247 583e f963 c83d
000002f0: f61d 40be 2644 fbbc c5f0 1d3d fdf7 443e
00000300: 37a7 66be b57f 343d 9f70 0b3e ba13 843c
00000310: 97e8 5d3e 12bf b9bd 3048 fb3c aeb0 1bbe
00000320: 4c24 643e f52d 5ebe e52d 76bd 55fb 703d
00000330: cadb 6d3e 98dd d13d d48f d23d 0e28 143e
00000340: 94b7 5c3e ccc2 9cbe 8c57 a53d 033c a0bd
00000350: 1f02 66be beea d4bd 2c09 1b3e 98ff 88bd
00000360: 0e1a 833e 56d1 873d 2395 573e 405f eabd
00000370: ab06 703e bbab 3d3e 2c29 04bd f400 37be
00000380: 7887 713d 3d82 523d ca21 21bd 9f31 38be
00000390: b769 463e 9677 623c 6b80 473e 494c f0bb
000003a0: 9d3c 4d3e 9a92 33be 7b78 8e3e 9dfe 083e
000003b0: e774 07bc 5f14 95bb 6514 a0be 9864 353e
000003c0: d69c 3d3e aadb 683d 5da5 803e 706a 3a3e
000003d0: fdda 9bbe 8585 d5bb 207c 0f3e 0d6c b7bc
000003e0: d1f9 243e 7315 0cbd 8a58 ce3b 2688 f6bd
000003f0: b2c4 51be f6b2 c8bd 1d99 b6bd e205 833e

fc1.bias f4 [64]
0.17573394 0.23717013 0.03447598 -0.08462319 0.21878454 -0.1365497 0.109798014 -0.16631119
-0.17772076 -0.037066422 0.099811174 0.16598985 0.0009114171 -0.11543853 -0.1713686 0.092250876
-0.16017641 0.24209239 0.0731559 0.01294494 -0.08693441 0.21963792 -0.1262517 0.09963459
0.049695127 0.20486133 0.11196179 0.10198616 0.20142284 -0.13378385 0.11111802 0.09309735
-0.14285004 0.23474455 0.14354989 -0.48532462 0.13645072 -0.13901928 0.07381415 0.19609913
0.22551158 0.08514318 0.012406358 0.43511266 0.10371477 -0.037401434 0.17622234 -0.24325381
0.28430927 0.26617882 0.064535566 0.063042626 -0.051673852 0.083229445 0.16777319 0.005384774
-0.04114352 0.21273746 0.1903703 0.24554789 0.18076149 0.21948473 -0.21689202 -0.106062986
00000000: 99f3 333e badc 723e af36 0d3d ec4e adbd
00000010: 0e09 603e afd3 0bbe c8dd e03d 7b4d 2abe
00000020: 6efc 35be f6d2 17bd cd69 cc3d 3ef9 293e
00000030: 2bec 6e3a 096b ecbd 407b 2fbe 07ee bc3d
00000040: 4905 24be 11e7 773e c3d2 953d 0317 543c
00000050: ab0a b2bd c3e8 603e 2048 01be 380d cc3d
00000060: 1e8d 4b3d 2bc7 513e 394c e53d 1fde d03d
00000070: ca41 4e3e a2fe 08be d891 e33d d3a9 be3d
00000080: 4847 12be e060 703e befe 123e 787c f8be
00000090: bdb9 0b3e 125b 0ebe e02b 973d 36ce 483e
000000a0: 82ec 663e 8c5f ae3d 0944 4b3c 16c7 de3e
000000b0: 6968 d43d 3f32 19bd a173 343e 8717 79be
000000c0: fc90 913e 9748 883e 392b 843d 7e1c 813d
000000d0: f6a7 53bd 3374 aa3d bccc 2b3e c272 b03b
000000e0: 1c86 28bd d9d7 593e 6ff0 423e e870 7b3e
000000f0: 8a19 393e 9bc0 603e f118 5ebe 8d37 d9bd

fc2.weight f4 [128, 64]
-0.088041656 0.11119987 -0.002633721 0.09025259 0.18587372 -0.090754755 0.019137999 -0.100109115
0.006123897 -0.043228023 0.0787034 0.12527388 0.027999794 0.008244923 -0.09750779 0.03583675
0.047061723 0.17776312 -0.028017625 0.0045809248 0.090911075 -0.068391785 -0.39241895 -0.0028855037
0.12396481 -0.086230546 -0.07414226 -0.07327938 0.06909536 -0.09164268 0.019865993 -0.08293436
-0.32204634 0.11702915 0.028341744 -1.3542598 0.018888647 0.21403924 0.45397815 -0.027478883
-0.02103262 -0.22639628 -0.12479038 0.6072723 -0.11069375 -0.04788612 0.15306547 -0.1083171
0.17949139 0.11253043 0.13438389 -0.09420059 0.07847999 -0.099405766 0.18300404 0.045405418
0.11470419 -0.074298985 -0.0062833857 -0.010490495 -0.018132677 0.30205366 0.03634418 -0.022732114
0.07508961 0.04251757 0.102238595 0.08815954 -0.13018972 -0.07737335 0.053567056 0.05465626
0.012801207 0.08527105 -0.095538326 0.0064645293 0.097606614 0.105555445 0.08682935 -0.11312366
-0.08479 -0.063707545 0.025027432 -0.030691132 -0.06861859 -0.00073904084 -0.019503793 -0.12028764
-0.07611458 -0.08136478 -0.021617308 -0.080210306 -0.07125991 -0.020170826 0.0662933 -0.10539331
0.053622946 0.10220799 -0.046824966 0.09603919 -0.035280533 -0.00640919 -0.08772523 -0.12458888
-0.10307699 -0.0061880243 0.041372765 0.032183018 -0.060505815 -0.08426902 0.05137851 0.012618038
0.010980639 -0.00048512733 -0.075652145 0.11417571 -0.07581557 -0.061095618 -0.09499979 0.0034807173
-0.09995198 -0.04179504 -0.05524182 0.017871996 0.05439935 -0.10331195 0.027323019 0.051415376
0.11420002 0.10698889 0.051859125 0.0527215 -0.037927583 -0.10330794 -0.025850773 -0.007887181
-0.076667145 -0.13741134 0.05171651 -0.06298011 -0.060392596 -0.04903103 -0.077142715 0.06532039
0.116876766 -0.016630545 -0.058674295 0.13501455 -0.019328874 0.08442486 -0.4499125 -0.0011041281
0.05594786 -0.1017602 -0.18810143 0.1262056 0.027100312 -0.065321796 -0.077330105 0.059526946
0.049920164 0.03718839 -0.04218609 -0.79722553 0.08761225 0.12810975 0.039647207 0.12360882
0.046468504 0.03405477 -0.03853089 0.23338254 0.08870827 -0.043099076 0.102860875 0.04250471
-0.11867237 0.11835055 -0.05303258 0.013410348 -0.062250577 0.07198042 -0.05720317 -0.07562601
0.10322646 -0.097657286 -0.026075354 0.07691222 -0.023512153 0.018937975 -0.04171776 0.121470764
0.007825635 0.101965725 -0.07719392 -0.057003234 0.017943783 -0.008477931 0.0363224 0.06328167
0.10708463 0.002082658 -0.09366899 -0.10034773 -0.082761355 -0.057807073 0.02327929 0.031720065
-0.04473088 0.01268928 0.123059675 -0.026553994 0.08428827 -0.09558736 -0.1846701 0.062076207
0.06156346 -0.08686665 0.15069313 -0.0013757824 -0.011201666 0.011167434 -0.10294863 0.041905567
-0.102257684 -0.030720461 0.046506498 -0.32427695 -0.09957162 -0.0990124 -7.526966e-05 -0.002599286
-0.0136111 -0.06396522 -0.0015233807 -0.057568237 0.10859216 0.057466544 -0.00042240068 0.09168389
-0.0971145 -0.044088613 0.09039197 0.13476908 0.08438986 0.108004004 0.06602022 -0.09121053
-0.10301464 -0.055295184 -0.030160299 0.024213098 0.11878274 0.108271234 0.4330396 -0.011266707
00000000: 2f4f b4bd c2bc e33d 829a 2cbb 5ad6 b83d
00000010: ae55 3e3e a1dd b9bd 4bc7 9c3c 0206 cdbd
00000020: f9aa c83b de0f 31bd 402f a13d cc47 003e
00000030: d35f e53c b715 073c 2ab2 c7bd 8ec9 123d
00000040: cbc3 403d 8907 363e 3885 e5bc 951b 963b
00000050: 962f ba3d fe10 8cbd 23eb c8be b81a 3dbb
00000060: 43e1 fd3d a499 b0bd e6d7 97bd 8013 96bd
00000070: de81 8d3d 28af bbbd 02be a23c 7dd9 a9bd
00000080: 42e3 a4be fbac ef3d f22c e83c 6358 adbf
00000090: 5dbc 9a3c 1a2d 5b3e d36f e83e 651b e1bc
000000a0: 9a4c acbc 6dd4 67be 1992 ffbd 3376 1b3f
000000b0: 68b3 e2bd 3c24 44bd 32bd 1c3e 5bd5 ddbd
000000c0: 97cc 373e 5b76 e63d ee9b 093e 3dec c0bd
000000d0: 1eba a03d 4095 cbbd 6965 3b3e 08fb 393d
000000e0: 08ea ea3d 112a 98bd dce4 cdbb 53e0 2bbc
000000f0: fb8a 94bc c7a6 9a3e a3dd 143d b338 babc
00000100: 95c8 993d e726 2e3d 7862 d13d fd8c b43d
00000110: 7450 05be eb75 9ebd 2169 5b3d 3edf 5f3d
00000120: 27bc 513c 97a2 ae3d 99a9 c3bd 67d4 d33b
00000130: fae5 c73d 742d d83d 96d3 b13d 61ad e7bd
00000140: 61a6 adbd 1a79 82bd 5406 cd3c f86b fbbc
00000150: e787 8cbd 31bc 41ba 6bc6 9fbc 5e59 f6bd
00000160: f6e1 9bbd 94a2 a6bd c816 b1bc 4d45 a4bd
00000170: b7f0 91bd 4a3d a5bc c8c4 873d 73d8 d7bd
00000180: bca3 5b3d 6c52 d13d 89cb 3fbd 32b0 c43d
00000190: 5282 10bd 2f04 d2bb 49a9 b3bd 7428 ffbd
000001a0: 071a d3bd e9c4 cabb 7d76 293d 57d2 033d
000001b0: f2d4 77bd 3c95 acbd 4672 523d e3bb 4e3c
000001c0: 23e8 333c b058 feb9 83ef 9abd f4d4 e93d
000001d0: 3245 9bbd 663f 7abd 408f c2bd bf1c 643b
000001e0: a0b3 ccbd 4731 2bbd 3f45 62bd 4b68 923c
000001f0: dad1 5e3d 3795 d3bd 86d4 df3c ee98 523d
00000200: b3e1 e93d fe1c db3d 3c6a 543d 80f2 573d
00000210: f459 1bbd 1d93 d3bd 00c5 d3bc 3c39 01bc
00000220: aa03 9dbd 8fb5 0cbe b1d4 533d b7fb 80bd
00000230: 3a5e 77bd c3d4 48bd 00fd 9dbd b2c6 853d
00000240: 165d ef3d c83c 88bc 7554 70bd 4141 0a3e
00000250: 9657 9ebc f1e6 ac3d ee5a e6be 64b8 90ba
00000260: 9529 653d a767 d0bd a99d 40be 0a3c 013e
00000270: 7901 de3c 6fc7 85bd 3f5f 9ebd 87d2 733d
00000280: 1679 4c3d da52 183d 52cb 2cbd f916 4cbf
00000290: 0d6e b33d 342f 033e 1c65 223d 9f26 fd3d
000002a0: c255 3e3d 047d 0b3d 91d2 1dbd d5fb 6e3e
000002b0: aeac b53d a888 30bd b9a8 d23d 6b19 2e3d
000002c0: 800a f3bd c661 f23d b138 59bd 14b7 5b3c
000002d0: 76fa 7ebd 786a 933d df4d 6abd cfe1 9abd
000002e0: 6568 d33d 8b00 c8bd fb9b d5bc 2784 9d3d
000002f0: 8f9c c0bc d023 9b3c 3ee0 2abd aac5 f83d
00000300: 1837 003c 68d3 d03d d917 9ebd 397c 69bd
00000310: d7fe 923c 05e7 0abc ccc6 143d d299 813d
00000320: 304f db3d 347d 083b 87d5 bfbd 1c83 cdbd
00000330: c97e a9bd 1cc7 6cbd 36b4 be3c e6ec 013d
00000340: ba37 37bd b3e6 4f3c b606 fc3d c387 d9bc
00000350: 549f ac3d 4ec3 c3bd 291a 3dbe 9f43 7e3d
00000360: f729 7c3d 24e7 b1bd 4d4f 1a3e 9953 b4ba
00000370: 3187 37bc 9df7 363c bbd6 d2bd 2ca5 2b3d
00000380: 7a6c d1bd 7aa9 fbbc 997d 3e3d a107 a6be
00000390: 35ec cbbd 03c7 cabd 17da 9db8 c858 2abb
000003a0: 1701 5fbc 3200 83bd 2dac c7ba accc 6bbd
000003b0: 9165 de3d 0a62 6b3d a975 ddb9 c3c4 bb3d
000003c0: f8e3 c6bd 4396 34bd 6d1f b93d e800 0a3e
000003d0: 97d4 ac3d 3431 dd3d 9c35 873d 96cc babd
000003e0: 57f9 d2bd 347d 62bd bb12 f7bc 8c5a c63c
000003f0: 5d44 f33d 4fbd dd3d 5eb7 dd3e ff97 38bc

fc2.bias f4 [128]
0.13430549 -0.032352775 0.08587758 0.042479962 -0.02226869 0.0009404298 0.13361187 -0.031062853
-0.031238332 0.01639711 -0.07872063 0.03695627 -0.012934549 -0.027925927 0.07878672 -0.006991328
0.13716857 0.10789817 -0.038903665 -0.039895225 -0.011540209 0.07361109 0.022430522 0.096288025
-0.029557185 0.04242395 0.03773251 0.0027187318 0.11990836 0.3255356 -0.037338037 0.037716985
0.025356196 -0.007155763 0.1099808 0.011563414 -0.01882359 -0.039525535 0.07930304 0.07811472
0.032717694 0.14127715 0.12538892 0.08358285 0.08988732 0.086270906 0.058426354 0.09580637
0.100254595 0.055019457 0.08502646 -0.032067288 0.07530013 0.15037648 0.030027581 0.0751105
-0.012448141 0.011827486 0.14682437 0.093131445 -0.25888965 0.07023053 0.018067554 -0.15294653
0.0712996 0.14290331 0.050318208 0.047488317 0.0017777397 -0.10302125 0.11995464 -0.10469824
0.13044852 -0.024810852 0.1301303 -0.07587574 0.13185334 -0.27034706 -0.081760675 -0.01995801
0.004233371 0.05064938 0.008094679 -0.067941956 0.002587097 -0.009948954 -0.00912376 -0.09802722
0.005620881 -0.115468234 0.026095502 0.032263376 0.030589202 0.053189535 0.015452045 -0.09103049
-0.021468263 0.08799394 0.078365736 0.032326978 0.09735968 -0.07345755 0.03616999 0.084753975
0.20081308 0.117287785 0.1493273 0.032541867 0.052410107 -0.3538163 0.019843712 0.04943093
-0.09771838 -0.08085898 0.097802915 0.11615575 0.012377804 0.07547193 -0.038349673 -0.030311044
0.11546268 0.090464294 0.0008044774 0.0077322717 0.11905082 0.1408665 0.12068058 0.057689913
00000000: 6187 093e 5884 04bd 96e0 af3d 78ff 2d3d
00000010: d46c b6bc 2d87 763a 8dd1 083e 8677 febc
00000020: 88e7 ffbc 3b53 863c 4838 a1bd 755f 173d
00000030: 6eeb 53bc eac4 e4bc ef5a a13d 8317 e5bb
00000040: eb75 0c3e b7f9 dc3d 7359 1fbd 2d69 23bd
00000050: 2513 3dbc 69c1 963d 37c0 b73c a832 c53d
00000060: e921 f2bc bcc4 2d3d 688d 1a3d c02c 323b
00000070: 8492 f53d 9aac a63e c5ef 18bd 207d 1a3d
00000080: ccb7 cf3c e47a eabb 9d3d e13d 7974 3d3c
00000090: ee33 9abc 87e5 21bd a269 a23d 9cfa 9f3d
000000a0: fd02 063d f5aa 103e f465 003e 7c2d ab3d
000000b0: d816 b83d cdae b03d 7950 6f3d 2136 c43d
000000c0: 4852 cd3d 155c 613d 5a22 ae3d fd58 03bd
000000d0: f436 9a3d 4bfc 193e 67fc f53c 89d3 993d
000000e0: 4af3 4bbc 12c8 413c 2159 163e b3bb be3d
000000f0: 2f8d 84be 06d5 8f3d 6802 943c 049e 1cbe
00000100: 8605 923d 3f55 123e 771a 4e3d 1c83 423d
00000110: 0c03 e93a cefc d2bd c7aa f53d 086c d6bd
00000120: 4c94 053e 2140 cbbc e140 053e bd64 9bbd
00000130: 9004 073e ee6a 8abe 2472 a7bd fb7e a3bc
00000140: 17b8 8a3b b975 4f3d 8b9f 043c 2725 8bbd
00000150: 498c 293b f000 23bc d37b 15bc 7fc2 c8bd
00000160: 5e2f b83b 9c7a ecbd 3cc6 d53c 9a26 043d
00000170: 3596 fa3c 45dd 593d 932a 7d3c 326e babd
00000180: 36de afbc 2b36 b43d 377e a03d 4b69 043d
00000190: 8364 c73d e970 96bd fc26 143d 7e93 ad3d
000001a0: f2a1 4d3e 9434 f03d 41e9 183e 9f4a 053d
000001b0: fbab 563d 6927 b5be 488f a23c 1678 4a3d
000001c0: 9320 c8bd 6599 a5bd e54c c83d 11e3 ed3d
000001d0: 46cc 4a3c 0791 9a3d 8c14 1dbd de4e f8bc
000001e0: b377 ec3d 5845 b93d 90e3 523a ff5e fd3b
000001f0: ebd0 f33d 4f3f 103e 6127 f73d 424c 6c3d

fc3.weight f4 [102, 128]
0.0074178213 0.08982235 0.07273051 -0.019394187 0.108709365 0.01251537 0.033070292 0.081069455
0.09725388 0.027868548 0.047549024 -0.02630445 0.0151362475 0.036376286 0.061653808 -0.0204359
-0.05011488 -0.06544582 -0.018958222 -0.032360457 -0.015497208 0.017445937 0.063220635 0.051432393
0.0018010214 -0.023595719 -0.058098946 -0.07596879 -0.016536543 -0.17029896 0.058888182 -0.016651513
-0.04291264 -0.025365273 -0.010771167 -0.03255121 -0.00019715476 -0.019444792 -0.018349243 -0.014747902
0.05897748 -0.013438012 -0.06726026 -0.0076304143 0.06405941 -0.0325185 -0.015210353 0.007489781
0.072796345 0.0022357136 0.035463337 -0.025974276 0.066905186 -0.019717555 0.08859965 -0.056266382
0.09421706 -0.025853863 -0.017069219 0.024010357 -0.015108242 0.025256602 0.09110813 0.12573224
-0.00928528 0.07786564 0.028221283 0.07699868 -0.021528581 0.009488287 -0.039100617 0.023786828
0.10609269 -0.011969658 -0.046675585 0.011282194 0.051301207 -0.06422307 0.049202308 0.021918919
-0.050845906 0.08733813 0.022070993 -0.05823427 0.08428228 -0.054958325 0.06035865 0.029309623
-0.027052445 0.041583616 0.057215374 0.05863862 0.017832728 0.042210322 -0.07651302 0.015315962
0.08420611 0.042551357 -0.05423261 0.028495615 -0.0041805464 0.036803134 0.034973323 -0.05235698
0.017782198 -0.05617802 0.03754837 -0.27208728 -0.033917457 0.1465015 -0.019380856 0.0312917
0.008623267 -0.0061797267 -0.054520443 0.01963062 0.08902269 0.075227335 0.066221595 0.0036996738
0.10758476 0.023442993 -0.02107751 0.010962821 -0.013747796 0.03819298 0.07831628 0.033898555
-0.0033339036 -0.004597159 -0.010593259 -0.0025877922 0.039241176 -0.015061356 0.005304657 0.011872483
-0.055361405 -0.042077027 -0.044891074 0.026206186 0.024783159 -0.06714053 -0.03297686 -0.016333617
0.010773319 0.07371866 -0.028795633 0.014477379 -0.031312026 0.061252378 0.0321126 0.058422968
-0.0042326143 -0.055463467 0.09657927 -0.048062157 0.01318901 -0.00466194 0.06719875 0.013245199
0.0033151477 -0.05203951 0.01545615 -0.006732373 0.0029444199 -0.027329156 0.09263643 -0.017419169
0.05060193 0.018538538 0.063128166 -0.008710798 0.023450162 -0.034872178 -0.0015097696 0.07118022
0.07538464 0.0056155645 -0.051961448 -0.008107419 0.026982632 0.0048764693 0.028928315 -0.009158883
-0.0057034874 0.05167169 0.08049231 -0.009262845 0.04391998 0.030997757 -0.04961465 0.022343324
0.00782782 0.031021906 -0.050361402 -0.0021637473 0.09168908 -0.005110459 -0.0646541 0.069685034
0.03193786 -0.068134956 -0.034465287 -0.082841896 0.08248651 -0.014061976 0.0033038394 -0.068614945
-0.05509559 -0.026582884 -0.06697233 0.008454032 0.07654235 -0.005572614 0.09522689 -0.037819944
-0.035929415 0.022072107 -0.032518614 -0.018434662 -0.057269115 -0.017104639 0.0015864378 0.034191094
-0.12235722 0.043783363 0.067874655 0.08215014 0.023415266 0.07173183 0.066756226 0.0037639863
-0.014597144 -0.051482193 -0.042218175 0.08137122 -0.046535295 -0.07895161 -0.014992486 -0.014620874
-0.054915767 0.00920766 0.083429076 0.011124831 0.066098616 -0.031630106 -0.020647611 -0.035074398
-0.02967407 0.14573002 0.058873434 0.056045834 -0.0075928196 0.10076263 0.023325117 -0.0027056735
00000000: 3211 f33b c8f4 b73d bcf3 943d 8fe0 9ebc
00000010: 04a3 de3d 440d 4d3c b774 073d be07 a63d
00000020: 0b2d c73d 954c e43c c4c2 423d 6e7c d7bc
00000030: 06fe 773c 4dff 143d b488 7c3d 3069 a7bc
00000040: 4345 4dbd 7508 86bd 464e 9bbc 668c 04bd
00000050: 00e8 7dbc c8ea 8e3c d279 813d c6aa 523d
00000060: 4010 ec3a cf4b c1bc 29f9 6dbd 8695 9bbd
00000070: a577 87bc da62 2ebe bc34 713d c168 88bc
00000080: 2ac5 2fbd d5ca cfbc 8d79 30bc 6b54 05bd
00000090: 54bb 4eb9 af4a 9fbc 2751 96bc 2fa1 71bc
000000a0: 5f92 713d 1c2b 5cbc bfbf 89bd 8e08 fabb
000000b0: 9431 833d 1e32 05bd d834 79bc d66c f53b
000000c0: 4016 953d 0d85 123b 0142 113d 01c8 d4bc
000000d0: 9605 893d b686 a1bc bc73 b53d 9477 66bd
000000e0: e0f4 c03d 7bcb d3bc bfd4 8bbc 5eb1 c43c
000000f0: 8f88 77bc efe6 ce3c e696 ba3d f4bf 003e
00000100: 4921 18bc 0578 9f3d 5230 e73c 7cb1 9d3d
00000110: b55c b0bc c374 1b3c f827 20bd 98dc c23c
00000120: 2047 d93d 621c 44bc e62e 3fbd f4d8 383c
00000130: 3721 523d 6387 83bd 5c88 493d 4e8f b33c
00000140: cc43 50bd 55de b23d 3ace b43c 0f87 6ebd
00000150: 309c ac3d fb1b 61bd a23a 773d bc1a f03c
00000160: 179d ddbc 9553 2a3d ab5a 6a3d 0d2f 703d
00000170: f115 923c bbe4 2c3d dcb2 9cbd cdef 7a3c
00000180: 4174 ac3d 554a 2e3d 0323 5ebd a36f e93c
00000190: f7fc 88bb e2be 163d 3040 0f3d 4674 56bd
000001a0: f9ab 913c ec1a 66bd 52cc 193d 064f 8bbe
000001b0: 08ed 0abd 7d04 163e 9ac4 9ebc ba2b 003d
000001c0: 9a48 0d3c 4e7f cabb d450 5fbd 65d0 a03c
000001d0: 8751 b63d ca10 9a3d 309f 873d 3a76 723b
000001e0: 6655 dc3d 850b c03c beaa acbc 679d 333c
000001f0: 703e 61bc 3e70 1c3d 4964 a03d 36d9 0a3d
00000200: 9f7d 5abb c4a3 96bb 598f 2dbc f397 29bb
00000210: 5bbb 203d e8c3 76bc b0d2 ad3b ce84 423c
00000220: a4c2 62bd f658 2cbd b4df 37bd 5bae d63c
00000230: 0d06 cb3c f980 89bd be12 07bd 14ce 85bc
00000240: 9382 303c cff9 963d d2e4 ebbc 8732 6d3c
00000250: 0a41 00bd c6e3 7a3d 8088 033d ec4c 6f3d
00000260: beb1 8abb a92d 63bd 5acb c53d d3dc 44bd
00000270: b816 583c 30c3 98bb 809f 893d 6402 593c
00000280: f342 593b 6227 55bd cb3b 7d3c 3d9b dcbb
00000290: 2bf7 403b 65e1 dfbc 2bb8 bd3d a5b2 8ebc
000002a0: f843 4f3d 22de 973c 5749 813d bcb7 0ebc
000002b0: 8e1a c03c 21d6 0ebd 76e3 c5ba efc6 913d
000002c0: 4363 9a3d c502 b83b 87d5 54bd fbd4 04bc
000002d0: ae0a dd3c caca 9f3b 13fb ec3c 240f 16bc
000002e0: 52e4 babb b2a5 533d 27d9 a43d 30c3 17bc
000002f0: 70e5 333d 02ef fd3c bb38 4bbd 5909 b73c
00000300: 4240 003c a721 fe3c c247 4ebd a8cd 0dbb
00000310: 7cc7 bb3d a375 a7bb 5e69 84bd 07b7 8e3d
00000320: 46d1 023d 578a 8bbd 792b 0dbd 03a9 a9bd
00000330: b0ee a83d 3464 66bc 3a85 583b fe85 8cbd
00000340: eaab 61bd 59c4 d9bc ca28 89bd c882 0a3c
00000350: 3cc2 9c3d 799a b6bb 5106 c33d 16e9 1abd
00000360: b92a 13bd 90d0 b43c 3d32 05bd 4a04 97bc
00000370: 0593 6abd 071f 8cbc 05f0 cf3a f60b 0c3d
00000380: 6c96 fabd 2f56 333d de01 8b3d 553e a83d
00000390: 5fd1 bf3c 23e8 923d 7db7 883d 36ad 763b
000003a0: dc28 6fbc fede 52bd f7ec 2cbd f4a5 a63d
000003b0: cb9b 3ebd 62b1 a1bd 0ba3 75bc 648c 6fbc
000003c0: 5bef 60bd badb 163c dddc aa3d ec44 363c
000003d0: b65e 873d 928e 01bd 2e25 a9bc 2caa 0fbd
000003e0: 0917 f3bc 403a 153e 4525 713d 5190 653d
000003f0: 30cd f8bb a35c ce3d 5114 bf3c ab51 31bb

fc3.bias f4 [102]
0.021279665 -0.045302976 0.087338984 0.032425813 -0.013578522 0.016628351 0.019540433 -0.043104395
-0.056048647 0.05342003 0.0027109904 0.009907872 0.03589106 0.0074247187 0.0245235 -0.05368981
0.11123947 -0.0019766097 0.048372354 -0.012574147 0.08248826 -0.030749489 -0.021022622 -0.03137714
0.08891144 0.0014388998 0.036902472 -0.03835758 0.011333418 0.02245009 -0.022666322 -0.0013683417
0.027752992 0.056450583 0.027769824 -0.041134786 0.050749645 0.09506738 0.100282386 -0.013284931
-0.020202858 0.103635214 -0.0027184903 0.009671012 0.039823048 0.008639842 0.038904812 -0.017525924
0.023562428 0.014326366 0.0054564797 0.0065415 -0.04818594 0.103597134 0.09365923 -0.045902975
-0.05394895 0.029297726 0.07975303 0.007531925 -0.058876213 -0.022624731 0.017181138 -0.02513904
0.022839988 0.046807665 0.0700866 0.0900844 -0.052442197 0.054919478 -0.032273944 0.0941182
0.069545045 -0.0225211 0.005281317 0.043607045 0.019473255 -0.0048502 0.0142669305 0.07095464
-0.041597843 -0.04091425 0.054239362 0.06567423 -0.0042373175 -0.020637123 0.047558732 -0.030619996
0.029725686 0.01069463 0.021996208 -0.07113149 -0.021346558 -0.017711347 0.08113183 -0.048197858
0.07985204 0.044504352 0.0802204 -0.033777773 0.037568413 -0.012948349
00000000: b152 ae3c 9d8f 39bd c8de b23d eed0 043d
00000010: 7378 5ebc 2e38 883c 4213 a03c 3c8e 30bd
00000020: 4493 65bd f6ce 5a3d dfaa 313b a154 223c
00000030: 8102 133d 0e4b f33b 82e5 c83c d9e9 5bbd
00000040: 85d1 e33d 028a 01bb 1722 463d cc03 4ebc
00000050: 9bef a83d 5ae6 fbbc a237 acbc 5185 00bd
00000060: 3317 b63d 7799 bc3a 0c27 173d d61c 1dbd
00000070: cdaf 393c 40e9 b73c b9ae b9bc ee59 b3ba
00000080: 3e5a e33c ba38 673d 8b7d e33c f37c 28bd
00000090: dcde 4f3d b0b2 c23d da60 cd3d 0aa9 59bc
000000a0: 7780 a5bc b33e d43d b328 32bb 2a73 1e3c
000000b0: 7e1d 233d 208e 0d3c a75a 1f3d 8792 8fbc
000000c0: fe05 c13c 22b9 6a3c 45cc b23b 145a d63b
000000d0: 9f5e 45bd bc2a d43d 69d0 bf3d c204 3cbd
000000e0: 93f9 5cbd c901 f03c 8e55 a33d 5ece f63b
000000f0: 2f28 71bd 8057 b9bc 75bf 8c3c 63f0 cdbc
00000100: ed1a bb3c 65b9 3f3d 9089 8f3d 2b7e b83d
00000110: a1cd 56bd 3ff3 603d af31 04bd 0bc1 c03d
00000120: a26d 8e3d 2b7e b8bc e60e ad3b 4d9d 323d
00000130: 6086 9f3c 6dee 9ebb d8bf 693c ab50 913d
00000140: 8062 2abd b395 27bd 182a 5e3d 3680 863d
00000150: 32d9 8abb 2f0f a9bc f2cc 423d c9d6 fabc
00000160: 4883 f33c 8838 2f3c 6431 b43c 63ad 91bd
00000170: fade aebc 6317 91bc 7228 a63d 1e6b 45bd
00000180: 7789 a33d 324a 363d 984a a43d 905a 0abd
00000190: 56e1 193d 5025 54bc
