Assets/TestVRMovement/bone_model.onnx (onnx, 88352 bytes, 6 tensors)

fc1.weight f4 [64, 18]
000000 80 9d 01 be e8 97 9e bd 81 8d 4a 3e 17 8a 10 3e
       -0.12657738 -0.077438176 0.19780542 0.14115177
000010 c2 4e 20 bd f6 7c 13 be f4 09 d0 3d 3a ac 68 3e
       -0.03913761 -0.14403138 0.101581484 0.22721949
000020 ce 20 90 3d 68 cc ea bd 49 26 50 3e e1 3b 2d be
       0.07037507 -0.11464769 0.20327105 -0.16917373
000030 aa a2 43 3e fa 35 f6 bd 08 9b de 3d b7 04 8e bd
       0.1910502 -0.12022014 0.108694136 -0.06934493
000040 56 df 21 3e b1 30 b7 3d e8 6e 2a bd 9e 29 2e be
       0.15807852 0.08944834 -0.041609675 -0.17008063
000050 04 67 c3 bd d8 3d cc bd 6a 3b e4 3d 16 f5 b1 3d
       -0.09541133 -0.09972733 0.11144145 0.086893246
000060 f8 47 6c be 52 35 1f be e8 9d af bd 26 54 48 be
       -0.23074329 -0.15547684 -0.0857504 -0.1956335
000070 f7 00 f6 bd 00 b3 56 3b c8 8b ed bc 28 6a 63 bd
       -0.12011903 0.00327605 -0.028997317 -0.05552116
000080 53 85 ee bd 8a 6d a8 3d 90 44 33 be 00 0e 50 3c
       -0.11646523 0.08224018 -0.17506623 0.01269865
000090 98 36 84 3c c5 12 52 3e 6f b4 eb bc fc 71 2f 3d
       0.016139314 0.20514973 -0.02877256 0.042833313
0000a0 aa 8a 46 3e 95 32 83 3c 3c 3d 21 be 3d 22 84 3e
       0.19388834 0.01601533 -0.15746015 0.25807372
0000b0 f0 ff 7a 3e a1 8d 69 3e 91 4b c0 3b 2e a3 0b be
       0.24511695 0.22807933 0.005868383 -0.13636467
0000c0 6d 29 b0 3c 73 e3 31 be c5 ff 90 3d 6a 0b 47 3e
       0.021504128 -0.17371921 0.07080034 0.19437948
0000d0 3c 65 36 3e bb 56 0d 3e 40 4e be 3d e8 eb 67 3e
       0.17812055 0.13802616 0.09292269 0.22648585
0000e0 25 0e 4f 3e 2f b5 41 3e bd 42 94 bd 2f a2 5a bd
       0.2022024 0.18916772 -0.07239292 -0.053377327
0000f0 39 04 0c 3d cc 65 07 be da e4 5a 3e d1 6a 40 3d
       0.034183715 -0.13222426 0.21376362 0.046976868
000100 e4 85 cc bb cc 5b dc 3d 92 c9 74 bd 1e 86 fd bd
       -0.006241547 0.10759696 -0.059762545 -0.123790964
000110 c4 a6 83 be 05 fb 6e 3a 51 44 d5 bc b1 4c cb 3d
       -0.2571317 0.00091163843 -0.026033552 0.09926737
000120 6c 01 ec 3d 58 71 87 3e a1 66 01 bf 17 c6 59 3c
       0.11523709 0.26453662 -0.50547224 0.013291857
000130 52 2a e6 3c 1f a8 12 bd fa ba dc 3d ef 8a a3 be
       0.028096352 -0.035804864 0.107778504 -0.31941935
000140 da f9 b7 be 7f af 7d 3d 17 d5 ec 3e 9d 55 d5 be
       -0.3593281 0.061934944 0.46256325 -0.4166688
000150 b6 7e 48 bd 46 a9 88 bd dd 03 d2 3c 59 f2 58 bd
       -0.048948966 -0.06672911 0.025636608 -0.052965496
000160 75 ca e6 3d 6c 98 88 bc 82 00 8b 3d 56 a0 04 3e
       0.11269084 -0.016674243 0.06787206 0.12951788
000170 29 a8 c0 3d f6 5e 16 3e 0a a7 08 be 9d 04 6a 3e
       0.09407074 0.14684662 -0.1334497 0.22853322
000180 73 d1 db 3d ea 92 8b bd 5c 05 32 3e 95 12 39 bd
       0.10733309 -0.06815131 0.17384857 -0.045183737
000190 b3 91 18 be 96 90 59 bc d8 c9 30 3e af 66 eb bd
       -0.1489933 -0.013279101 0.17264497 -0.11494195
0001a0 14 0c 63 3e d6 e2 25 bd 40 de ad 3d 66 74 19 be
       0.22172576 -0.04049953 0.084896564 -0.14985809
0001b0 61 3d 0d be 17 d5 4b 3e f0 9b 67 3d f4 45 58 3e
       -0.13792945 0.19905506 0.056545198 0.21120435
0001c0 d5 f9 1e 3e 1d 73 fe bd 90 2c 84 3d 0d bc 21 be
       0.15524991 -0.124243 0.06453812 -0.15794392
0001d0 21 00 e1 3d 4d 16 2d 3e be b4 57 3e 95 65 4b 3e
       0.10986353 0.16903038 0.21065041 0.19862969
0001e0 6a 5d a3 3d 9c 39 7b 3d 93 c6 ab bb 7a d6 88 be
       0.07976802 0.061334237 -0.0052421778 -0.26726133
0001f0 d8 58 90 bd f2 16 c3 bc 69 70 42 be 10 a9 bc bd
       -0.070481956 -0.023814652 -0.18988194 -0.092119336
000200 ab 5a db 3d a7 c3 4d 3d ca 33 ea 3d c3 87 95 3b
       0.10710653 0.050235417 0.11435659 0.004563303
000210 1c 83 85 3e 65 72 5f be db db 58 bd 6f 63 86 3e
       0.2607659 -0.21820982 -0.052944046 0.26247737
000220 68 b7 59 3e 3d c6 08 3e e9 00 47 3e 61 61 5e bd
       0.2126137 0.13356872 0.19433941 -0.054292087
000230 b6 51 02 3c d3 1a 53 3e f3 c4 32 3e a1 f2 81 3a
       0.007954052 0.20615701 0.17457943 0.0009914228
000240 6c d1 b0 bd e5 6e 90 bd 1d e7 5e 3d eb d3 4b bc
       -0.08633694 -0.070524015 0.054419626 -0.012440662
000250 36 b7 04 be cf e2 f1 3b ef 80 10 be 65 6e 0a bd
       -0.12960514 0.007381774 -0.14111684 -0.033796687
000260 93 b8 85 3e 8f 5c 37 3d 36 51 79 be fc 32 18 be
       0.2611738 0.044766005 -0.24347386 -0.14863199
000270 dd 2a 50 3d 9e f5 a2 3d 99 a7 8a 3e cb 2f f6 bd
       0.050822128 0.07957004 0.27080992 -0.120208345
000280 a8 6b 94 3e 18 e6 e3 3d 36 b3 f4 bd f7 2f 86 be
       0.28988385 0.11127871 -0.11948244 -0.2620847
000290 5b 62 00 3c 30 e1 5a bc f2 5a 8e 3c 6c 2e b1 3d
       0.00783595 -0.013359353 0.01737735 0.086514324
0002a0 45 6d ff be 92 4e a5 bd 92 33 b3 bb 6b 60 31 3b
       -0.49888054 -0.08071627 -0.005468794 0.0027065526
0002b0 96 35 a4 bc ce 32 b7 bc 24 62 2a 3e 4a 20 71 3c
       -0.020045083 -0.022363093 0.16639 0.014717171
0002c0 53 17 13 3d 25 90 4d 3d 3c dc 09 be cf c9 1e 3e
       0.035910916 0.050186295 -0.13462919 0.15506671
0002d0 0a dd 69 3e 93 5f 84 3e 95 a5 ba 3c a6 2f cb 3d
       0.22838226 0.25854167 0.022784034 0.099211976
0002e0 cc 7a 61 3d aa 2c 9e bd 87 51 9a 3e 34 c9 14 3e
       0.05504875 -0.07723363 0.30140325 0.14529878
0002f0 5f cb 6d 3e 90 48 ec bd e2 e9 0e 3e 85 13 1c be
       0.23222111 -0.11537278 0.13956407 -0.15241821
000300 67 38 3e 3e aa e4 63 3e aa a5 32 bd 78 41 17 be
       0.18576203 0.22255197 -0.04361502 -0.14771068
000310 8a 3b df 3b ca d4 03 3e 8a 43 fc 3c 2d ff 14 bc
       0.0068125175 0.12874141 0.030793924 -0.009094042
000320 bf 76 d5 3d 3e fe 2a 3e c4 fe 12 be 6c b6 b6 bd
       0.1042304 0.16698548 -0.14354998 -0.08921513
000330 ad c1 03 3e 2b 02 09 bd 76 91 13 3e 9b c9 36 be
       0.1286685 -0.033449333 0.14410958 -0.17850344
000340 07 49 a9 bd 55 43 84 3d 45 52 7d 3e e5 92 13 3e
       -0.08265882 0.06458155 0.24738415 0.14411505
000350 5d 38 3f 3e ca 1c 26 3e 65 3d 40 3b 74 31 37 be
       0.18673845 0.1622192 0.002933347 -0.17889959
000360 c9 8f 88 bc 96 ab d4 bd 58 b1 c4 3c 69 e6 df be
       -0.016670125 -0.1038429 0.024010345 -0.43730476
000370 28 83 5b be bb 15 9a 3c 58 55 f9 3c 65 eb 53 be
       -0.21436751 0.01880919 0.030436203 -0.20695265
000380 6c d9 38 3d 3a 32 34 bc 5d 22 9a 3c 2d b6 8c bc
       0.045129225 -0.010998303 0.018815214 -0.017176712
000390 cf 29 0c 3e 0c 00 ab 3e ca f2 cf 3d ed 3d 3e 3c
       0.13687824 0.33398473 0.1015373 0.011611444
0003a0 b4 27 02 be 0a 94 e8 3c f1 2c 63 be 8d 8d 24 3e
       -0.12710458 0.028390903 -0.22185113 0.16069622
0003b0 1e 31 b7 bd 97 65 47 be cf 7f c0 bc aa 39 20 3e
       -0.08944915 -0.19472347 -0.023498444 0.15646997
0003c0 a1 42 32 3d dc c7 26 3e 15 d8 2e 3e 9d 6a b0 bc
       0.043520574 0.16287178 0.17074616 -0.021535212
0003d0 6d f2 99 3d 5e 75 7f bd 7c 60 2a be c2 94 05 3e
       0.07516942 -0.06236779 -0.16638368 0.13045028
0003e0 74 a9 2f 3e 14 83 1d 3e 7f b0 08 3e 8b 41 8b bd
       0.17154485 0.15382034 0.13348578 -0.06799611
0003f0 24 da 1e 3e a5 b0 29 3e 2a ab e5 bd 19 2b 39 be
       0.15512902 0.16571291 -0.112142876 -0.18082847

fc1.bias f4 [64]
000000 e7 43 67 3e 3a 6b 45 be 1b 5f 5e ba 6a 16 8e 3d
       0.22584496 -0.19279185 -0.00084828 0.06937869
000010 f0 3c 3e be 67 56 94 bd 99 46 6d be af 16 9a bd
       -0.18577933 -0.072430424 -0.23171462 -0.07523858
000020 9d a7 58 3c 73 f5 d4 3e 78 54 4f be f8 20 e9 bc
       0.013223556 0.41593513 -0.20247066 -0.028458104
000030 72 cb bc 3a e9 08 14 3d 4a d6 ce bd 77 18 9c 3d
       0.0014403893 0.03614131 -0.10099466 0.07621854
000040 66 c7 33 bd 80 e4 d6 3e 14 6c 2a bd a2 24 44 bd
       -0.043891333 0.41971207 -0.041606978 -0.0478865
000050 b1 59 e1 bd 51 5a 72 bd 82 92 20 be b2 9e 30 be
       -0.110034354 -0.059168164 -0.15680888 -0.17248037
000060 fd 8b 2a be 18 9e af be 40 31 93 3b dc 24 13 3e
       -0.16654964 -0.34300303 0.004491955 0.1436953
000070 30 39 a7 3d d4 3f 6c 3e 01 6d 52 3d 9c 7a 07 3e
       0.081652045 0.23071223 0.051373485 0.13230366
000080 89 f9 e9 3c e6 b3 41 3c 7d 70 8a 3e 48 34 d6 3c
       0.02856137 0.011822676 0.27038947 0.026147977
000090 7e 24 9d 3d 20 d1 ff bd 12 dd 4d be cb 89 29 be
       0.07672976 -0.12491059 -0.20103863 -0.1655647
0000a0 b1 ad 35 be 24 b3 31 bd 5b 6e 71 3e 83 45 0f 3e
       -0.1774204 -0.043383732 0.23577254 0.1399136
0000b0 12 b2 17 3e c1 13 16 be 15 4b 4f 3d da 69 24 3e
       0.14814022 -0.14655973 0.050608713 0.16056004
0000c0 97 f2 2b bd 21 e3 83 3e 81 75 c9 be 60 5a 7e 3e
       -0.0419794 0.25759223 -0.3934746 0.24839163
0000d0 52 30 df 3c e5 c9 3c be ce 1b 39 be dc 5a 36 be
       0.02724472 -0.18436392 -0.18077013 -0.17808098
0000e0 56 e2 ac 3d 00 0e 5d be 35 17 01 be 51 2a 13 bd
       0.08441608 -0.21587372 -0.12606509 -0.035929028
0000f0 8b 7b 9e 3d 4c 8d 21 be bd 26 43 bd 72 ac 6f 3d
       0.07738408 -0.15776557 -0.047644366 0.058514066

fc2.weight f4 [128, 64]
000000 f6 ef 5a bd 8c 2d b2 3d c6 6f 3e 3d fd c4 f3 3d
       -0.0534515 0.087000936 0.046493314 0.11902807
000010 4b 77 42 3d 6b 8b f4 3d 15 5b 89 bd c6 6a 5b 3c
       0.047477048 0.11940654 -0.06706826 0.013392156
000020 30 76 1c bc cf 6e dd 3d 71 53 30 bc 8c 9c d5 3d
       -0.0095496625 0.10812151 -0.0107620815 0.104302496
000030 e1 63 c1 bc 8d 13 a1 3c b3 e8 6f bb 42 f1 5e 3d
       -0.023607196 0.019662643 -0.0036607205 0.0544293
000040 9b b5 dd bd 1d 56 a5 3e bc 74 97 3d cf 20 12 3e
       -0.10825654 0.32292262 0.07395312 0.14270328
000050 7e d4 98 bc 81 1e 73 bd 49 c1 41 bd 5c 42 f8 bd
       -0.018656012 -0.059355263 -0.04730347 -0.12122032
000060 1c 4b 93 3d df 8e 57 bd 6e d5 aa bd 83 0b 36 bd
       0.0719206 -0.052626487 -0.0834149 -0.044444572
000070 99 be cd bd 9c cb a7 3d cb 55 00 3c 4a c3 89 be
       -0.10046119 0.08193132 0.007832955 -0.26906806
000080 ba 15 b0 3e 67 f2 8b b9 e4 df bb 3d fd ef 2c bc
       0.34391576 -0.0002669275 0.09173563 -0.010555265
000090 98 35 93 3d 5c af 69 3d 54 d1 bc 3d f3 61 e7 3c
       0.071879566 0.057052 0.09219614 0.028244948
0000a0 7f 77 ca 3d ce 46 07 3e 46 a3 01 3e 77 84 eb 3b
       0.09886073 0.13210604 0.1265994 0.007187422
0000b0 42 d1 d3 bd 1a 10 88 bc 16 13 19 3e 67 c0 e8 bd
       -0.10342647 -0.01660924 0.14948687 -0.11364823
0000c0 a8 14 68 3c 46 cc a0 3d f8 c4 c8 3c 67 74 cf 3c
       0.014165081 0.07851462 0.024507985 0.02532406
0000d0 87 cb 62 bd 70 9c ad bc 21 79 55 3c d6 b9 1f 3e
       -0.05536988 -0.02119276 0.013029368 0.15598235
0000e0 3e 89 86 bd f9 42 57 bc 26 80 de bd ce 37 ab bd
       -0.065691456 -0.013138526 -0.10864286 -0.08360253
0000f0 a1 56 0f bd f9 3f f1 3d 01 c9 5b bd 8e 21 97 bd
       -0.034994725 0.1177978 -0.05365849 -0.07379447
000100 1e ff d1 3d 00 57 0d 3d 4d 43 47 bd 7b 82 0e 3d
       0.10253738 0.034506798 -0.048648167 0.034792405
000110 62 65 f3 bd 42 24 d3 bd 2e 71 4e 3d 01 71 4b bd
       -0.118845716 -0.1030965 0.050400905 -0.049668316
000120 e0 90 f1 bc 6d a9 07 be 17 92 01 3d 56 b0 92 3d
       -0.029488027 -0.13248225 0.031633463 0.0716254
000130 8b 94 16 3d 55 4a af 3d ae bb 1e bd 29 1f fa 3b
       0.036762755 0.085590996 -0.038753204 0.007633109
000140 93 79 01 3d 42 46 9f be 90 e3 24 bd 32 f7 55 3d
       0.031610083 -0.3110829 -0.040256083 0.052237697
000150 e8 74 63 3d d0 d9 2d bb c6 72 81 3d 0d 48 ea bd
       0.055531412 -0.0026527531 0.063207194 -0.11439524
000160 4c 64 31 bd 59 69 ac bd 90 27 bf bc 93 97 2f 3d
       -0.04330854 -0.08418531 -0.023334295 0.04286916
000170 f9 34 8b 3d e4 6f b6 bc 79 10 23 bd 10 d6 72 bd
       0.06797213 -0.02227015 -0.03981063 -0.059286177
000180 b6 60 89 bd 08 43 ba 3d 50 c7 53 3d dc 17 99 bd
       -0.06707899 0.090948164 0.05170375 -0.07475254
000190 08 ff 98 bd 39 2a 84 3d 57 63 d3 b9 bf 79 ac bd
       -0.07470518 0.06453366 -0.0004031907 -0.08421659
0001a0 20 cc 4a bd 40 df e7 bd 0c 48 c3 3d 69 ff 67 3d
       -0.049511075 -0.113218784 0.09535226 0.056640062
0001b0 5c bd ec bd 51 a1 13 bd d0 42 88 3d 8d 06 c3 3d
       -0.11559555 -0.036042515 0.066533685 0.09522734
0001c0 13 55 31 3d 25 f8 6d bc d8 ab a3 bd c0 32 ba bd
       0.043294024 -0.014524494 -0.07991761 -0.09091711
0001d0 75 51 c2 3c 54 9f c8 3d 28 72 70 3c c5 8b 8d bd
       0.023720482 0.097960144 0.0146756545 -0.069114245
0001e0 3b 2e ce bd 49 84 54 bd ff e6 4d 3d 7b 4c 85 bd
       -0.100674115 -0.05188397 0.050269123 -0.06508728
0001f0 79 34 b7 bd 4c 95 25 bd 3e 69 d2 bd 97 c4 41 3d
       -0.08945555 -0.040425584 -0.102739796 0.047306623
000200 d2 1e bf bd b8 ef 35 3d 4e c7 03 bd 98 59 dd bd
       -0.093320504 0.044418067 -0.032172494 -0.10808104
000210 01 c2 c3 3e 52 e0 ea 3d 4f 31 79 3d f9 cc 38 bc
       0.3823395 0.11468567 0.06083804 -0.011279338
000220 ff 9d e3 3d 02 7f 8c be c3 ea 5a bd b0 b4 30 bd
       0.1111412 -0.2744065 -0.053446542 -0.043141067
000230 fe 21 b4 3e 66 27 c6 bb 10 ec af bd 89 1c e5 3d
       0.35182184 -0.006047177 -0.08589947 0.11187083
000240 6c 57 d1 be 34 36 de 3e b8 b6 dc 3e 25 4f a8 3d
       -0.4088701 0.4340073 0.43108153 0.082182206
000250 0a 7e 02 3e f7 45 2c 3e 16 2a 43 3e f9 de 99 3e
       0.12743393 0.16823564 0.19059023 0.30052927
000260 df 79 89 3d 71 a9 42 be 68 47 ce 3d 11 fb 7f bd
       0.06712698 -0.1900995 0.100722134 -0.062495295
000270 dd 73 1d bd 3c 2c 41 3d c1 3d 93 bd 99 ca d8 3d
       -0.038440574 0.047161326 -0.07189513 0.105855174
000280 41 83 53 3f da 6c 98 3c 50 9c cf 3d b7 31 1a 3d
       0.8262215 0.018606592 0.10137236 0.037645068
000290 f0 63 9a bd d1 1d 93 3d 92 4a 3e be a7 78 41 bb
       -0.07538593 0.071834214 -0.18583134 -0.0029521377
0002a0 e8 30 32 3d 8a d9 ba 3e d0 87 8e bc 41 54 8d be
       0.043503672 0.36494094 -0.017398745 -0.27603343
0002b0 c7 03 ae bd 5b 26 e4 3b f2 ca b7 3d 68 e4 0b bd
       -0.08496814 0.00696258 0.089742556 -0.034153372
0002c0 41 7d 45 3d 8a ec 87 3d 44 37 d4 be e0 48 fe 3d
       0.048215155 0.06636913 -0.41448414 0.124162436
0002d0 8e 6d bf bd 20 6d 7d 3d 26 f2 96 3d ec 5b b6 3c
       -0.09347068 0.061871648 0.07370405 0.022260629
0002e0 41 be 47 bd 9c 29 88 3b df be e8 be 69 8e 33 3d
       -0.048765425 0.004155351 -0.45458123 0.043836985
0002f0 ab 60 49 3c 51 f8 0e be 13 6b ad 3d 17 b9 98 be
       0.012291114 -0.13961913 0.084676884 -0.29828712
000300 59 5f b6 bc 04 db 00 3d 86 eb 3f 3d c5 ef e5 bc
       -0.022262262 0.03145887 0.046855472 -0.028068433
000310 3b 85 ce bd 68 0c c6 3d c0 50 db 3d af 00 dd 3d
       -0.100840054 0.09670335 0.10708761 0.10791146
000320 9a 5f 0d 3e 35 34 c3 bc 4d a9 11 3e b8 77 7b bc
       0.13806 -0.023828605 0.1422474 -0.015348367
000330 8c fa 23 3e 97 3a 20 3c 66 45 0b 3e fe 02 b3 3d
       0.16013545 0.009779594 0.13600692 0.08740805
000340 a4 e2 01 3e 4f e2 7e bc f8 1a 5d be b8 af e8 3d
       0.12684113 -0.015556886 -0.21592319 0.11361641
000350 6a 5c d0 3c 7d 5d dd 3d a5 1d 05 3d b9 68 3b bd
       0.025434691 0.10808847 0.032498974 -0.04575417
000360 4d 96 22 3e 0a 12 4b be c6 e9 9f bd 50 15 08 3e
       0.15877648 -0.198311 -0.078082606 0.1328938
000370 16 29 23 3c 4f cc 0a 3e df 14 bd 3d df be 2a be
       0.009958526 0.135545 0.092324965 -0.16674374
000380 ac b7 69 bd 5b ba 74 3d e4 0f 30 3d 2e 2e f2 bc
       -0.05705993 0.059748035 0.042983904 -0.029563036
000390 c2 62 f8 3d 5d 3a 7a 3c b9 ae b8 bd e9 72 71 bd
       0.121282116 0.015272704 -0.09017701 -0.058947477
0003a0 5b 5b 87 bd 52 e6 2c bc f1 35 78 ba 23 9e cf bd
       -0.066092215 -0.0105529595 -0.0009468487 -0.10137584
0003b0 5d 03 fe 3c dc 28 e8 3d 14 70 73 bd 76 99 09 3e
       0.031007463 0.11335918 -0.059433058 0.13437447
0003c0 c4 8c da 3d 06 c7 ed 3d 0b fb 4d be 8a 96 16 3e
       0.1067138 0.11610226 -0.20115297 0.14705864
0003d0 c2 e1 80 bd f4 6d c0 3d 93 34 5f bd e2 0e e0 3d
       -0.0629306 0.09395972 -0.054493498 0.10940339
0003e0 2b 91 7a 3d 8e 09 b3 bd 92 c8 77 3c 8a a5 93 bd
       0.0611736 -0.08742057 0.015123503 -0.072093084
0003f0 1f ad a0 3d ad 0a 26 3e 8c 7a cd 3d 0e 66 29 bd
       0.0784552 0.1621501 0.100331396 -0.041357093

fc2.bias f4 [128]
000000 1c 09 97 bd 24 0b e3 3b db b6 c3 bd e5 49 f5 bb
       -0.07374784 0.0069288183 -0.09556361 -0.0074856156
000010 e9 8f 2b bd 4a b0 e7 3c 56 ef 49 3c 3f bf cb 3b
       -0.04188529 0.028282303 0.012325129 0.0062178667
000020 5a 7a a2 3d 8e b1 e4 3b 46 17 d0 3b d7 c4 80 3d
       0.07933493 0.006979174 0.0063504307 0.06287544
000030 a0 8b e0 3d 99 84 f9 3d ea 4b 18 3c b8 cf 3c bc
       0.10964131 0.12183494 0.009295443 -0.011524133
000040 ab 7b e9 3c 7c 68 fc bd 3d 49 36 3e 87 d9 05 bd
       0.028501352 -0.12324616 0.17801376 -0.032678153
000050 2e 3d c0 3c a6 1a 43 3b f7 cd a5 bc 00 2d e1 3b
       0.023466673 0.0029770522 -0.020239813 0.0068718195
000060 1b 26 f8 3d 1d d6 8e bd 26 94 7a 3c a0 f8 d5 bd
       0.12116643 -0.069744326 0.01529411 -0.10447812
000070 97 88 fb bc c1 14 87 bc ba b9 ef 3d 80 1a 04 bd
       -0.03070478 -0.016489388 0.117053464 -0.032251835
000080 31 8f 90 bd 1b 3c 5b 3d a4 84 ea 3d 90 cc b5 3c
       -0.070585616 0.053524118 0.114510804 0.02219227
000090 2a 44 2b 3e 61 6a ab bc c9 ae d1 bc 49 04 aa bb
       0.16725221 -0.020924749 -0.02559604 -0.005188499
0000a0 2f 49 28 3d 79 b4 87 bd f3 cc 00 be 0d bb 31 3d
       0.04108542 -0.06626219 -0.12578182 0.043391276
0000b0 3d 81 82 3d 8c 59 8f bc eb d2 15 3e c7 94 d1 3d
       0.063723065 -0.017498754 0.1463124 0.10233455
0000c0 c8 53 2f 3e 27 a2 bb 3d 3a 31 5d 3d 34 dd fc bc
       0.17121804 0.091617875 0.054002024 -0.030867197
0000d0 70 3d 70 3d 5a 77 ca 3d 91 41 b0 3d f8 f1 2f bd
       0.05865234 0.09886046 0.08606256 -0.04295537
0000e0 59 35 bb bd b7 bd 73 bd 39 96 09 3d 4c 74 d1 3c
       -0.09141035 -0.059507098 0.03359053 0.02556815
0000f0 f9 f2 f0 3d 97 0f 71 3d 87 69 c1 3d 80 61 e2 bc
       0.11765093 0.05885276 0.09443956 -0.027634382
000100 63 96 d9 3c e8 0f 1f 3e 66 9f 31 be f0 a2 a6 bd
       0.026560968 0.15533412 -0.17345962 -0.081365466
000110 1b 74 bd 3c 76 cf 92 3d 66 ef b8 bd 8a f4 95 bd
       0.023126652 0.07168476 -0.09030037 -0.07322033
000120 18 97 a9 3c 4c 7c b9 3d 61 63 09 be fa f1 0c 3e
       0.02070193 0.09056911 -0.13416816 0.13764182
000130 76 06 9d bd 11 b7 5b bd b6 d1 db 3c 38 5f 62 bd
       -0.07667248 -0.053641383 0.026833396 -0.05526659
000140 a1 c4 a7 3d a0 16 f7 3d 6a cc 87 b9 3a 04 8b bd
       0.08191801 0.12064862 -0.00025901507 -0.067879155
000150 f8 bc 83 bc c9 63 10 3d ad db 36 3c 03 e0 44 bd
       -0.016081318 0.035251413 0.011160773 -0.048065197
000160 ad fc 11 be 39 44 90 bd a9 76 e8 3d 37 f9 7d 3d
       -0.14256544 -0.070442624 0.11350758 0.062005248
000170 17 54 15 3e af 1f f9 bc 72 a9 49 3d af fd 42 3e
       0.14582859 -0.030410616 0.04923386 0.19042085
000180 0b 12 3d bb 52 45 85 3d b6 c9 ee 3d 80 74 ed bc
       -0.0028849866 0.065073624 0.11659567 -0.028986216
000190 4a c5 c3 bd fa 95 02 3c 73 ec 7b 3d 42 e9 2a bd
       -0.09559114 0.0079703275 0.061504792 -0.04172636
0001a0 d8 24 70 3d 05 06 53 3c 38 a5 c6 3d 11 c1 00 be
       0.058628887 0.012879853 0.09699482 -0.12573649
0001b0 a4 2a 90 3d ae b1 f3 bd ad b4 d3 3c 83 5e 6d bc
       0.07039383 -0.11899124 0.025842989 -0.014487865
0001c0 d2 7b 0b 3e ad b4 44 3e d9 3f 71 bc 2e 95 c3 bc
       0.13621452 0.19209547 -0.014724695 -0.023874845
0001d0 0e 31 31 bd ec d3 f2 bd f7 f4 ec bc 2c b8 bb bd
       -0.043259673 -0.11856827 -0.028925402 -0.09165987
0001e0 8e 56 e6 bd 33 83 3c bc 2e a3 c9 3c fa 32 fa 3d
       -0.11246978 -0.01150589 0.024613943 0.12216754
0001f0 8d a9 70 bd ed 63 0f 3e fd a7 7b bd 1e 53 11 3c
       -0.058755446 0.14002962 -0.061439503 0.008869914

fc3.weight f4 [96, 128]
000000 b2 af b8 3d 88 07 63 bd 78 16 9a bc 4e 35 67 bd
       0.09017886 -0.055427104 -0.018809542 -0.05644732
000010 8b 8d a4 3c a5 69 48 bd 2f aa b9 3d dc 05 99 3d
       0.020087024 -0.048928875 0.09065663 0.07471821
000020 a0 5a a0 bc 85 b9 33 3d f3 8a b0 3c b2 91 e1 3c
       -0.019574463 0.043878097 0.021550631 0.027535293
000030 fb 10 b7 3d f6 51 c3 3c 72 39 65 3c c2 74 46 3b
       0.08938786 0.023842793 0.013990747 0.0030281995
000040 38 9c 83 bc 0b 41 9d 3d 8f f2 69 bd 17 b8 52 3d
       -0.016065702 0.076784216 -0.057116088 0.051445093
000050 5a 7b a1 3d 48 03 7e bd a0 80 a0 bd c5 ce 5d bc
       0.078848556 -0.062014848 -0.07837033 -0.013538067
000060 5b eb 86 3d 3a d2 c5 3a 89 be ad bc c2 8d ea bc
       0.06587859 0.001509256 -0.021209018 -0.028632049
000070 73 26 2d bc 0d 51 0c 3d d3 bb 5f 3a da c4 3f 3d
       -0.010568249 0.034256984 0.0008534763 0.04681859
000080 5a b3 2a bd b0 ee 92 b9 57 25 03 bd b0 60 dc 3b
       -0.04167495 -0.00028025126 -0.032018032 0.0067253932
000090 c1 33 17 3d 76 d4 15 bd d8 76 c2 3d 0d ca 0b bc
       0.03691459 -0.03657957 0.09495324 -0.008532059
0000a0 cb 7f a1 3c 66 36 39 bd 4c 62 b1 3c 9b 97 2f 3b
       0.019714257 -0.045217894 0.021653317 0.0026793245
0000b0 46 c3 e2 bb ec e9 12 bd 2f 98 a3 bc 9e 90 a3 3d
       -0.006920251 -0.035867617 -0.019970028 0.07986568
0000c0 c9 3e 96 3c 1f 93 4f 3d 36 7e c1 bc 16 4b b3 3c
       0.018340485 0.050677415 -0.023619752 0.02188639
0000d0 41 fa b4 3d 6e ec a9 3d bf 2b 69 3d 48 4e 10 3d
       0.08836795 0.082970485 0.056926485 0.035230905
0000e0 c7 df d6 3d 6e 9f b8 3b 1d e1 41 bd 38 04 a8 3d
       0.10491901 0.00563424 -0.047333825 0.0820393
0000f0 14 54 4a 3d 71 59 3b 3d 00 2c 63 bc 63 87 09 3b
       0.04939659 0.045739595 -0.013865471 0.0020985238
000100 0f df 0e 3c 83 ba 84 3d 66 4d ed bd 70 14 4a 3d
       0.0087201735 0.06480887 -0.11587028 0.049335897
000110 2f c9 10 bd f3 43 95 3c 60 fe e8 3c b3 8e 60 3d
       -0.035348114 0.018220877 0.028441608 0.05482359
000120 07 5d 2e 3c 80 64 98 3d b6 90 33 bc 67 c6 17 bd
       0.010642297 0.07441044 -0.010959795 -0.037054446
000130 ee 2e 1e bd f7 e6 3e 3c 34 0e a7 3d 0d b5 48 bd
       -0.038618974 0.011651746 0.08157006 -0.04900079
000140 72 7f 94 3c 60 b9 ce 3b 2e 1f da bc 68 a5 a7 bc
       0.018127177 0.0063087195 -0.026626196 -0.020464614
000150 50 39 7c 3c 44 60 84 3d 70 26 95 3c fd bb bf 3d
       0.015394524 0.06463674 0.018206805 0.09362028
000160 a7 41 7c 3d 4b dc c8 bc 24 61 87 3c 29 17 30 bd
       0.06158605 -0.024519106 0.016525812 -0.042990837
000170 fc ce e2 3d 99 61 60 bc e0 9d 8d 3d d6 df b9 bc
       0.110746354 -0.013695144 0.06914878 -0.022689741
000180 1b e5 4b 3d 01 5b 55 bc 40 a2 dd 3d 06 e7 07 3d
       0.04977904 -0.013022185 0.10821962 0.033179305
000190 0c 5a b1 3c 4a 4b 97 bb 4d 5d 14 3d 7c a1 24 bd
       0.021649383 -0.0046171295 0.03622179 -0.040193066
0001a0 cf a9 92 3c 50 63 ef bc 06 ba d6 3c 0c 84 11 bd
       0.017903237 -0.02922216 0.02621175 -0.03552632
0001b0 15 d5 87 3d a8 62 50 bc de 92 a3 3d f9 62 0e 3d
       0.06632439 -0.012718834 0.07986997 0.034762356
0001c0 df ad 8b 3c f2 34 be 3b e3 57 61 3c 2e 5c 93 3c
       0.017050682 0.0058046514 0.013753864 0.01798829
0001d0 19 1f a1 3d e9 da 10 bd a0 5b 58 3c 13 98 43 3d
       0.078672595 -0.03536502 0.013205439 0.04775245
0001e0 dc 0e b6 3c 5e a9 d6 bb 28 4f 81 3d 48 13 07 bd
       0.022223882 -0.006550952 0.06313926 -0.032977372
0001f0 e9 b2 7d 3d 83 b1 88 3d 5e 38 9f 3c 88 41 91 3d
       0.0619382 0.06674483 0.019436058 0.07092577
000200 5e 98 f6 bc be 0e 8b 3d a0 8d 52 3d 6b cf 93 3c
       -0.030101951 0.06789921 0.051404595 0.01804324
000210 9a 58 46 bc 6e 48 dd 3d f4 b0 83 3d 10 e0 10 bd
       -0.012106085 0.108048305 0.064302355 -0.035369933
000220 c7 ee 28 3d b8 13 95 3b 38 0c 09 bd 18 e0 f1 bc
       0.04124334 0.00454947 -0.03345892 -0.029525802
000230 f1 05 ab 3c cb 01 7e 3d 5d d2 c2 bc ab d9 98 3c
       0.020876857 0.06201343 -0.02378195 0.01865848
000240 d5 e4 cd bb b4 70 05 3d f4 53 07 bd d4 d9 5a 3d
       -0.0062833824 0.032578185 -0.03303905 0.053430393
000250 e6 fd 08 3d 87 3d d7 3c 78 0c 9a 3a 67 d4 a9 3c
       0.03344526 0.026274456 0.0011752984 0.020731164
000260 e5 b6 90 3d 1b 02 0f bd f2 e6 89 3b e6 10 5d 3d
       0.07066134 -0.034914117 0.004208439 0.053971194
000270 ed ce 7e 3d 2f da a3 3d 2d 5f cb 3d 22 b0 85 bd
       0.06220906 0.080005996 0.09930263 -0.06527735
000280 0e be df ba f4 11 b8 3d 2f 84 e4 3c 50 56 19 bd
       -0.001707019 0.08987799 0.027895061 -0.03743583
000290 8f ce 16 3d f6 ab 0b bd f9 8b 06 bd d9 28 3f bd
       0.036818083 -0.03409954 -0.032848332 -0.046669815
0002a0 b1 11 e6 3b 50 16 29 bd 2b f5 bf 3d 31 37 a2 3d
       0.007021152 -0.041281044 0.09372934 0.07920683
0002b0 a5 70 b1 bc 18 f3 15 3d 1f 5e 8a 3c 3a 14 cc 3d
       -0.021660158 0.036608785 0.016890584 0.099647954
0002c0 d5 bf 7b 3d 88 f1 bf 3d fd ef 66 bd 9a 12 ff ba
       0.061462242 0.0937224 -0.056381214 -0.00194605
0002d0 4a a6 60 3d d0 fb 9e 3c 05 f0 d0 3d e3 b8 93 3d
       0.054846086 0.019407183 0.1020203 0.07212999
0002e0 ca 4b c3 3d 2b 83 5e 3d 25 0a af bc 4a 24 85 3c
       0.0953594 0.05432431 -0.021367142 0.016252656
0002f0 cb dd 30 bd 41 1a 3c 3d 0e a0 f0 3d d5 c4 87 3d
       -0.04318027 0.045923475 0.11749278 0.066293396
000300 98 82 8f 3d 2d 3a 08 bc 0f a4 fb bd 89 60 1c ba
       0.07007331 -0.008314651 -0.12287151 -0.00059653126
000310 26 df f9 bc 62 db 82 3d 4e a0 37 bd 5f 5e b5 3c
       -0.030501913 0.063895 -0.044830613 0.022139726
000320 ff 8d 0e 3d d9 c8 4a bd bc b3 d3 bb 50 c4 0d 3c
       0.034803387 -0.04950795 -0.006460635 0.008652762
000330 1a 45 25 3d 3d ac 8f 3d ef c9 7c 3d cf 85 c0 bb
       0.040349104 0.07015274 0.061716016 -0.005875326
000340 64 b0 c6 ba c4 02 97 3c f6 ff 9d 3d 8e b0 30 3d
       -0.001515877 0.018433936 0.07714836 0.043137126
000350 b0 d7 df 3b 53 64 57 bd 36 65 44 bd 4b 31 2c 3d
       0.006831132 -0.05258591 -0.047948085 0.042039197
000360 a8 22 fe 3c d0 23 8d 3d a5 f0 73 bc 81 9d 65 bc
       0.031022385 0.06891596 -0.014888917 -0.014014603
000370 cc 46 8e 3d 2d 8c 05 bd f3 21 57 bd 09 af ae bc
       0.06947097 -0.032604385 -0.05252261 -0.021323698
000380 7e 32 b1 3d 74 f7 28 3d f4 d7 e1 3c ee c0 2a 3d
       0.08652209 0.041251615 0.027568795 0.0416879
000390 80 f2 41 3b 01 13 b5 3d 5d 4f 1d 3b ba d5 8a bc
       0.0029594004 0.08841515 0.0024003603 -0.016947616
0003a0 ce 14 04 3d 98 a8 39 3c e1 06 22 3d 2a 07 02 3c
       0.032246403 0.0113317 0.03955734 0.007936278
0003b0 95 15 a2 3d c4 3c 86 3c e3 dc 65 3d 40 e4 22 bc
       0.07914273 0.016386397 0.056118857 -0.009942114
0003c0 88 b4 2f bd d6 64 86 bc 1c c5 99 3d 91 52 f3 bc
       -0.042896777 -0.016405504 0.07508299 -0.029702457
0003d0 c0 cc 92 3d e4 41 6a bc 67 a6 0b ba 4b 2d dc bc
       0.07167959 -0.014297936 -0.0005327225 -0.026877066
0003e0 b4 f0 9c 3c 52 7d e0 bc cb 97 d5 3c 12 49 d2 3c
       0.019157745 -0.027403507 0.026073357 0.025669608
0003f0 26 da 5e 3d 18 16 ab bb cc 5c 9e bc d0 b8 94 3d
       0.05440726 -0.0052211396 -0.019331358 0.07261813

fc3.bias f4 [96]
000000 db b2 6a 3d 7d 6c 20 3d 40 03 53 3d e8 05 17 bd
       0.057299476 0.039165962 0.05151677 -0.036870867
000010 cd 47 96 3d 15 d4 e0 3c 4d 87 91 3d 61 77 0c 3c
       0.07337914 0.027444879 0.07105885 0.008573384
000020 85 68 ac 3d ba 0a 57 3d f5 4e c8 3d d8 f5 bb 3d
       0.08418373 0.052500464 0.09780685 0.0917775
000030 15 9e c7 3d d8 13 5b bd 94 a0 50 bd 91 8a b5 bc
       0.09746949 -0.05348572 -0.05093439 -0.0221608
000040 a6 a9 54 bd a3 93 ff 3b 2d 37 56 bd b2 f6 1f bd
       -0.0519196 0.007799582 -0.052298713 -0.039053626
000050 70 2c 1d 3d 8d 07 c0 3d 51 b9 2e bd bd 97 5d bd
       0.038372457 0.0937644 -0.0426572 -0.054099787
000060 bc 03 92 3c 5b eb ce 3c 59 b1 44 bc c3 dd 8a bd
       0.017824046 0.02525871 -0.012005174 -0.06780579
000070 5a 30 f1 bc f5 93 92 3d b3 ff 45 bd 1a 98 0b bd
       -0.029442001 0.07157127 -0.048339557 -0.034080602
000080 1a 57 0f 3d 37 e8 0f 3d 7b eb b3 bc e4 f2 5b bd
       0.034995176 0.035133567 -0.021962872 -0.053698435
000090 44 a9 b0 bc e6 38 72 3d 7f a5 bd 3d 4d f4 61 bc
       -0.021565087 0.059136294 0.092600815 -0.013791156
0000a0 5e 43 af 3d f3 db d3 3c 88 04 30 3d 00 fc cb 3d
       0.08557771 0.025861716 0.04297307 0.099601746
0000b0 82 1d 67 3b 69 31 6d 3a c9 4b 0c bd c7 3c 16 bb
       0.003526539 0.0009048195 -0.03425196 -0.002292441
0000c0 c7 be fd bc 9c 17 8f 3d bc 82 bc 3b 5c d7 db 3b
       -0.030974759 0.06986925 0.0057528894 0.0067090224
0000d0 de af 1e 3d 5e a3 fa 3c 68 c9 18 bd f2 67 04 3d
       0.03874194 0.030595478 -0.03730145 0.032325692
0000e0 8c 6e 0d 3d 55 1a 46 bd e7 61 90 3c b5 16 48 bd
       0.034529254 -0.048364956 0.017624808 -0.04884978
0000f0 f9 ff b6 ba 71 9d d9 3c dd bf a6 bc 33 39 72 bd
       -0.0013961784 0.026564332 -0.02035516 -0.05913658
000100 bb c5 59 3d 8f 7b 81 3d f4 1f 65 3d 80 9f 95 3d
       0.053167086 0.06322395 0.055938676 0.07305813
000110 7a e3 99 3d 37 85 36 bc 95 b2 14 3d 83 7c 16 3d
       0.07514091 -0.011140159 0.03630312 0.036739837
000120 cb 8c d1 3d 95 40 df 3c 00 95 c7 3d 3d 73 86 3d
       0.10231932 0.027252475 0.09745216 0.06564949
000130 a8 b6 be 3d 8c 5a b4 3d 95 3c c6 3d 7e d8 82 3d
       0.09312183 0.08806333 0.09679524 0.06388949
000140 cf 7f ca 3c fb 55 31 bd ec fb 67 bc f5 f5 36 3c
       0.024719147 -0.043294888 -0.014159184 0.011167039
000150 58 d1 85 3d c6 0e 89 ba 84 74 30 3c 7f 7a 3b bd
       0.0653407 -0.0010456673 0.010769967 -0.04577112
000160 05 32 a9 3d 2e ac 5f bd 4f b9 ef bc ad ca 3b bd
       0.082614936 -0.054607563 -0.029263167 -0.045847584
000170 9e ce e0 3d 77 8f ce 3b e3 20 53 3d cc e2 b6 3b
       0.10976909 0.0063037234 0.051545035 0.0055812355
