Assets/TestVRMovement/bone_model.onnx (onnx, 91448 bytes, 6 tensors)

fc1.weight f4 [64, 18]
000000 28 0e 83 3d 10 3e 5a 3e 15 b4 82 3d 53 34 01 3d
       0.063991845 0.21312737 0.06382004 0.03154404
000010 03 e7 1c bc 17 ed 60 be f8 b2 a2 bd 6c 9b ae bd
       -0.009576562 -0.21965443 -0.07944292 -0.08525738
000020 11 6c 65 3e be 94 70 be f1 11 e4 bd 6c f9 17 3e
       0.22404505 -0.2349424 -0.111362346 0.1484124
000030 e3 a1 50 3d 10 dc 87 be 18 e9 2b 3d d6 b1 eb bd
       0.050935637 -0.26535082 0.041970342 -0.11508529
000040 f1 1c ba 3a df 61 be 3d e7 c2 a2 be 8d 7a bd 3d
       0.0014199299 0.09296011 -0.31789324 0.0925189
000050 20 23 2a bd 9b 50 0f 3e 36 a4 5d 3d b4 f4 fc bc
       -0.041537404 0.13995592 0.054111682 -0.030878402
000060 ce 11 33 be 70 b5 74 3e 30 9c 8c 3d 39 af 35 bd
       -0.1748726 0.23897338 0.06865728 -0.04435656
000070 ec 5f 7b be c0 57 6e 3d 92 38 8f bc 11 53 d4 3d
       -0.2454831 0.058189154 -0.01748303 0.10367406
000080 78 45 83 3d 49 01 79 bc 60 7f 2f be 0a fa 61 3e
       0.064097345 -0.01519806 -0.17138433 0.22068039
000090 16 4d 8a 3d 1a 03 ee 3d 1c 19 e2 bd 00 ad b1 3d
       0.06752984 0.11621685 -0.110399455 0.08675575
0000a0 8b c0 37 3e f2 af 0f 3d bb f0 7a 3d a7 d8 1a be
       0.17944543 0.035079904 0.061264735 -0.15121709
0000b0 a9 0b e8 3d 47 6e 2a bd 7b 75 38 bd 5f b5 e0 3d
       0.11330349 -0.041609075 -0.045033913 0.10972094
0000c0 83 f8 0a be e1 6c 73 3e 79 f3 55 be 26 1d 20 3e
       -0.13571362 0.23772003 -0.20893659 0.15636119
0000d0 23 d5 38 3e 08 d6 19 3d 25 3a 07 bf d0 6d 32 3e
       0.18050055 0.03755763 -0.52823097 0.17424703
0000e0 52 fb 3c 3f e7 54 2e 3c 9a e6 c3 bb 30 7e 06 3c
       0.73820984 0.0106403595 -0.0059784176 0.008208796
0000f0 1c 2b 3d 3e 1f 28 9f bc 86 ce bb 3e 8c 18 ab b9
       0.18473476 -0.01942831 0.36681002 -0.0003263395
000100 d4 08 86 bc e1 03 0a 3a 67 e2 ee be 54 a3 a3 bd
       -0.016361631 0.000526486 -0.46657106 -0.07990137
000110 68 2c 8f 3d 2b 02 56 3b d4 f4 90 bd d0 49 e4 3c
       0.06990892 0.00326551 -0.07077947 0.027867228
000120 26 51 06 be 6c 66 57 be f6 4e f8 bc e8 fd 18 3e
       -0.13116893 -0.21035165 -0.030311089 0.14940608
000130 e6 c0 aa bd f8 64 27 3e c9 68 94 bd 02 87 44 bd
       -0.08337574 0.1634711 -0.07246549 -0.047980316
000140 3b ee 8f 3c f4 37 97 3d 72 1f b2 3d 69 7b 61 3e
       0.017569652 0.07383719 0.08697404 0.22019733
000150 8c c4 37 be ad 23 4f 3e 90 f4 29 3e 4e c9 61 3e
       -0.1794607 0.20228453 0.165972 0.22049448
000160 e1 20 23 3e 82 ae 1b 3d 0e e2 78 bd 2c 2c 55 be
       0.15930511 0.03800822 -0.060762458 -0.20817631
000170 c8 3a 66 be 05 54 5b 3e 35 20 34 bb c3 40 d7 bd
       -0.22483361 0.2141877 -0.0027485017 -0.10510399
000180 62 ac 59 3e 92 71 4f bd f7 fa df bd 97 47 c1 3d
       0.21257165 -0.05064542 -0.109365396 0.09437483
000190 6f e5 ec 3d 03 3f 51 be db 69 69 3c 75 79 35 3e
       0.115671985 -0.20434193 0.014246429 0.17722113
0001a0 54 4d 63 3e 45 da 2b 3e 05 b0 c0 bd 31 dd 25 bd
       0.22197467 0.16782482 -0.09408573 -0.040494148
0001b0 be 54 58 3e 04 e4 54 3e aa 21 88 3e 65 fe 38 3e
       0.21126077 0.20790106 0.26588184 0.18065794
0001c0 df 96 f0 3d 74 f4 60 be b6 47 6e be 70 ff 22 3e
       0.117475264 -0.21968251 -0.23269543 0.15917754
0001d0 da 0d 48 3e ac dd 62 bd 5a 43 89 bd b2 7b 88 bd
       0.19536534 -0.055387184 -0.067022994 -0.06664218
0001e0 6f eb 51 3e 28 35 eb 3c de 2c 6f be 7f de 51 3d
       0.20499967 0.02871187 -0.23356959 0.05123758
0001f0 03 00 92 bd f7 b4 12 be 81 82 3a be 2a 99 eb 3d
       -0.071289085 -0.14326845 -0.18213846 0.11503823
000200 04 2e 8f bd 6c 95 4d 3e d6 d1 14 bd aa a5 8e 3d
       -0.06991199 0.20076531 -0.036332928 0.06965192
000210 56 4d 06 3e 3f 25 67 3e 91 a3 70 bc 1c ed 3d be
       0.13115439 0.22572802 -0.014687435 -0.18547481
000220 e5 72 34 3e 51 ae 66 be f4 a8 14 3e f4 c7 50 3e
       0.17621954 -0.22527434 0.14517576 0.20388776
000230 82 88 c5 bd 66 1a 10 3e e2 a2 01 bc d3 21 66 3e
       -0.096451774 0.1407257 -0.007912369 0.2247384
000240 88 cc 0e bd 2b 23 cf 3e dc 36 24 be d6 31 70 bd
       -0.034863025 0.4045652 -0.16036552 -0.058641277
000250 fe 26 8a 3e 84 3e 8a be cb 54 5f 3e 45 57 61 3e
       0.26982874 -0.2700082 0.2180969 0.22005947
000260 47 11 ad bd e1 e7 a2 3c ae b3 8e 3b 85 3c 0c bc
       -0.08450561 0.01988596 0.0043549156 -0.008559351
000270 0a 07 27 be 94 70 8c be 39 4c f3 3e f2 e3 42 3c
       -0.16311279 -0.2742964 0.4751909 0.011895167
000280 74 9b bd bc 48 e7 20 3c 64 95 26 be 30 95 42 bc
       -0.023145415 0.009820767 -0.16267926 -0.011876389
000290 a0 c8 ec bc 2c 62 e0 bd c6 68 c4 3d 46 d6 d3 bd
       -0.02890426 -0.10956225 0.095902964 -0.10343604
0002a0 ea 8d 91 3d c8 9b 91 bd 84 55 b5 bd 20 88 09 3c
       0.07107146 -0.07109791 -0.088542014 0.008394271
0002b0 54 cb 09 be 44 96 0d 3d ba d1 17 be 1c e9 68 be
       -0.1345647 0.034567133 -0.14826098 -0.22745174
0002c0 5e 45 6b be e6 19 c4 3d 40 52 e8 bb d6 c7 5d be
       -0.2297568 0.09575252 -0.007089883 -0.21658263
0002d0 9f 69 05 3e cd 43 71 3e 80 57 db 3d 00 65 f3 bb
       0.13028572 0.2356102 0.10710049 -0.0074278116
0002e0 b3 6a 2e be 2a d0 ec 3c ee de 29 3e 58 eb 76 bc
       -0.1703289 0.028907854 0.16588947 -0.015070759
0002f0 5b ec d4 bd 15 51 27 3e 0d 59 ad bd 93 ce 23 3d
       -0.10396644 0.16339524 -0.08464251 0.039991926
000300 6b 4d 0c be 06 52 36 3e 90 75 34 be 27 bd 6a 3e
       -0.13701408 0.17804727 -0.17622972 0.22923718
000310 83 76 0f 3e 83 0b 26 3e 5d 74 0e 3e d6 a0 aa bd
       0.14010052 0.16215329 0.13911577 -0.08331458
000320 07 2d e3 3c 5c 77 d5 3d 22 0e 90 bd 84 ed 75 3c
       0.027731432 0.104231566 -0.070339456 0.015010241
000330 c6 f9 2a 3e a1 1f 0c 3e 9a 08 87 3e 3b 8a f6 3d
       0.16696844 0.1368394 0.2637375 0.12038084
000340 b9 78 f8 bd e5 69 12 be 30 d7 53 3d ce c1 35 3d
       -0.12132401 -0.14298208 0.05171889 0.04437428
000350 3c 9c 93 3c ee 98 e1 bd f8 51 3f bd 1d e3 5e 3d
       0.018018834 -0.11015497 -0.04670903 0.05441581
000360 98 87 02 3e 5b a8 cd 3e 6c 72 a5 be d8 17 83 3d
       0.12747037 0.40167508 -0.3231386 0.06401032
000370 90 eb 49 be eb dd 57 3c e9 ce 0b bd 24 5f 32 be
       -0.19718766 0.013175468 -0.03413287 -0.17419106
000380 05 cb 53 be 29 c7 94 bd 55 98 be 3d ea 49 e0 3e
       -0.20682915 -0.07264549 0.09306399 0.43806392
000390 c9 5b 09 be 52 04 4f be 81 63 21 be f4 a9 3b 3e
       -0.1341392 -0.20216492 -0.15760614 0.1832655
0003a0 a2 a8 ce 3c 88 2f 9d bc 2e 04 23 3d 7f eb 16 3e
       0.025226895 -0.019187704 0.039798908 0.14738272
0003b0 f8 45 51 be 8a 08 34 bd 56 ca 2a be 97 ee 27 3e
       -0.20436847 -0.043953456 -0.16678748 0.16399609
0003c0 50 ff 78 3e 6e 68 75 3e b1 70 93 bd 6f 86 53 bb
       0.24316144 0.23965618 -0.071992286 -0.0032276174
0003d0 75 9d f7 3d ef 2b 92 bd 5b a3 b8 3d 98 7c 02 3d
       0.120905794 -0.07137286 0.090155326 0.031857103
0003e0 8b f7 6d 3e 8a 93 20 3e 81 2c 5a be 64 8e 52 3e
       0.23238961 0.15681282 -0.2130604 0.2056213
0003f0 e5 c3 b9 3b 86 6a 66 be 21 f1 cd 3d bb 94 06 3c
       0.0056691044 -0.22501573 0.10055757 0.008214171

fc1.bias f4 [64]
000000 a4 d3 4e 3e 88 13 e5 3d 50 03 f2 3d fb 1a 81 be
       0.20197922 0.11185366 0.11817038 -0.25215897
000010 c9 58 74 3e 3b 44 86 3e 25 dd 01 3e 0d b2 e6 3b
       0.23861994 0.2622393 0.12682016 0.0070402683
000020 b0 95 6c be e7 68 55 3e 7f 0a 97 bb ac db 11 3b
       -0.23103976 0.20840798 -0.0046094055 0.0022256179
000030 c8 c1 af bd 78 eb e4 3d 9d 53 27 be c0 3b e0 bc
       -0.08581883 0.111777246 -0.1634049 -0.027372241
000040 12 e2 9f 3e f9 b7 df bd 75 52 0f 3e 62 58 8c be
       0.31227165 -0.10923762 0.13996299 -0.2741118
000050 3b 25 82 3e 1a 23 25 be 7c 38 42 3e ac 01 26 3e
       0.2541903 -0.16126671 0.1896686 0.16211575
000060 94 c9 18 be 0c ca 3f 3e 13 35 d0 3d 46 41 79 3e
       -0.14920646 0.18729419 0.10166373 0.24341306
000070 9d ac a5 3d a8 e9 89 3e 27 be 50 3d ec af 38 bd
       0.08089564 0.26936078 0.050962593 -0.045089647
000080 8a 97 ee 3d 42 60 2a be 54 c4 71 bd ae af f6 3d
       0.116499975 -0.16638282 -0.059025124 0.12045227
000090 a3 58 03 bc 3c 5d 98 3e c5 40 1b 3e ad c6 a9 3d
       -0.008016738 0.29758632 0.15161426 0.082898475
0000a0 e1 5a 3c be ae 9f f1 bd 67 db ca 3d d2 04 bc bc
       -0.18394043 -0.117980346 0.09905129 -0.022951517
0000b0 4f bd 11 bf 87 0e 17 3d 2b d2 86 3e 28 2c 34 bd
       -0.56929487 0.03687909 0.2633222 -0.043987423
0000c0 fe 6e 54 be 56 24 43 bd de 20 54 3e 7c 38 07 bc
       -0.20745465 -0.047642075 0.20715663 -0.008253213
0000d0 5b 65 27 3e 89 fe bb bd bc cc 73 3e c2 31 b5 3d
       0.16347258 -0.09179408 0.23808569 0.08847381
0000e0 a5 10 52 3e ba 17 a1 bc a0 c3 02 3e ae 5c 0c 3e
       0.20514162 -0.019664634 0.12769938 0.1370723
0000f0 b6 79 29 3e 7c 5c 5b be fb 08 4e 3c 9f 2b 3b 3e
       0.16550335 -0.21421999 0.012575383 0.18278359

fc2.weight f4 [128, 64]
000000 aa c6 8f bb fa 06 13 3c b6 dc 20 3d e8 09 42 be
       -0.0043876963 0.008973831 0.039272986 -0.18949091
000010 0e 95 9a 3c 14 00 f4 3d 7b a2 d9 3b 6d 4b b2 3d
       0.018869903 0.119140774 0.0066416836 0.087057926
000020 78 78 fa 3c 40 6f 23 3b 5f 52 90 3b 38 2c f6 3d
       0.030575022 0.0024938136 0.0044043506 0.12020153
000030 81 5c 70 be 2e 8d 49 bd ea 25 03 be 38 42 fc 3d
       -0.23472787 -0.049206905 -0.12807432 0.12317318
000040 4a 8c f2 bd ac 25 96 3e 2e a5 8b bd 93 34 32 bd
       -0.11843164 0.29325616 -0.06818615 -0.04350717
000050 c3 ce 05 3e 18 e5 ed bd cc 4f 70 3d ae 8b 77 3d
       0.13067155 -0.11615962 0.05866985 0.060435943
000060 13 68 d5 3d 1c 18 15 3e a6 47 f7 bd 1f 4c 14 3e
       0.10420241 0.14559978 -0.12074213 0.14482163
000070 f5 13 6a 3d 3d cd 6a bd 44 17 aa bd 92 40 e8 3d
       0.05714794 -0.057324637 -0.08305219 0.11340441
000080 1c f9 46 bd 91 d2 e1 bd 2d 74 31 3e 21 36 13 3e
       -0.048577413 -0.110264905 0.17329474 0.14376117
000090 10 ed ff 3c c3 01 06 3e f3 1c d7 bd a9 b1 07 3e
       0.03124097 0.1308661 -0.105035685 0.13251366
0000a0 8a ad 83 3d 5e 38 e5 3d 92 60 ff 3d 36 33 b1 3c
       0.06429584 0.11192392 0.12469591 0.021630865
0000b0 b0 98 18 be 4e cb 25 bd 26 1e 66 3c fb a5 ec 3c
       -0.14901996 -0.04047709 0.014045274 0.02888774
0000c0 a1 ae 71 3e 6e 4d a5 bd 0c ae 3e be 6f 39 03 3e
       0.23601772 -0.08071409 -0.18621081 0.12814878
0000d0 0b e2 48 3d a4 a6 b6 bd 61 a5 06 be 4a a8 ce 3c
       0.049043696 -0.08918503 -0.13149025 0.02522673
0000e0 f0 cd 92 bd 85 7d 0f 3c 32 05 b7 3d 9f 59 5b 3d
       -0.07168186 0.0087579535 0.08936538 0.053552266
0000f0 d4 7d 9c bd 02 ef 42 bc 5f 71 ab 3d 5f 46 ad bc
       -0.07641187 -0.011897804 0.08371233 -0.02115172
000100 5f 75 2c bc c8 e5 46 bc 35 db f3 3c e3 c5 17 bf
       -0.01052603 -0.012139745 0.029767612 -0.59286326
000110 9a 8d 95 3b ac 1f 33 bd ee 84 a6 3d 33 c8 8d bd
       0.0045639994 -0.043731377 0.08130823 -0.069229506
000120 95 e0 4c 3e b4 be 2f bd 93 5f f0 3c bf fe dc 3c
       0.20007546 -0.042906478 0.029342448 0.026976941
000130 c8 f8 68 3d 73 62 08 3e c5 68 5e 3d 60 42 26 bc
       0.05687788 0.13318805 0.054299135 -0.010147661
000140 ad 64 03 3f 8f 9c ab be d3 d3 a4 bc 21 14 20 3c
       0.51325494 -0.33517882 -0.020120537 0.009770424
000150 8d 30 cd 3d b4 42 1c bd de 78 4a 3d 14 80 ac bd
       0.10019026 -0.03814955 0.049431674 -0.084228665
000160 2d 94 cc 3d a7 f2 86 bd 74 53 e3 3d 69 cc f5 3d
       0.099892 -0.06589251 0.11099902 0.12001879
000170 84 d4 01 3d 6b bf b6 3d d1 98 96 bd 68 8f 82 bc
       0.03169681 0.08923229 -0.07353366 -0.015937522
000180 5e d3 b7 bd 70 cc cc bd 13 8d 51 be b9 2a 5f 3d
       -0.08975862 -0.09999931 -0.20463972 0.054484103
000190 29 4f d2 bd 96 d8 31 bc 98 ca 4c bd f1 65 80 3d
       -0.10269005 -0.010854861 -0.049997896 0.06269444
0001a0 10 d7 c3 3d 59 c9 50 3d 10 80 a3 bc 9b aa 11 3c
       0.09562504 0.05097327 -0.019958526 0.008890773
0001b0 b8 3d 4e be fc a1 98 3d 3c a4 14 be c7 3e 97 bd
       -0.20140731 0.07452771 -0.14515775 -0.07385021
0001c0 e1 4c e1 bd 5d 23 94 bc 37 ca 8e 3d 35 1c 48 3d
       -0.110009916 -0.018083269 0.06972163 0.048855025
0001d0 97 be ff 3c b1 4c 6b 3d 7c 2a 9a bd 8b 17 00 3e
       0.03121881 0.057446185 -0.075276345 0.12508981
0001e0 b8 43 ba 3c de 64 82 bd a0 6d 47 3e 96 c0 5c bd
       0.022737369 -0.06366895 0.19475412 -0.0538946
0001f0 65 f9 d3 bd 9a d5 00 3e a5 1b 4e bd 74 7a 41 3d
       -0.103503026 0.12581483 -0.050319333 0.04723592
000200 80 13 6f bb 88 2b 53 bd 04 45 96 3d f8 3c d6 3d
       -0.0036480129 -0.051555187 0.073373824 0.104608476
000210 90 38 b5 3c 2e bb c6 bd fe d4 f7 3d 80 82 9e 3d
       0.022121698 -0.097036704 0.12101172 0.07739735
000220 70 10 06 bc 2e 9e 8b bd 02 f9 ec bd 00 e0 ae b8
       -0.00818263 -0.0681728 -0.11570932 -8.33869e-05
000230 96 79 b2 3d b8 85 a0 bc 4a 8d f9 bd a0 5b a5 bc
       0.08714597 -0.019595012 -0.12185152 -0.020185292
000240 90 23 87 3d c0 af 28 bc 84 13 64 3d b2 81 b0 3d
       0.0659858 -0.010295808 0.055682674 0.086184874
000250 76 4b fd bd 3c 64 ef bd e8 9b f0 bd 80 3e 81 3c
       -0.12367909 -0.1168904 -0.11748487 0.015776873
000260 f4 a3 97 bd 78 fa 9f bc 94 44 64 3d b0 68 fb 3d
       -0.074043185 -0.019528612 0.055729464 0.12275827
000270 80 f7 05 bc d0 ed 0a bd 70 d1 36 bd 58 ca 47 3d
       -0.008176684 -0.033918202 -0.04463333 0.048776954
000280 4c 80 af bd 8e 50 d5 bd 08 07 72 3d 20 6d 57 bc
       -0.085693926 -0.10415755 0.059088737 -0.013148576
000290 1c 21 94 bd d2 2d 9a bd ea 43 de 3d 0c 52 8a 3d
       -0.072328776 -0.07528271 0.10852797 0.067539304
0002a0 78 a4 cc 3d 68 70 e5 bc 40 7b 42 bd e8 18 60 3d
       0.099923074 -0.028007701 -0.04748082 0.054711252
0002b0 10 ee 7c 3c 0c 0c 06 3d 72 14 e5 3d 10 ac 09 bc
       0.015437618 0.032726333 0.1118554 -0.008402839
0002c0 58 9a 19 3d 8c ee fd bd 00 4f fb 3b 9c 0c 93 bd
       0.03750071 -0.12399015 0.0076693296 -0.071801394
0002d0 3c ad 7a 3d f4 8e 5c 3d 34 da 35 3d 80 93 ef bd
       0.061200365 0.05384727 0.044397548 -0.11698055
0002e0 98 56 41 bd a8 46 ce bd b8 94 53 3d f0 81 e7 bd
       -0.047201723 -0.1007207 0.0516555 -0.113040805
0002f0 74 e1 95 bd 1c a9 83 bd b0 2b 89 3c e0 81 84 3b
       -0.073183924 -0.064287394 0.016744465 0.0040438026
000300 45 94 98 3d af 11 9e 3d 72 ba 79 3d ae 0f 9a 3c
       0.07450155 0.07718217 0.060968824 0.018806305
000310 2b 86 d7 3d 38 22 a2 bd bf 94 83 3d dd d1 0c 3d
       0.105236374 -0.07916683 0.064248554 0.03437983
000320 4c 13 a0 3e dc dc 1a 3d 26 0b a2 bd ae 6c 8c 3d
       0.31264722 0.037808284 -0.07912283 0.068566665
000330 f9 64 cb bd 83 12 29 bc cb f1 94 bd 94 98 83 bd
       -0.099313684 -0.010319355 -0.07272681 -0.06425586
000340 7c a8 1b bf 52 ea 8c bc 02 a4 12 3e 50 a2 9b 3d
       -0.6080396 -0.017201576 0.14320377 0.07599318
000350 3f 98 80 3d 50 c4 d5 3c 13 72 83 3c 2d 32 89 bd
       0.06279039 0.026094586 0.016045606 -0.066990234
000360 f7 a7 b7 3d 8c 1e d6 3d af bc b2 bd 10 29 9d 3d
       0.089675836 0.10455045 -0.08727395 0.07673848
000370 bc 34 0f 3d 55 b6 03 3e 5a 52 ae bd a8 a5 be 3c
       0.0349624 0.12862523 -0.08511801 0.02327235
000380 66 7a bd 3d 02 72 9e 3a 2b f8 30 3e 23 fb 2a 3e
       0.09251861 0.001208842 0.17282169 0.16697364
000390 72 55 02 3d f9 10 15 3d 2d 9d 05 3e 5d 14 c1 3d
       0.03181977 0.03639314 0.13048239 0.09427712
0003a0 0b 0e 40 3c ff 2a b8 3d ea 16 b9 3c 28 24 49 3d
       0.011722098 0.08992576 0.022593934 0.049106747
0003b0 fd c0 4c 3d 19 ed 00 be bd a3 ab 3d 5d a1 ba bd
       0.049988735 -0.12590446 0.0838084 -0.09112809
0003c0 49 32 87 3e c5 a7 a7 3d 88 d5 bc bd 1a e7 88 3d
       0.26405552 0.081862964 -0.09220415 0.06684704
0003d0 d3 ac c5 bd 2d 91 08 3e 4c 26 0b be 6a 45 4f 3d
       -0.09652104 0.1333663 -0.13588828 0.050603308
0003e0 db cd 2c 3d d8 b1 2b bd 34 2e 7a 3e 04 a7 df 3d
       0.042188507 -0.041917652 0.24431688 0.109205276
0003f0 02 a7 96 3d 36 6d 91 3d fa f8 c4 3d 2a b5 8f bd
       0.07356073 0.071009085 0.09617801 -0.07016976

fc2.bias f4 [128]
000000 11 af c6 bc 22 65 fc 3b 2a 08 fa bd 50 7b b1 3a
       -0.0242534 0.0077024857 -0.122085884 0.0013540778
000010 e6 1c 91 3d da 95 6b 3d d3 a5 26 3d c7 ae 5e 3e
       0.0708559 0.057515956 0.040685486 0.2174636
000020 ac 70 0a 3e 8b 48 80 bd 4c a0 c3 3d 82 1a b3 bd
       0.13519543 -0.062638365 0.095520586 -0.0874529
000030 77 6a 8b 3d 35 d6 b8 3d aa 70 b3 bd b6 18 64 3d
       0.06807416 0.09025232 -0.08761723 0.05568763
000040 27 ce 48 3d ce 1a 23 3e c5 d7 52 3d f2 26 ee 3d
       0.049024727 0.15928194 0.051475305 0.11628522
000050 bf ab 27 3d 11 66 0f 3e 72 48 bc bd a0 1d ef 3d
       0.040935274 0.14003779 -0.09193505 0.116755724
000060 18 48 2e bd 47 5f 74 bb ee 48 e2 bc 26 31 23 3e
       -0.042549223 -0.0037288235 -0.027622666 0.15936717
000070 43 5c dd 3d de 70 9a 3d 29 87 d0 bc 1f 59 29 3d
       0.10808613 0.07541059 -0.025455074 0.041344758
000080 f9 9e 1d 3e 96 10 75 bd 70 d9 0d 3c 73 72 cd 3c
       0.15392675 -0.05983027 0.008657798 0.025078988
000090 59 5b 07 3e a8 eb e6 3b d0 4f 50 3d 6d 3e 90 3c
       0.1321844 0.0070471354 0.050857365 0.017607892
0000a0 69 39 8c 3d 1f 6b be bd b8 de a7 bd ac 9f e5 bd
       0.068468876 -0.092977755 -0.08196777 -0.112120956
0000b0 9f 82 12 3d e3 ea 29 3d 90 2e b2 bd 20 26 d1 3d
       0.0357691 0.04148377 -0.08700287 0.1021235
0000c0 a0 d9 cd bd 6c b1 af 3d 1a 28 d8 bd e6 f3 f8 3d
       -0.10051274 0.085787624 -0.10554524 0.12155895
0000d0 a9 9a d3 bc 24 9f 96 3d 49 ea bb bd 26 6a 97 bd
       -0.025830584 0.073545724 -0.09175546 -0.07393293
0000e0 19 f9 e7 3d 55 c6 8a 3c 32 4e 9b bd 6d 64 82 3d
       0.113268085 0.016940275 -0.07583274 0.06366811
0000f0 6c d5 fa bd f1 8e 85 3d 5d 4b 2c 3c 83 21 c6 bd
       -0.12247738 0.065214045 0.010516015 -0.096743606
000100 98 0e f7 bd 20 fb 1c be 01 d4 bd 3d e4 0b 4a 3d
       -0.120633304 -0.15330172 0.09268952 0.049327746
000110 67 06 a6 3e 1c 7b 3f bd cf 52 db 3d 94 1a 3e bd
       0.3242676 -0.046748266 0.10709154 -0.046412066
000120 45 7b 80 bd a2 e4 18 3e 6c 92 e5 3d c2 44 88 3d
       -0.06273512 0.14930966 0.112095684 0.066537395
000130 36 25 f9 3d b1 e6 8e 3b d7 08 3c 3d 62 fd ff bd
       0.121653005 0.0043609967 0.045906868 -0.12499501
000140 c9 62 37 3d 00 bb a3 bd 2b 11 63 bc a5 b0 ea 3d
       0.044771943 -0.07994652 -0.013859074 0.114594735
000150 c4 c2 ea bd 8e f6 94 bc d6 5c 6e bb 1f 8a b8 3d
       -0.1146293 -0.018183973 -0.0036371252 0.090107195
000160 27 c9 58 bc 49 31 51 bc d4 d9 f1 3d 7f e5 1f 3d
       -0.013231552 -0.012768098 0.118091255 0.039037224
000170 d3 5b f4 3d 4d af 08 3e e1 72 10 3e 0a 63 07 3e
       0.119315766 0.13348122 0.14106323 0.13221374
000180 ab c0 a3 3b de d6 db 3d 74 8a 4a bd 50 9a cb 3d
       0.004997333 0.10734342 -0.049448445 0.09941542
000190 fe 9b fd bd 28 a5 ad bd 1c 95 47 bd ce 28 b5 bd
       -0.12383269 -0.08478767 -0.048726186 -0.088456735
0001a0 bb 8a cb 3d 92 09 ef 3d e7 b7 8e 3b 75 7e b3 3d
       0.0993857 0.11671747 0.004355419 0.08764354
0001b0 4b ba f8 3d d1 36 02 3c 8f 2d bd 3c c1 ed d8 bc
       0.121449076 0.00794764 0.023093013 -0.026480557
0001c0 b4 66 b8 bd c2 f6 e0 bd 54 0f c0 3c 77 68 a1 bb
       -0.09003964 -0.10984565 0.023444809 -0.0049257833
0001d0 20 13 6f bc ce 5b b8 3d ca 0d fb 3d 38 b3 9b bd
       -0.014591962 0.09001885 0.122584894 -0.07602543
0001e0 72 ff 10 3e d4 dd 81 bb 41 d4 93 bd 6c 44 7f bd
       0.14159945 -0.0039632116 -0.072182186 -0.06232111
0001f0 cc db 27 bd 85 ec 43 bd 03 cb 0b 3e 55 66 7e 3d
       -0.0409811 -0.047832984 0.13651662 0.06210931

fc3.weight f4 [102, 128]
000000 c2 5f 76 3d 84 23 b5 3d 3e cf 8c bd cc 3b 42 bc
       0.060149916 0.08844665 -0.06875466 -0.011855077
000010 19 ab 84 3d 5f 4e 79 3d 8c 9c 31 3d 68 09 0c 3c
       0.06477947 0.060865756 0.043362185 0.0085471645
000020 4d c8 8d 3d 17 ac 62 bd ff df a6 3c ae 58 54 bb
       0.0692297 -0.0553399 0.020370482 -0.003240149
000030 b4 ee b5 3d 76 fe de 3c 99 88 62 bd fe f3 81 bd
       0.0888342 0.027220946 -0.05530605 -0.06345366
000040 20 27 aa 3d 0b d4 a6 bb ee 67 ce 3d 04 88 66 bd
       0.08308244 -0.0050911955 0.10078417 -0.05628206
000050 c6 12 14 bd 71 f6 3b 3d b5 dc 83 bd 5c 91 1c 3d
       -0.036150716 0.04588932 -0.06438581 0.038224563
000060 0f af b0 3d 57 1d 9a bb 26 43 08 bd fe a8 bf bc
       0.0862714 -0.0047032046 -0.033267163 -0.023396011
000070 4d 8e 0c 3d 64 9e a3 3d e8 13 88 bc e2 1b 6c bd
       0.034315396 0.07989195 -0.016611055 -0.05764378
000080 b4 ea b6 bc dc d7 9e bd cf 49 98 3d 22 21 de bc
       -0.022328712 -0.07756016 0.07435953 -0.027115408
000090 51 c3 93 bc 06 a8 1a bd 69 0b b9 3d 40 22 51 3d
       -0.01803747 -0.037757896 0.090353794 0.051058054
0000a0 35 06 b8 3d 23 2e 32 3c e8 03 11 bc e1 56 32 bd
       0.08985559 0.010875258 -0.008851029 -0.043539885
0000b0 c4 01 9a 3c 68 83 1d 3d 8d 62 52 bd 33 b3 8c bd
       0.01879967 0.038455397 -0.051363517 -0.06870117
0000c0 64 29 38 3d dc 68 34 bc 4c 6f d2 3c e0 21 9e 3d
       0.04496135 -0.011011329 0.025687836 0.07721305
0000d0 12 0f 81 3c 78 4a 30 3b b4 e3 65 3d 23 cc 4d 3d
       0.015754256 0.0026899856 0.056125358 0.050243508
0000e0 88 42 b3 3d 55 e4 51 bd 88 5a d7 3b fd 15 96 3d
       0.08752924 -0.051243145 0.0065720715 0.07328413
0000f0 37 70 88 3c 09 af d3 3b ed f9 2e bd 1f 34 56 bc
       0.01665507 0.006460075 -0.042718817 -0.01307395
000100 b0 7b 79 bc e6 9d 31 bd 0d a3 72 3d 44 1c fc bc
       -0.015227243 -0.043363474 0.05923753 -0.030775197
000110 61 b2 5d 3d 21 2b 89 3d ec 72 0a 3d b2 05 77 3d
       0.054125194 0.06697679 0.033801004 0.060308166
000120 55 cf 62 3d 35 9d eb 3c 2d 45 89 bc 7b b2 7b 3d
       0.05537351 0.028761486 -0.016756618 0.06144951
000130 ed c3 bc bc 57 35 5e bd b8 ca ee bc 53 d6 94 3d
       -0.023042643 -0.054250088 -0.029149398 0.072674416
000140 8b c8 87 3c 52 3e 9e 3d 41 ab 06 3d 2a 1e 25 bd
       0.016575119 0.077267304 0.032878164 -0.04031197
000150 c5 81 a2 bd ae 8e 07 3d 2d d6 c8 3d 2a 49 1d bd
       -0.07934908 0.033095054 0.09806476 -0.038399853
000160 c0 eb 3d 3d c4 93 27 3c e7 fa d7 3a 36 ae 74 3d
       0.046367407 0.010228101 0.0016477973 0.059736453
000170 6c 20 81 3d b8 e9 0b bc 22 42 5b bd 70 e9 65 3c
       0.06305012 -0.00853961 -0.053529866 0.014032707
000180 7e c5 aa 3d ac 48 a0 bc 5f 71 29 3d 1b d8 70 bd
       0.0833845 -0.019565903 0.041367885 -0.058799844
000190 da c0 21 3d e2 3a 30 3d 55 2d 31 bd 5a 09 6f 3d
       0.03949056 0.043024905 -0.043256123 0.058358528
0001a0 8a d6 30 3c 31 12 5f 3d 4b b6 ac bd 28 f5 b3 bb
       0.010793338 0.054460708 -0.08433207 -0.0054918714
0001b0 a6 5c a8 3d a6 3b 91 3d a1 30 8b 3d 57 73 8a bc
       0.08220796 0.07091455 0.067963846 -0.016900701
0001c0 74 9c 95 bc 34 6f 15 bd de c6 35 3d 34 b5 21 bd
       -0.01826308 -0.036483005 0.044379108 -0.03947945
0001d0 ae 88 26 bc 35 8a 8d bd e3 09 53 3d 73 33 5a 3d
       -0.010164423 -0.069111265 0.0515231 0.053271722
0001e0 cc 8f ba 3c 25 58 c4 3d 53 71 d0 bd 9a c6 97 bc
       0.022773646 0.09587125 -0.10177865 -0.018527318
0001f0 96 ce 74 bd a1 a7 db 3b de 40 ae 3d f6 b3 8e bc
       -0.05976733 0.0067033325 0.08508466 -0.017419796
000200 46 25 9d 3d aa 0a ce 3c 50 6b 68 3c ac 47 48 3d
       0.07673125 0.02515157 0.014185742 0.048896477
000210 c2 7b 7b bc 8d bb 44 bd 70 39 f6 bc 73 65 ff bc
       -0.01534933 -0.048030425 -0.030056685 -0.031176304
000220 0e 79 09 3c e9 98 a8 bc 9f f6 be 3d 02 67 a1 3c
       0.008390678 -0.020580726 0.09324383 0.019702438
000230 01 5e 4b bd 8d ba 59 3d f4 ee 4c bd ca c9 59 3d
       -0.049650196 0.053156424 -0.05003257 0.053170957
000240 d3 f9 c4 bc 22 c6 c5 bc 5f d2 e9 3d ed 76 82 3d
       -0.024044907 -0.024142329 0.11417078 0.063703395
000250 e7 d3 a8 bc 7e fd 25 bc c7 62 a0 3c ce 73 01 bc
       -0.020608855 -0.010131238 0.01957835 -0.007901145
000260 b6 e0 94 bd 81 05 ed bb c1 80 90 bd 67 9f 7c bc
       -0.07269423 -0.007233322 -0.07055808 -0.015418864
000270 bb 08 0f 3d b6 64 65 bd db 2c 81 bc c9 55 f2 bb
       0.034920435 -0.05600425 -0.015768459 -0.0073954803
000280 49 a0 7b 3d db 46 9d 3d 2d 22 b1 bd 51 5c 2a bd
       0.061432157 0.0767953 -0.08649097 -0.041591946
000290 f8 9d a4 3c 35 64 2d 3d e9 5e 47 3d 3f ab 01 bd
       0.020094857 0.042331893 0.048674498 -0.031657454
0002a0 9b 97 91 3d f5 c9 5b 3c 60 83 7d 3b 40 39 6a 3b
       0.071089946 0.0134148495 0.0038683042 0.003573969
0002b0 c0 91 a4 3d ad 88 51 3b d8 1f f7 3c 6e 3a 09 bd
       0.08035612 0.0031972334 0.030166551 -0.03350299
0002c0 45 dd 1f bd 63 38 d3 3d 4c b5 df 3c 17 47 d0 3b
       -0.03902938 0.10313489 0.027308129 0.006356131
0002d0 45 02 b4 3d 03 4e cb 3d d1 80 83 bd 69 de 15 bd
       0.087894954 0.09926989 -0.06421054 -0.03658906
0002e0 56 18 64 3c 01 c2 1d bc b7 1d 49 3d 89 67 ec 3c
       0.013921818 -0.009628774 0.049100604 0.028857963
0002f0 b0 7b af ba 3a 21 bf 3d af 4c 95 bd ec 0f 16 3c
       -0.0013388302 0.09332509 -0.07290017 0.0091590695
000300 70 d9 3a 3c 22 99 05 bd c0 9b 80 ba bf 45 45 3d
       0.01140438 -0.032616742 -0.0009812042 0.04816222
000310 43 25 00 3e 70 f1 7b bd f6 cb 9d bd 43 cb a8 3d
       0.12514214 -0.06150955 -0.07704918 0.08241894
000320 a9 cc b5 3d 80 32 c7 3d 28 ce 2e 3d d9 b0 0e bd
       0.088769265 0.09726429 0.042677075 -0.034836624
000330 ca 24 1e 3b 33 06 ba 3b 81 29 99 bd 40 45 f4 bb
       0.0024130815 0.0056770085 -0.07478619 -0.0074545443
000340 90 3c ff bc 4e b4 5b 3c 35 73 1b bd a5 f1 a9 3d
       -0.031156808 0.013409687 -0.037951667 0.08298043
000350 9c 48 de 3c dc 33 83 bd b3 48 13 ba a5 cb 6d 3d
       0.027134232 -0.06406376 -0.0005618438 0.05805554
000360 f7 e3 c3 bb 66 f7 0d 3d e4 67 9b 3d fe 90 1e bd
       -0.0059781033 0.034659766 0.07588175 -0.038712494
000370 7b b5 a6 3c dd 93 7d 3d d7 04 2f 3c de 36 e8 b9
       0.020350209 0.06190859 0.010682306 -0.00044291368
000380 d8 af 60 3d c8 81 c2 3c c4 e9 3e bd 5f 83 4c 3c
       0.054855198 0.023743525 -0.046609655 0.012482493
000390 4b c3 ab 3d b2 f0 a0 bb 88 b6 91 bc 93 84 ac 3b
       0.083868586 -0.0049115056 -0.017787233 0.0052648275
0003a0 85 da 48 3c 84 7a 6d 3c 45 72 5d 3d 1d 1a f6 3b
       0.01225913 0.014494542 0.054064054 0.007510437
0003b0 69 e2 56 3d 38 7b bc bb 0c 89 5e 3d ef 73 f5 3c
       0.052462015 -0.0057519935 0.054329917 0.029962508
0003c0 1b 2e a1 3d 45 ab 91 bd 6e d9 ef 3c cb 02 a3 bd
       0.07870122 -0.07112745 0.029278483 -0.07959517
0003d0 c0 bf ce 3b df 28 2a bd fa 15 a9 3a 7a e2 f8 bc
       0.0063094795 -0.041542884 0.0012900226 -0.03038143
0003e0 0c f8 83 3c f2 91 1c 3c b9 e7 c5 bc 9b b0 ad 3c
       0.016109489 0.00955628 -0.024158346 0.021202376
0003f0 b6 3a 21 3d 16 24 d5 bd 08 ed b4 3b 89 ac a4 bc
       0.03936263 -0.104072735 0.0055214204 -0.020101802

fc3.bias f4 [102]
000000 5e c5 15 3c 8f 0a 64 3d f9 2b 8d bc 86 61 9f 3d
       0.009141294 0.055674132 -0.017232882 0.07782273
000010 58 71 22 3d 64 8d 3d bc 12 85 bd 3d bd 55 ad 3d
       0.039658874 -0.011569355 0.09253897 0.08463619
000020 88 bc 56 bd 65 44 78 3d 4e d2 b0 3d 46 e2 6c 3d
       -0.05242589 0.0606121 0.086338624 0.05783298
000030 d1 0d ba 3c b5 7c 5a bb af e6 d1 bb 16 ab ab 3d
       0.022711666 -0.0033338491 -0.0064056735 0.083822414
000040 07 2a 4a bd 25 35 90 bc 68 14 4a 3b ee 04 d9 3d
       -0.049356487 -0.017603466 0.0030834917 0.105966434
000050 ff e7 33 bd 41 88 e3 3d 1e 9e 0f 3d c6 65 bc 3d
       -0.04392242 0.11109973 0.0350629 0.09199099
000060 74 cc 06 3c 17 a6 10 3c d0 fe 79 3d 39 2e 58 3d
       0.008227456 0.008828661 0.061034024 0.052778456
000070 86 e8 b2 3d d2 9b 10 bd 68 88 c1 ba 79 3a 88 3d
       0.087357566 -0.03530485 -0.0014765384 0.06651778
000080 e6 4e 45 bd 0b 13 c0 3d 55 6d 8a bd 97 b0 4f 3d
       -0.048170947 0.09378632 -0.06759135 0.05070552
000090 04 cb c3 3d e0 88 81 3a 6f 22 0c bc f2 df c0 3c
       0.095602065 0.0009882711 -0.0085531315 0.023544285
0000a0 bb 2a 15 3d 79 19 66 bc 4e 05 37 bc 73 97 e5 bc
       0.036417704 -0.014044159 -0.011170698 -0.028026318
0000b0 26 af 4a 3d 43 6d 55 3d a9 51 31 3d 91 61 32 3d
       0.04948344 0.052106153 0.043290768 0.043550078
0000c0 12 83 14 3d 13 f0 c0 3d 4a 1f f9 bc 9b e9 a9 bb
       0.03625781 0.094207905 -0.030410428 -0.0051853186
0000d0 43 4c 34 3c 8b 37 40 3d e2 aa 3f bd c0 f9 63 bc
       0.01100451 0.04692797 -0.046793826 -0.0139145255
0000e0 58 46 8f 3c 10 e6 d8 3d 76 ab d0 3c db 35 01 bd
       0.017489597 0.10590756 0.025472384 -0.0315455
0000f0 f2 70 3d 3d 69 2c 9a bc d2 64 c9 3c 19 52 7f 3d
       0.04625029 -0.018820005 0.024584208 0.062334154
000100 c2 68 a0 3d 4c 7d 60 3d 3d 32 d1 3d 91 10 53 3d
       0.07832481 0.054806992 0.1021466 0.05152947
000110 37 9a 34 bd d0 86 dc 3c 37 94 8e 3c 79 97 70 bd
       -0.044092383 0.026919752 0.017404659 -0.058738206
000120 b9 21 b3 bc c0 72 f0 3c 76 bb e4 bc 83 6c b3 3c
       -0.021866666 0.029351592 -0.02792142 0.021902328
000130 58 35 0d ba 77 3a 1d 3d 9a 23 29 3d 6d 22 ef 3b
       -0.0005386672 0.038385835 0.041293718 0.007297805
000140 f9 59 3f 3d 1a 93 fa 3c b4 77 34 3c a6 de cb bc
       0.046716664 0.030587722 0.011014868 -0.02488644
000150 a0 4a 00 3d 16 e3 b4 bb 13 08 74 3d dc ab 9e 3d
       0.031321168 -0.005520235 0.059578013 0.07747623
000160 ad 21 4c bd 7a 26 11 bd 32 10 a6 3d f7 42 56 3b
       -0.049836803 -0.035437085 0.08108558 0.0032693723
000170 45 cf c5 bb b2 c6 2e 3d 7d 5e a0 3d a3 3e 31 3d
       -0.0060366713 0.04266996 0.07830522 0.043272626
000180 47 21 f3 bc aa 51 ac 3d 24 4d d1 3d bd 7d 61 bd
       -0.029678954 0.08414014 0.102197915 -0.055051554
000190 47 f3 88 3d b3 be bf 3d
       0.066870265 0.09362545
