Assets/TestVRMovement/bone_model_rotating_bounds.onnx (onnx, 91448 bytes, 6 tensors)

fc1.weight f4 [64, 18]
000000 c5 b1 94 3e 96 ad 9d 3d 05 24 86 be 9c 7c 1b 3d
       0.29041877 0.076991245 -0.26199356 0.037960634
000010 63 3a 2a 3d c4 23 9b bd c1 16 3d be a2 12 80 be
       0.04155959 -0.07575181 -0.18465711 -0.25014216
000020 0c bd a0 3d c8 84 65 3e 02 f7 17 3e cb 46 fe 3d
       0.07848558 0.22413933 0.1484032 0.124158464
000030 8c de 33 be 96 ed 95 bd 83 f9 8c bd cd ec f3 3d
       -0.17565364 -0.073207065 -0.06883528 0.119104005
000040 84 ff 44 3e f3 18 29 3e 93 48 6d 3e cd d5 b4 bd
       0.19238096 0.16513424 0.23172216 -0.08829842
000050 46 6a 06 3e 34 c1 1d bd 11 33 b7 bd ae 5f f3 3d
       0.13126478 -0.03851433 -0.08945287 0.11883484
000060 14 1e 39 3d 84 d1 56 3e 3c d5 62 3e cc 3a cb 3d
       0.0451947 0.20978361 0.22151655 0.09923324
000070 63 70 ea bd af 27 0a be bf 50 1d 3e 36 26 00 be
       -0.11447217 -0.134917 0.15362833 -0.12514576
000080 ff 2a f8 3d 26 ad 15 3e 48 1c 2e 3e 19 42 94 3c
       0.12117576 0.14616832 0.17002976 0.018097924
000090 95 28 42 be 9e 3c 52 be 72 76 38 3e 35 ca 60 be
       -0.18960793 -0.20530936 0.18013933 -0.21952136
0000a0 bb 4c 52 bd 94 50 e4 3d 83 e3 b8 bc 29 3f 47 be
       -0.051342707 0.111481816 -0.022569424 -0.19457687
0000b0 fd 9b 56 3e 96 0d dc 3d ca 20 ac bb b5 c8 b9 bd
       0.20957942 0.10744779 -0.005252932 -0.09071485
0000c0 47 aa 6f bd eb b3 21 3d 3a 9e 1a 3e 3b 72 30 be
       -0.058512 0.039478224 0.15099421 -0.17231075
0000d0 be 4d 12 be 8d d9 a3 bd 2c 21 07 bd 0a e9 7d 3e
       -0.14287469 -0.08000479 -0.03299062 0.24795929
0000e0 84 a8 98 bc 64 c2 a8 3b 79 2c b7 3c 51 91 f9 3d
       -0.018635042 0.0051501263 0.022360073 0.1218592
0000f0 b0 99 30 be c4 5a 00 be 72 ee 1a be 96 9a 6e be
       -0.17246127 -0.12534624 -0.15130022 -0.23301157
000100 9d f2 86 bd e6 b1 00 3d b3 7f bb be 5b f8 d8 3c
       -0.065892436 0.031419657 -0.36620864 0.026485613
000110 86 c5 30 be 7c 2c 91 3d 34 dd c5 bd 65 91 e5 bd
       -0.17262849 0.07088563 -0.09661332 -0.112093724
000120 fe 4f 6d 3d 32 af 84 be bc 53 6b be 74 f8 12 bd
       0.057937615 -0.25914913 -0.22981161 -0.035881475
000130 07 10 8f 3e 8b de 2a 3e 80 be 0f be 1a a0 21 be
       0.27941915 0.16686456 -0.14037514 -0.1578373
000140 21 2c cf bc c2 53 63 3e 0d 78 a8 bc 5c ba 28 3e
       -0.025289597 0.2219992 -0.020565057 0.1647734
000150 1b 1c 84 3d 3f 81 09 bd 35 a5 7f be 72 50 22 3e
       0.06450673 -0.033570524 -0.24965365 0.15851
000160 5b 6b 6b 3e 7f 3c 7f 3d ec 00 b7 3d 08 b6 e2 bd
       0.22990172 0.062313553 0.08935723 -0.11069876
000170 b1 e8 da bd 9d 4c dd 3c 6d e6 e3 ba 41 0d 52 be
       -0.106889136 0.027014071 -0.0017387398 -0.20512868
000180 64 5f 01 3d 7c d2 e7 bc 50 5b 85 3e 4b 80 85 be
       0.031585112 -0.028298609 0.26046228 -0.26074442
000190 f2 a7 a7 bd cc 8c 0e 3e e4 fd 3c be 25 27 a1 bc
       -0.0818633 0.13920897 -0.18456227 -0.019671986
0001a0 e0 8f be 3d 1d 6f 2b be 79 33 00 3e ae c3 b5 3d
       0.09304786 -0.16741605 0.12519635 0.088752136
0001b0 a3 28 be bd 8c 2e 46 be a9 69 52 3d 90 ef 88 bd
       -0.092850946 -0.19353694 0.051370297 -0.06686318
0001c0 df c6 09 bd 48 6e e1 bd 50 e5 5f bd ba a9 73 be
       -0.033636924 -0.110073626 -0.05466205 -0.23795214
0001d0 05 e5 af 3d d0 6d 17 3e ab 7d 4d bd 44 89 a7 3d
       0.08588604 0.14787984 -0.050168674 0.08180478
0001e0 65 24 23 3e 35 ee 6a 3d 15 86 42 be ae 32 cd bd
       0.15931852 0.05735608 -0.1899646 -0.10019432
0001f0 5e b8 fb 3d ef 32 ca 3d 4a 65 84 bd 84 4f d5 bd
       0.122910246 0.09872996 -0.06464632 -0.10415557
000200 da b4 74 be 56 9d f5 bc 6b fa d0 bd 7a c4 72 3e
       -0.23897114 -0.02998225 -0.102040134 0.23707762
000210 d7 70 80 3e f4 a1 6b 3e 5b 72 58 be 65 f5 1d bd
       0.2508609 0.23010999 -0.21137373 -0.038564105
000220 6b f7 2e 3e 20 0b 1d be e5 b4 02 be 42 2d 28 3e
       0.1708657 -0.15336275 -0.12764318 0.16423514
000230 b0 da 31 bd 3e 11 4b bd 80 15 07 be 21 d5 10 3d
       -0.043421447 -0.04957699 -0.13191795 0.035359506
000240 56 bd 69 3d 66 20 27 3e 30 bd 64 3e 15 a5 2e 3e
       0.05706533 0.16320953 0.22337794 0.17055161
000250 f5 d3 f2 bd d3 82 80 bd 3d fb 4e be a7 26 b4 bc
       -0.11856834 -0.06274953 -0.20213027 -0.021991087
000260 7e ac 0d be 18 56 68 3d f9 06 ff 3d 28 9a 18 be
       -0.13835332 0.05672273 0.12452502 -0.14902556
000270 91 7d 36 be cc 96 10 3e 34 34 4d 3c bb 88 9e bd
       -0.17821337 0.14120024 0.012524653 -0.07740923
000280 ff 76 c9 bb 87 7b a2 3d aa f7 ee bd c3 5e 03 3d
       -0.0061482186 0.07933717 -0.11668332 0.032072794
000290 9b f4 3b 3e 17 c1 8f ba 4d 22 12 3e 6c e8 01 be
       0.18355028 -0.001096758 0.14270897 -0.12686318
0002a0 bf 71 27 be 8b 79 d8 3c 1c ee 2f be a4 11 4e 3d
       -0.16351984 0.026425144 -0.17180675 0.050309792
0002b0 ab c9 b5 3d 7e b1 f4 ba 2c f2 a8 3d f5 bd 80 be
       0.08876356 -0.001866862 0.082493156 -0.25144926
0002c0 16 52 75 be 6a d3 ca bd c9 12 a1 bd 51 a2 15 3e
       -0.23957095 -0.09903605 -0.07864911 0.146127
0002d0 0a 25 16 3e dd 1c 09 3e d1 d0 01 3b 0a 8c 26 3e
       0.14662567 0.13389917 0.0019808302 0.16264358
0002e0 84 3b 6e 3e 79 56 db bd f4 fa 0f be 5d f2 18 be
       0.23264891 -0.10709853 -0.14060575 -0.14936204
0002f0 ea 03 65 3e 1a 74 46 be f1 26 24 3e 00 0d 3f 3e
       0.22364774 -0.19380227 0.1603048 0.18657303
000300 68 d0 c6 3d e2 55 1a 3c bd e4 39 bd 4a bc 3f 3e
       0.09707719 0.00941989 -0.045384157 0.1872417
000310 8a ae 43 bd 93 ee a2 3e 04 1a 04 3e cd 69 5c be
       -0.047773875 0.31822643 0.12900549 -0.21524735
000320 89 fe 1b 3e 0e bd dd bc 92 6c 1b be dd 8e 21 3d
       0.15233816 -0.027067687 -0.15178135 0.039442886
000330 da 2b 65 be 6a 41 5c bd a6 1c 8f 3d 4a d0 2b be
       -0.2238001 -0.05377332 0.06987886 -0.16778675
000340 d1 37 b4 3b 17 34 cd bd 67 f0 eb bd cd fb 3c be
       0.005499818 -0.10019701 -0.115204625 -0.1845543
000350 0e 8a 8f 3e f3 64 eb 3d 3d fd 1f 3e a5 93 0e 3e
       0.28035015 0.11493864 0.15623946 0.1392351
000360 0c d7 02 be 9c 9b 98 3e 03 c2 80 3d 12 a3 50 bd
       -0.12777346 0.2980622 0.06287005 -0.050936766
000370 d9 aa 25 be b2 cf e8 3d dd 2c 46 be 67 95 d7 3d
       -0.16178454 0.1136774 -0.19353051 0.10526543
000380 b2 b4 3c 3d 91 f3 77 3e 75 8c 9b 3e 1e 7a b4 3a
       0.046070762 0.24214007 0.30380598 0.0013769304
000390 ff bc f6 be cb 84 77 3c e9 20 e1 3d 2f 9b 46 bd
       -0.48191068 0.015107344 0.10992605 -0.04848784
0003a0 da 8d 3a 3e 1c 0f ee 3d 71 d9 8f bd 1b 4d 85 bd
       0.18218175 0.11623976 -0.070238955 -0.06508847
0003b0 ed 29 18 3e d5 bc 58 bd b2 88 b8 bd 9f fd 4b bd
       0.14859743 -0.05291446 -0.090104476 -0.04980242
0003c0 b1 4f 29 3e 7f 56 05 be 02 99 e6 bd 99 1a f3 3d
       0.16534306 -0.13021277 -0.11259653 0.118703075
0003d0 61 24 d5 3d b1 2c 2e be ea 30 f1 bd fd 84 ef 3d
       0.10407329 -0.17009236 -0.11776908 0.116952874
0003e0 89 48 42 be 12 f3 a9 bd 69 63 74 bd b6 ae ec 3d
       -0.18972982 -0.08298315 -0.059665117 0.11556761
0003f0 6f 05 fd 3d 77 89 60 3e 61 c1 6f 3e 9c 93 1a 3e
       0.12354552 0.21927439 0.23413612 0.15095371

fc1.bias f4 [64]
000000 10 9b a4 bd 0f c2 1a 3e 46 29 24 be 14 c4 2d 3e
       -0.08037388 0.1511309 -0.1603137 0.16969329
000010 d7 0c 00 3e 85 cc 5e be e6 e2 63 3d 91 69 7a 3e
       0.12504898 -0.21757706 0.05563631 0.24454333
000020 18 df 4d 3e eb eb cd 3d 67 60 c2 3e 05 9a 41 bd
       0.20104635 0.100547634 0.37964174 -0.047266025
000030 ff e8 dc bd 97 c3 32 be ed 63 a9 3e 0e 20 d5 bd
       -0.10786628 -0.17457424 0.3308405 -0.104065046
000040 ea 00 22 3e 13 7c 8f bd 7e 81 5d 3e d0 0f 67 be
       0.15820661 -0.07006087 0.21631429 -0.22564626
000050 46 f8 92 be 39 69 cc bd 4a eb b8 3d 15 02 d1 bd
       -0.28705043 -0.09981007 0.09029253 -0.10205475
000060 ab db df 3d 9c 75 4c 3e 3b cf be bd b0 e8 70 be
       0.1093057 0.1996674 -0.0931687 -0.23526263
000070 8c be d8 3d f3 ec 8d bc 00 d3 c2 be bc e6 99 3d
       0.10583219 -0.0173249 -0.38051605 0.07514712
000080 5f 30 8e 3e dd 76 94 bd af be 5c 3e 0b 84 71 3d
       0.2777128 -0.07249234 0.21557115 0.058963817
000090 d3 28 60 3e 13 fc 9c 3e ca 85 2c 3d 75 76 86 bd
       0.21890573 0.30661067 0.04211978 -0.06565563
0000a0 30 84 5c 3e 33 ca 45 be 19 53 4e be 0b 6d 17 3e
       0.215348 -0.19315414 -0.20148887 0.1478769
0000b0 72 c0 2c be 65 d4 1e be d0 23 48 3d 3a e3 81 3e
       -0.16870287 -0.1551071 0.04886228 0.25368673
0000c0 1b 39 11 bc 3d d0 ae 3d e2 81 f0 be 5c a0 34 3e
       -0.008863713 0.08535812 -0.46974093 0.17639297
0000d0 4c 39 99 3e 56 07 96 3d d9 06 01 3e 35 95 d5 bd
       0.29926527 0.07325618 0.12600268 -0.104288496
0000e0 94 90 8e bb d6 ec db bd b7 f5 f1 3d 5d d6 69 3c
       -0.004350731 -0.10738532 0.118144445 0.0142723
0000f0 01 6d 25 3e 1c 46 39 be 24 27 ae 3d 90 23 06 bd
       0.16154863 -0.18093151 0.08503559 -0.03274876

fc2.weight f4 [128, 64]
000000 89 59 94 bd 58 e0 1f bd 5a 3e 8d 3c cc c6 37 bd
       -0.0724364 -0.03903231 0.017241646 -0.04486732
000010 58 07 15 3e 37 d2 8b bc b5 eb d7 3d e9 00 a3 3d
       0.14553583 -0.017068012 0.105430044 0.07959158
000020 2d 22 83 3d 3c df 8a 3d 8f fb 06 be 17 05 8b 3c
       0.06403003 0.0678086 -0.131819 0.0169702
000030 d8 8e ef bc be c9 7d bd 7c ad 49 3c 8c 2e 72 bd
       -0.029242918 -0.061959974 0.012309428 -0.05912642
000040 a0 30 c1 3d 02 a4 f2 3c 1c 3e aa 3d 05 02 38 bd
       0.094331026 0.02961922 0.08312628 -0.0449238
000050 de 48 f0 39 89 0d 13 3b 7d b7 93 3d 0d 54 7e 3d
       0.00045830657 0.0022438488 0.07212732 0.062091876
000060 1a 81 78 bc 80 d0 a9 3d 24 6b 11 bd a9 4f 04 bd
       -0.015167499 0.08291721 -0.035502568 -0.032302532
000070 f7 55 b2 bd 72 ce d7 3d 31 fc b9 bd 00 ed cf 3d
       -0.08707803 0.10537423 -0.09081305 0.10152626
000080 e4 e0 e4 3d 70 d9 7f 3d 72 2e 5a 3d 00 aa a0 3d
       0.11175707 0.062463224 0.05326695 0.07844925
000090 c0 ea ca ba a1 64 1d bd 6d ba ca 3d 31 9d a1 bd
       -0.0015481338 -0.038426045 0.09898839 -0.0789131
0000a0 e9 3d 69 bd a8 ef 09 be f5 6c 67 3d 7c 60 bf bd
       -0.056943808 -0.13470328 0.056500394 -0.09344575
0000b0 b9 91 07 3e 11 d6 6e 3d 6a 9d 5b bb 13 b6 e9 3d
       0.13239183 0.05830962 -0.0033510574 0.11411681
0000c0 47 b2 0b 3d 54 06 c0 bc 99 22 91 3d 2b c2 a0 3c
       0.034105565 -0.023440517 0.07086677 0.019623837
0000d0 08 e8 09 bd df a8 b4 bd 60 a4 d7 3d 6e 91 0f 3d
       -0.033668548 -0.08821272 0.10529399 0.035050802
0000e0 b7 a2 f1 bd 58 2e b0 bd b4 17 0b be e8 91 e2 3d
       -0.117986135 -0.08602589 -0.13583261 0.11062986
0000f0 f3 c8 d6 3c c0 ba fe 3c 14 5b 61 bc 1c 9b 1e 3e
       0.026218867 0.031094909 -0.013754625 0.15488857
000100 f8 20 b7 3d 8e 70 f6 3c 71 d1 c6 3c a0 fe 33 bd
       0.08941835 0.030082967 0.024269791 -0.043944
000110 cf 0b df 39 fd df dc 3d 76 04 a2 bc b6 cb 69 3d
       0.00042542673 0.1078491 -0.019777518 0.05707904
000120 97 70 3d 3e 48 c4 b2 3c d2 65 c9 3c 54 aa bd 3d
       0.18499981 0.02182211 0.024584685 0.09261003
000130 51 26 03 3d a4 f0 83 3d 4f b2 1b bd d4 c7 32 3d
       0.032018963 0.06442383 -0.038011845 0.043647602
000140 da c2 01 3e 42 6b 01 3d db ad 29 3d 01 72 c8 3d
       0.12671986 0.03159643 0.041425567 0.097873695
000150 6a ed f5 3d 4a 8d 65 3d df 4c db bc 64 7b 05 bd
       0.12008174 0.056042947 -0.026770053 -0.032588378
000160 03 c1 54 3c fb 70 7b bd 1f 14 05 be 8b 9b 0d 3e
       0.012985471 -0.061387043 -0.12995957 0.13828866
000170 80 f6 90 3d ad ce b6 3d d9 c4 ed 3c 9b dc a7 bd
       0.07078266 0.08926139 0.029024528 -0.08196374
000180 c1 4d 33 bc 8e 0d 14 bd ae 1d 28 3e 16 cd ce bd
       -0.010943831 -0.03614574 0.16417572 -0.10097711
000190 23 b2 3c bd e7 a4 8f bd e4 56 00 3d ed 19 a5 bb
       -0.046068322 -0.070138745 0.031332865 -0.005038491
0001a0 02 10 7f bd ee ee a2 3d eb cd 81 bd 07 df 68 bd
       -0.062271126 0.079557285 -0.06338104 -0.05685332
0001b0 0e c1 0a 3d 03 8b 94 3c dd ce 54 3d b8 53 94 3d
       0.033875518 0.018132692 0.051955093 0.072425306
0001c0 c3 7f 4d 3d cb a3 bc bd 0a 32 c6 bc 5b 13 1c 3d
       0.05017067 -0.092109285 -0.024193782 0.038104396
0001d0 3e 53 f7 bd 9f 33 a0 bc b4 ec 67 3c f5 3e d2 3d
       -0.12076424 -0.019555865 0.0141555555 0.10265914
0001e0 2b a6 09 3e 0a 79 34 3e eb dc e2 bc 9b 17 bb bd
       0.13442294 0.17624298 -0.027693233 -0.09135362
0001f0 82 99 ad bd 6b 39 0b bd ce 84 8e bd a2 f4 61 3c
       -0.08476545 -0.033990305 -0.06958924 0.013791235
000200 37 c7 dc 3d 76 6b 14 3e 27 f4 92 3d bc 44 8d 3d
       0.10780185 0.14494118 0.071754746 0.06897876
000210 98 cb 82 bd ed db fe 3d 79 55 8d 3d 5c d7 8b 3d
       -0.06386489 0.12444291 0.06901068 0.06828186
000220 81 48 c0 bd be 73 f4 3d 47 75 0e 3d 93 01 08 3e
       -0.09388829 0.119361386 0.034779813 0.1328185
000230 da 2e e5 bd be 90 65 3d ae 83 ba bd 0d f9 2f 3d
       -0.11190577 0.05604624 -0.09107147 0.042962123
000240 fa c0 fc bd dc 53 d5 3d fb f5 b8 3d 7e 0b a2 3c
       -0.12341495 0.104163855 0.09031292 0.01978087
000250 42 c1 0e bd d5 cf 50 bd 7a 04 51 3b 9a 22 8b 3c
       -0.034852274 -0.050979454 0.0031893537 0.016984273
000260 dc d1 e1 bd 74 4d 2b bd 4e 8d 97 3d 70 87 c5 bc
       -0.110263556 -0.041821912 0.073999986 -0.024112433
000270 d5 c1 9a bd 67 e4 c4 3c 1c b4 e8 bd ff d7 1b 3e
       -0.07556502 0.024034692 -0.11362478 0.15219115
000280 9c 50 ac 3d 88 b4 2b 3e e5 db 1a 3d 79 eb 05 bd
       0.084138125 0.16768086 0.037807364 -0.032695267
000290 40 95 60 3d ae af 0e bd 52 09 11 be 54 a4 97 bd
       0.054829836 -0.03483551 -0.14163712 -0.0740439
0002a0 f2 16 86 bd df 22 87 3d 3b 11 ff bc 49 f8 bf 3d
       -0.06547345 0.06598448 -0.031136146 0.093735285
0002b0 f4 61 69 3d b5 82 cd 3d 92 89 ae bc 4c ed 98 bd
       0.05697818 0.10034696 -0.021305833 -0.07467136
0002c0 57 86 fd 3d 47 8a ed 3d 5e 91 8a bd d7 f0 5d 3d
       0.12379139 0.1159864 -0.06766008 0.05418476
0002d0 d3 72 93 3c 67 31 2f 3e 3a 1e 4e 3d 77 2a e2 3d
       0.017999088 0.17108689 0.050321795 0.11043256
0002e0 3f ca 23 be c9 ca fd bc fb 13 6d 3c 17 02 38 3d
       -0.1599512 -0.030980485 0.014470096 0.044923868
0002f0 09 8e 0b 3e 78 c7 a3 3d 6b c4 f9 bd 39 41 21 3c
       0.13628401 0.0799703 -0.12195667 0.00984221
000300 f4 61 21 3e 20 fa 57 bc c5 5d 23 3d 31 1e aa 3d
       0.15760022 -0.013182193 0.039884347 0.0830654
000310 8f 13 ae 3d f9 9a 44 bd df 73 c7 3d 71 56 99 bb
       0.08499824 -0.047999356 0.097388975 -0.004679494
000320 ae d7 1b 3c ef 4e 96 bd c1 1b 9d 3d 54 b1 18 be
       0.009511871 -0.07339274 0.07671309 -0.14911395
000330 8b c6 41 bc 1e f7 96 3d fa 6d b2 bd 4b da 98 bd
       -0.0118271215 0.073713526 -0.087123826 -0.07463511
000340 71 98 6c bc 48 fe d8 bc 82 8b 2c bd 76 87 07 be
       -0.014440642 -0.026488438 -0.042125233 -0.13235268
000350 0d e7 b7 bd 5a e2 c5 3c 4a 0b bc 3c c3 0a fb 3d
       -0.08979616 0.024155784 0.022954602 0.12257912
000360 05 96 cf bc f5 50 25 3d 21 0a ad bd d4 46 fe 3d
       -0.02534009 0.04036041 -0.084491976 0.12415853
000370 3e ef 9a 3c ff b8 d0 3d a3 ce c7 bd 3d 3b 4e bd
       0.018912908 0.10191535 -0.0975621 -0.050349463
000380 9b 15 9e bc ac 05 1e 3c 1a 29 41 bd 57 79 95 3d
       -0.019297412 0.009644907 -0.047158338 0.07298534
000390 34 dc d0 3d ff 67 92 3d 4f f4 e2 bd 8f d1 bc bc
       0.101982504 0.07148742 -0.110817544 -0.023049144
0003a0 f6 5c e0 3d ab b4 58 bd b8 5e 91 3d 5b 6e 55 3d
       0.10955231 -0.052906673 0.07098144 0.052107196
0003b0 f9 46 92 bd 0f c0 09 3d 5f 1d 82 3c 8f 84 c8 bc
       -0.07142443 0.033630427 0.015883146 -0.024477271
0003c0 81 76 31 bd 23 9f 9d bc 5a 62 c4 3d d6 25 87 3c
       -0.043325905 -0.019240921 0.095890716 0.016497534
0003d0 e5 ea 02 3e 25 cb 06 bd 0b 22 8c 3d f8 62 0a 3e
       0.12784918 -0.032908577 0.06842431 0.13514316
0003e0 5a c3 97 3d e8 06 a1 bd e5 da b9 3c bb 16 13 3e
       0.07410307 -0.078626454 0.022687385 0.1436414
0003f0 2d a2 5a 3b 5c 36 a2 bc 80 9a 0c bd 72 a9 00 3e
       0.0033360824 -0.019801311 -0.03432703 0.12564638

fc2.bias f4 [128]
000000 89 28 4e 3e 10 97 62 3d 51 98 30 3b d4 c6 49 be
       0.2013265 0.055319846 0.0026946256 -0.19704753
000010 a9 85 c0 3d f4 c7 a6 3c cc 36 1a bd 59 eb 39 3e
       0.09400494 0.020359017 -0.037649915 0.18156184
000020 ae 21 57 3d 8c c7 7b bc 2a a9 f8 3e b6 34 11 3e
       0.052522354 -0.0153674 0.48566562 0.14180264
000030 a5 07 4b be b1 b3 92 be 46 32 06 bd 6c cf 04 be
       -0.19827135 -0.2865272 -0.03276279 -0.1296975
000040 d6 ee ed 3d 16 96 0b be 5d 4d 26 bd 81 fe 0a be
       0.1161782 -0.13631472 -0.040601123 -0.13573648
000050 22 96 15 bc 2c 8a 47 3e cc a8 3f 3e f7 a6 0b 3e
       -0.009130033 0.19486302 0.18716735 0.13637911
000060 cf 5b a7 bc 89 a5 b9 3d 70 4e 3b 3c f8 fd ae 3d
       -0.02042952 0.090647765 0.011432275 0.085445344
000070 c0 1f dd 3c 64 15 56 3e d1 ae 05 3e e3 28 1d be
       0.026992679 0.20906597 0.13054968 -0.15347628
000080 4d 4a 63 bd f8 cc 65 be 7c 76 2c bc a0 f7 17 3d
       -0.05549078 -0.2244147 -0.010526296 0.037101388
000090 76 dd 16 be 41 a5 8a bc d6 84 a8 3d 5f 82 91 3e
       -0.14732918 -0.016924502 0.082284614 0.28419778
0000a0 f3 a0 10 3e 4c 8d 99 3d de d2 88 bd 44 d6 b0 bc
       0.14123897 0.07497653 -0.06680845 -0.021586545
0000b0 cc 98 a1 bc a2 d3 07 bd 78 b7 24 be 20 3d 70 bc
       -0.01972618 -0.033160813 -0.16085613 -0.014663011
0000c0 cc fc fb bc 59 60 ce 3d 99 67 d4 3d 85 76 d8 3d
       -0.030760191 0.100769706 0.10371322 0.10569481
0000d0 3e 0c f9 bd 73 2c 10 be 1f b7 39 be 95 54 99 bc
       -0.12160538 -0.14079456 -0.18136261 -0.01871709
0000e0 4b 44 6a bd bd 20 b0 3e fe 72 fd bb d0 e8 1f be
       -0.057194036 0.34399977 -0.0077346554 -0.15616155
0000f0 4a e3 ff bd 01 f8 4d 3d 55 ec 4a 3e 23 12 c9 bd
       -0.12494524 0.050285343 0.19816716 -0.098179124
000100 7a 9f 3d be 20 c6 dd bd c7 d1 70 bd 23 4f 4b 3d
       -0.18517867 -0.10828805 -0.05879381 0.049636018
000110 95 ce b0 3e 83 07 a9 bd 19 dd e1 3c 5a 8b 49 3d
       0.3453261 -0.08253386 0.027571248 0.04920516
000120 02 a8 55 bd 5a fb d8 3d 85 30 b7 3d f7 43 f1 bd
       -0.052162178 0.105948165 0.08944801 -0.117805414
000130 4c c0 23 3e 3f 50 20 3d 49 81 26 3d bf 01 98 ba
       0.15991324 0.03913903 0.04065064 -0.00115972
000140 53 e0 a1 3e a7 56 34 3e b4 fa f8 3d 13 4e 11 be
       0.31616458 0.1761118 0.12157193 -0.14189939
000150 b6 57 b4 3d 69 45 9d bd ee 81 94 3e ac fa 1d be
       0.08805792 -0.076792546 0.29005378 -0.15427655
000160 9c 50 7c be 75 5b 0f be 2e be bf bc 8c 8a 3b be
       -0.24640125 -0.13999732 -0.023406114 -0.1831457
000170 eb 68 21 3e 40 0c 39 3e 48 8f 70 3c 51 bc 39 3d
       0.1576268 0.18071079 0.014682598 0.04534561
000180 33 1f 9e 3b c2 47 28 3e b8 ad 2d be bb 74 d7 3c
       0.0048254966 0.16433623 -0.169608 0.026300779
000190 99 aa d4 bc c9 0e 6c 3e 34 62 de 3d bd 93 83 bd
       -0.025960254 0.23052515 0.108585745 -0.06424663
0001a0 9f 2b 2d 3e c1 95 57 bd 0b 1b f3 3d 32 30 d6 bd
       0.16911171 -0.05263305 0.118703924 -0.10458411
0001b0 0e 9f ba bd 47 92 9d bd f3 0e eb 3d b8 92 86 bd
       -0.091123685 -0.07693916 0.11477461 -0.06570953
0001c0 90 a3 15 bd 75 94 60 3e 40 87 b0 3d a3 7f 3b 3e
       -0.03653294 0.21931632 0.08619547 0.18310408
0001d0 a6 d6 67 be 9d bb e7 bd c8 9c b9 bd 65 36 73 3e
       -0.22640476 -0.11315081 -0.09063107 0.23751219
0001e0 60 3b 15 3e de c6 50 bd 6a e9 6c 3d 58 98 86 3e
       0.14573431 -0.050970905 0.05783979 0.26288104
0001f0 07 e4 21 be ed 2b cd 3c ea 5d e2 3d f9 b3 8a 3e
       -0.15809642 0.02504536 0.11053069 0.27090433

fc3.weight f4 [102, 128]
000000 44 0b 69 bd 07 d2 76 bc 6f ef 5d 3d 71 d2 82 3c
       -0.05689551 -0.015064723 0.05418342 0.015969487
000010 e9 f8 5c bc 0b be b2 3d 90 30 4c 3c ee 94 04 3d
       -0.013487079 0.08727654 0.01246275 0.032368593
000020 64 36 46 bd 4b 95 a9 bc 8f ac c9 bc f5 fb 29 be
       -0.048391715 -0.020701071 -0.024618415 -0.1660002
000030 34 80 27 3d 81 7b 29 3d e6 a9 87 3d 79 2a 2a 3c
       0.04089375 0.041377548 0.066242024 0.010386103
000040 8d 2f 1e 3d 8b f6 de 3c 81 b3 96 3d 86 d2 6a bd
       0.038619567 0.02721717 0.073584564 -0.057329677
000050 89 a7 a2 bd 2f f3 e4 3c e8 1d c1 bd 73 d9 60 3e
       -0.07942111 0.02794799 -0.09429532 0.2195795
000060 7c 4f 5e bb c9 4d af bd cd a7 03 be df 16 6b 3d
       -0.0033921888 -0.08559758 -0.1285698 0.05739486
000070 21 06 fd bc cc 13 a3 bd 40 b6 9b bd 65 ea 9a bc
       -0.030886712 -0.0796276 -0.07603121 -0.018910596
000080 63 49 a1 bd 74 71 96 3e c4 55 2e 3d 2d 8f f5 3c
       -0.078753255 0.29383433 0.04256226 0.029975498
000090 2d 97 62 bd f9 80 00 3c 44 e3 48 3c b2 0b 9c 3e
       -0.055319954 0.0078432495 0.012261216 0.30477673
0000a0 d3 87 68 bd 93 fc 9b 3c 19 47 71 3c 6d cc f3 3c
       -0.056770157 0.019041335 0.014726424 0.029760564
0000b0 37 4e 36 bd d2 9e 8e 3d 00 15 9f bd de a0 8f 3d
       -0.044508185 0.06963886 -0.07767677 0.07013105
0000c0 6a 97 09 3d 50 12 9b 3d 50 ad a2 bd ff bc a1 3d
       0.033591665 0.07571852 -0.07943213 0.07897376
0000d0 fd 05 39 bd 4a 3e c9 bd 88 d1 ca 3d 8c 6f 51 bc
       -0.045171726 -0.09826334 0.09903246 -0.0127829425
0000e0 87 a9 44 bd a0 42 28 3c 67 ec 1b 3e 09 24 4e bd
       -0.048013236 0.010269791 0.15226899 -0.050327335
0000f0 9a f3 50 bd e2 2f 8c 3d 6e 73 17 bd c1 e9 88 3d
       -0.051013567 0.068450704 -0.036975317 0.0668521
000100 40 40 61 bd 00 80 3b bb d9 01 cc 3c 04 a9 f7 bc
       -0.054992914 -0.002861023 0.024903225 -0.03023196
000110 49 67 bb bc 44 93 86 3d 7e 51 96 3d 47 28 b4 3d
       -0.022876399 0.065710574 0.07339762 0.08796745
000120 6a ab 28 bd 0b ce 7d 3c 00 0b 31 bd b4 e0 50 bc
       -0.0411791 0.015491019 -0.04322338 -0.012748886
000130 cd 0c 60 3d c2 b6 2c 3d 89 45 01 be 67 e7 7d bd
       0.054699708 0.04216648 -0.12624182 -0.06198826
000140 41 59 02 3e b8 8e 7a 3d 66 f2 83 bd 77 c5 87 bd
       0.1272936 0.061171263 -0.06442718 -0.0662946
000150 1d bd 19 bd 3f 29 a0 bb 2d e1 e5 3c f2 88 83 bc
       -0.037533868 -0.0048877294 0.028061474 -0.016056512
000160 d4 a1 19 3e c8 e6 bf 3c dd 02 7d 3d e2 c8 82 3d
       0.15003139 0.023425475 0.06177031 0.063859716
000170 23 f2 be bc 34 6a 13 bd fb fe 3f 3c 85 15 2d 3d
       -0.02330882 -0.035989955 0.011718507 0.04225685
000180 86 05 54 be f8 15 08 be 30 81 4d bd 95 66 6b 3d
       -0.20705232 -0.1328963 -0.05017203 0.057470877
000190 46 db 28 3d 3d 95 81 3d 66 4c 79 3d 46 2f 92 bc
       0.04122474 0.06327293 0.060863875 -0.017844807
0001a0 09 c1 2d be 2d 1a e8 bb 87 56 23 bd 24 08 d9 3d
       -0.16968168 -0.0070831985 -0.03987744 0.10597256
0001b0 0d 5f f3 bd 1b e1 02 be fd 7f 8e ba c3 cd 8d 3c
       -0.11883364 -0.12781183 -0.0010871884 0.017310029
0001c0 f1 4c 69 3d df 4b ab bc 93 dd 53 bd 62 bf 73 3d
       0.056958143 -0.020910202 -0.05172498 0.05950869
0001d0 93 04 33 3c 6f ec 4a 3d 3b 79 5a bd 95 18 0f bd
       0.010926384 0.049541887 -0.05333827 -0.034935553
0001e0 ab 30 ed bd 57 f0 1c bd 82 bf b6 bd d8 43 32 bc
       -0.11581548 -0.038315143 -0.08923246 -0.010880433
0001f0 2c c1 cd bc 63 e3 17 bd da 43 6a bd 36 e4 e1 3d
       -0.025116526 -0.037082087 -0.057193615 0.11029856
000200 3a a1 d2 3c cf 1e c9 3b 10 93 1d 3d 76 84 80 3c
       0.025711644 0.006137706 0.038470328 0.015688162
000210 61 57 da bd 95 0e 59 3d 07 a4 9c 3d 97 35 87 3a
       -0.106611975 0.052992422 0.07648473 0.0010315654
000220 54 18 6b bd 79 79 7a bd 82 d5 62 bd db c7 98 bd
       -0.057396248 -0.061151 -0.0553794 -0.074599944
000230 d2 1e a1 3d f4 00 6b bd a1 44 5f bc c8 cb d9 bc
       0.07867207 -0.057373956 -0.013627202 -0.026586428
000240 bb 70 1a be c1 17 4b bd 24 4f aa 3b 1f 0e c6 3d
       -0.15082066 -0.0495832 0.0051974226 0.09670662
000250 a5 8f 18 3d 35 42 01 bd d0 23 24 3d 2e a8 3f bd
       0.037246365 -0.03155728 0.040073216 -0.046791248
000260 e8 81 89 3c fb 98 46 3d d1 cd d5 bc e3 44 0a bd
       0.016785577 0.048485737 -0.026099117 -0.0337571
000270 96 a5 06 3e d9 54 ef bd eb 65 f5 3d e7 98 b7 3d
       0.13149104 -0.11686105 0.1198233 0.08964711
000280 71 21 cc bb 63 6e 0b 3e 69 af fd bd ba 01 0f bd
       -0.0062295725 0.13616328 -0.123869725 -0.034913756
000290 4e bf 39 bd 36 c5 24 3c eb ad cb bd 78 ef 3f bd
       -0.045348458 0.010056784 -0.099452816 -0.046859235
0002a0 d4 df 0d bd ff a4 db 3d 5e 0c d2 bd aa bf 85 bd
       -0.034637287 0.1072483 -0.10256265 -0.06530698
0002b0 ca a0 85 bd 6e 9e cf 3c c1 7d d1 3d a9 68 08 bc
       -0.06524809 0.0253441 0.10229064 -0.008325734
0002c0 e4 57 27 bd 95 62 89 bd 96 01 07 3d d8 f9 22 bd
       -0.040855303 -0.06708256 0.032960497 -0.03978905
0002d0 e9 95 93 3d 29 ef cc 3c e6 41 8b 3d 64 fe 97 3d
       0.072063275 0.025016384 0.067996785 0.07421568
0002e0 44 d2 06 3c bc a8 18 3e b2 9e 3a bd 2c f5 c8 bd
       0.008228842 0.14908117 -0.0455615 -0.09812388
0002f0 85 08 95 3c 3d 34 22 bd 91 05 e1 bd 72 f0 fa bd
       0.018192539 -0.0396006 -0.1098739 -0.122528926
000300 01 73 a9 3c cd 89 cd bc 25 34 8a 3d 90 d1 bd 3c
       0.020684721 -0.025090123 0.06748227 0.023171216
000310 84 15 72 3d 14 1c a8 3d 6a be 6f bd 54 6e e6 3d
       0.05910255 0.082084805 -0.058531202 0.11251512
000320 00 1c 3f bd 24 80 9a 3c 9d b4 e1 bd 1c d3 74 3d
       -0.046657562 0.01885993 -0.110207774 0.059771642
000330 95 71 3e bd a1 87 93 ba f6 bb b4 bc bf 54 cd bd
       -0.04649504 -0.001125563 -0.022062283 -0.1002593
000340 80 74 67 3d 49 99 8e 3c b8 b0 0d bc 53 eb 55 3d
       0.056507587 0.017407076 -0.00864809 0.052226376
000350 17 1c 6d 3d fe 0d 86 3d 15 35 62 3d c5 f2 b2 3d
       0.057888117 0.065456375 0.055226404 0.08737711
000360 0f 8c be 3d 1b fc cb 3c d8 df b9 bc a3 4b 95 3d
       0.09304058 0.024900487 -0.022689745 0.07289817
000370 a5 b5 56 bd cb fc ae 3d 92 cd 41 3c d0 55 e1 bd
       -0.052419323 0.0854431 0.011828797 -0.110026956
000380 a7 90 86 bc c2 18 02 bc 46 11 22 3c 66 8f 92 bc
       -0.016426397 -0.007940473 0.009891814 -0.017890643
000390 4b bd 9a bc 90 b5 d5 bc 33 96 5c 3d ab 51 16 be
       -0.01888909 -0.026087552 0.05385418 -0.14679591
0003a0 7d 49 31 bc 5e f4 21 bd 8a e6 6c 3e 2c 77 a5 3c
       -0.010820744 -0.039539687 0.23134819 0.020198427
0003b0 58 05 70 bc ed 21 3b 3d c1 f7 22 bc 52 5a 07 3d
       -0.014649712 0.04568665 -0.009946764 0.03304512
0003c0 84 85 cf 3c b1 a7 8a 3c 58 60 fb 3c 95 55 cc bd
       0.02533222 0.016925665 0.030685589 -0.09977261
0003d0 2e 95 ea 3c 74 32 59 bd 38 51 fd bd 66 fb 74 3d
       0.028635588 -0.05302663 -0.12369007 0.059810065
0003e0 f2 a6 07 3d 6f 53 b5 bb ef 8f 63 bc da 16 fb bc
       0.033118196 -0.0055336277 -0.013889297 -0.030650545
0003f0 19 1a ea bd 8b db d1 3d a9 a3 e9 3d c1 8e 02 3e
       -0.11430759 0.102469526 0.11408169 0.12749769

fc3.bias f4 [102]
000000 a8 c9 11 3e 2f 3b d3 bc fb ee c5 bc ba b0 a9 3d
       0.14237082 -0.025785057 -0.024161806 0.08285661
000010 b0 5a 2a 3e bd e7 86 3e 42 60 6c 3e e9 63 9b be
       0.16636157 0.26348677 0.23083594 -0.30349663
000020 51 cf ab 3d 29 de 6f 3e 81 07 83 3e fb 4a 9f 3e
       0.08389152 0.23424591 0.25591663 0.31111893
000030 b5 fa a0 3e c8 b3 a2 be 60 ee 33 bd c0 14 5b 3c
       0.31441274 -0.31777787 -0.043928504 0.013371646
000040 af 3d 3d 3e 04 59 8f 3e e6 e1 30 3e 83 bf a6 be
       0.18480562 0.279976 0.17273673 -0.32567987
000050 2b 1f 1f 3e a7 12 71 3e 6a a1 41 3e 3e ba a6 3e
       0.15539233 0.23542272 0.18909231 0.32563967
000060 dd 15 22 3e ca d3 a5 bd b8 4e 01 be c4 1a 53 3e
       0.15828653 -0.08097036 -0.12627685 0.20615679
000070 60 60 17 3e 80 ff 3c 3e ec 2b 1b 3e d6 19 24 be
       0.14782858 0.1845684 0.15153474 -0.1602548
000080 e7 1f 2d bd 4c a9 38 3e a5 5a 12 3e 1f 67 37 3e
       -0.042266753 0.18033332 0.1429239 0.17910431
000090 d1 5c 01 bd 31 69 99 be f3 65 75 3d 99 45 84 3e
       -0.031582657 -0.29963067 0.05991168 0.2583435
0000a0 92 c9 8f 3e 3b 9a 79 3e b4 0c 14 3e b6 52 f4 3d
       0.28083473 0.2437524 0.14457971 0.11929838
0000b0 0e 37 05 3d 76 22 59 3e 1a 28 55 3e 2d b6 64 3e
       0.032523207 0.21204552 0.20816079 0.2233512
0000c0 c4 11 61 3e c5 7b 31 3d 94 8a b6 bc f6 9f 64 3e
       0.21979433 0.043330926 -0.022282876 0.22326645
0000d0 d1 2a 30 3e 01 b2 11 3e 80 28 95 3e 40 d8 58 bc
       0.17203833 0.1422806 0.29132462 -0.013235152
0000e0 10 fe 6d bd 0a 1b d1 3d cb 54 5f 3e 35 2b 73 3e
       -0.05810362 0.102102354 0.2180969 0.23746951
0000f0 5d 7e 30 3e 72 49 a8 3d a8 ee 8c bc b7 c5 10 3e
       0.17235704 0.082171336 -0.017203644 0.14137922
000100 03 2e 85 3e ad f3 85 3e 48 46 5c 3e 97 49 33 3e
       0.26011667 0.26162472 0.21511185 0.17508541
000110 46 dd 06 be ea c7 1e 3e bb 4e 5a 3e 13 d5 13 3e
       -0.13170347 0.15505949 0.21319096 0.1443675
000120 98 3a 83 3d f9 88 18 be 65 d6 34 3e 71 21 da 3d
       0.0640766 -0.14896001 0.1765991 0.1065091
000130 3d f0 91 3e e4 12 81 3e 21 b8 79 3e 91 d3 32 3e
       0.285036 0.25209725 0.24386646 0.17463519
000140 24 1b 27 bd 8b 9d 45 3e 55 34 5d 3e d8 89 42 3e
       -0.040797368 0.19298379 0.21601994 0.18997896
000150 a3 e0 55 3e 71 0b 11 3d 64 3d c4 bd 7c aa f1 3b
       0.20886473 0.035411302 -0.09582022 0.0073750596
000160 a1 fd 8b 3e 32 55 9c 3d d8 1a a9 3e 4d 10 4b 3d
       0.2734194 0.07633437 0.33028293 0.049576093
000170 65 96 90 bd 99 19 cb 3d 05 e8 c8 3e 3c 29 8e 3e
       -0.070599355 0.09916992 0.39239517 0.27765834
000180 ea 84 65 3e 2f 83 c6 3c 59 4a 33 3d 07 9d ae bb
       0.22413984 0.024232475 0.043772075 -0.0053287777
000190 a0 51 8a 3e c3 9f 2d 3e
       0.270154 0.16955476
