Assets/TestVRMovement/bone_model.onnx (onnx, 91448 bytes, 6 tensors)

fc1.weight f4 [64, 18]
0.21745561 0.0006841886 0.056829937 -0.072882935 0.1827416 0.104902014 -0.09783884 -0.19359128
-0.11251859 -0.039007895 0.21650247 0.1936983 0.20377181 -0.06617516 -0.0769264 -0.045483526
-0.04280692 0.19254063 -0.09717275 0.2686474 0.07411495 0.24871498 -0.019370554 -0.12778401
0.11759711 0.24410497 0.14973892 -0.13731135 -0.175678 -0.13591096 -0.19371083 0.17340644
-0.06898388 -0.18226215 0.025774684 0.016995916 -0.015045196 0.08251946 -0.05923295 -0.022530839
-0.19750103 -0.052358583 0.15547194 0.1015556 -0.09123719 0.02074562 -0.1322394 0.069753304
0.17737569 -0.09167695 -0.17503583 -0.036284387 -0.19975212 -0.05548972 -0.13744202 0.04629407
0.17113592 -0.047041383 -0.06945982 0.019752955 0.07928916 0.057419803 0.0006773143 0.29816416
0.13203862 0.22789577 -0.24292116 0.102627434 0.05600678 -0.05370083 -0.2885667 -0.10349623
-0.21932168 0.20359507 0.049275324 -0.14563401 0.23579846 -0.030100305 -0.11165779 0.15714411
0.13178177 -0.015130459 -0.009519297 -0.015498539 0.15915231 0.28134778 0.23108904 0.108256534
-0.26677427 -0.21235672 0.2195429 0.03297459 -0.42852795 0.22394389 0.0100774905 -0.06080331
0.06769846 -0.056573905 -0.378413 -0.3447252 0.00968552 0.016211137 -0.20421562 0.024605805
-0.11564702 0.018810987 -0.11873931 0.020881526 -0.0359651 -0.20537752 -0.056095637 -0.11201668
0.03615669 0.008710428 -0.15580018 0.16493416 0.06007771 -0.0159499 -0.07196926 0.14394338
-0.043018293 -0.20332769 -0.078330964 0.2240283 0.22948352 0.1466149 0.1932388 -0.2100609
0.047408022 -0.013553061 0.2241963 0.17801744 0.038128663 -0.1241329 -0.090442486 -0.08775105
-0.1428805 -0.22342907 -0.22962411 0.075478345 0.009699857 0.05983908 -0.11523757 0.0041343546
-0.075578794 -0.13087974 0.083176576 -0.14284043 0.26641104 0.063580066 0.07643517 -0.41071746
-0.1667211 0.09524212 -0.04992998 0.13118643 -0.11504309 0.31065395 -0.23510301 0.105335884
-0.03055869 -0.087325476 0.027100237 0.10015992 0.22916535 -0.095263876 0.20679438 0.034588657
0.07778989 0.001542882 -0.1391212 -0.0067817755 0.15075469 -0.12220748 0.042765487 -0.21685025
0.011012475 0.013752887 -0.1755045 0.22091728 0.10908875 0.08517397 -0.19874792 -0.09983893
0.030035261 -0.15039732 0.10609468 0.23267674 -0.1556719 0.20467386 -0.09596948 0.17182489
0.1431086 0.08994245 0.067491546 0.019810691 -0.17730294 -0.017366892 0.05404508 -0.22173801
-0.069078684 0.19134875 0.023554863 -0.01228155 0.15027013 -0.14292409 0.06775615 0.2211323
-0.0027047768 0.072375365 0.020881517 0.038883585 -0.040990908 -0.103343904 0.06338731 -0.17392887
-0.0010405106 -0.4784091 -0.0567068 0.014418681 0.18122117 0.30470008 0.25963318 0.579372
0.15826921 -0.00914438 0.0064157853 0.014101999 -0.36601228 -0.27877343 0.2791006 0.04656775
0.15200512 -0.023926344 0.09147845 0.10894469 -0.034283 -0.18643858 -0.060222384 0.1940883
0.23724824 0.18662517 0.028813606 -0.21426088 -0.066526115 -0.15797244 -0.07012918 0.15661792
0.24690345 -0.22599399 -0.04188914 0.10694047 0.24797513 0.13516171 -0.038816493 0.019819254
00000000: afac 5e3e 1f5b 333a 82c6 683d a643 95bd
00000010: 9d20 3b3e ded6 d63d bb5f c8bd cb3c 46be
00000020: 2670 e6bd bec6 1fbd d3b2 5d3e d958 463e
00000030: 8fa9 503e d886 87bd 978b 9dbd ef4c 3abd
00000040: 4f56 2fbd 5f29 453e 8202 c7bd 278c 893e
00000050: 94c9 973d 24af 7e3e ffae 9ebc d0d9 02be
00000060: c1d6 f03d a7f6 793e 2955 193e 599b 0cbe
00000070: efe4 33be 3e2c 0bbe 225c 46be 7591 313e
00000080: 6c47 8dbd eea2 3abe 6e25 d33c 053b 8b3c
00000090: 2080 76bc f6ff a83d 409e 72bd 9892 b8bc
000000a0: b63d 4abe f475 56bd 0934 1f3e 62fc cf3d
000000b0: 90da babd b8f2 a93c c469 07be d2da 8e3d
000000c0: f9a1 353e 20c1 bbbd 983c 33be f09e 14bd
000000d0: d28b 4cbe 3049 63bd 9abd 0cbe da9e 3d3d
000000e0: 413e 2f3e 77ae 40bd f340 8ebd f3d0 a13c
000000f0: 5b62 a23d 0731 6b3d cb8d 313a f9a8 983e
00000100: 2235 073e 825d 693e 53c0 78be 552e d23d
00000110: 5e67 653d 67f5 5bbd 04bf 93be d5f5 d3bd
00000120: dd95 60be 3a7b 503e ecd4 493d 1521 15be
00000130: 2775 713e ea94 f6bc d7ac e4bd 63ea 203e
00000140: cdf1 063e bfe5 77bc d3f6 1bbc 96ed 7dbc
00000150: d3f8 223e d10c 903e 9ba2 6c3e 9ab5 dd3d
00000160: a396 88be 0a74 59be dbcf 603e 5d10 073d
00000170: 0468 dbbe 8c51 653e 0f1c 253c e40c 79bd
00000180: 7da5 8a3d 0aba 67bd 59bf c1be d27f b0be
00000190: 04b0 1e3c 38cd 843c e61d 51be 1d92 c93c
000001a0: 58d8 ecbd 8019 9a3c 982d f3bd bc0f ab3c
000001b0: 2450 13bd 7c4e 52be 8ac4 65bd 0069 e5bd
000001c0: 0a19 143d 2fb6 0e3c 158a 1fbe 80e4 283e
000001d0: 0b14 763d 5da9 82bc 9f64 93bd e565 133e
000001e0: f333 30bd 2235 50be fc6b a0bd ad67 653e
000001f0: bafd 6a3e 3722 163e 64e0 453e 341a 57be
00000200: ea2e 423d a80d 5ebc b793 653e 344a 363e
00000210: cd2c 1c3d 6439 febd e939 b9bd d3b6 b3bd
00000220: 444f 12be 97ca 64be 9522 6bbe 6494 9a3d
00000230: 26ec 1e3c d319 753d ad01 ecbd 7b79 873b
00000240: 0ec9 9abd 5705 06be 7b58 aa3d c344 12be
00000250: 0767 883e 4436 823d 0b8a 9c3d 8f49 d2be
00000260: f0b8 2abe 4d0e c33d 6183 4cbd bc55 063e
00000270: b69b ebbd 090e 9f3e d8be 70be 57ba d73d
00000280: 3856 fabc b3d7 b2bd 5101 de3c a520 cd3d
00000290: 52aa 6a3e b519 c3bd e8c1 533e d6ac 0d3d
000002a0: 4e50 9f3d 873a ca3a ca75 0ebe a839 debb
000002b0: 705f 1a3e ea47 fabd dd2a 2f3d fe0d 5ebe
000002c0: ab6d 343c ca53 613c 74b7 33be 2438 623e
000002d0: ec69 df3d b16f ae3d 9384 4bbe 5a78 ccbd
000002e0: 820c f63c c101 1abe 2b48 d93d d042 6e3e
000002f0: 7468 1fbe 0696 513e a68b c4bd ddf2 2f3e
00000300: 108b 123e bf33 b83d 0239 8a3d 084a a23c
00000310: e78e 35be 0345 8ebc 605e 5d3d 4a0f 63be
00000320: 2079 8dbd edf0 433e 21f6 c03c 8e38 49bc
00000330: 6ae0 193e b15a 12be bdc3 8a3d 8170 623e
00000340: a042 31bb 8939 943d b70f ab3c 6544 1f3d
00000350: 15e6 27bd f8a5 d3bd 35d1 813d 691a 32be
00000360: be61 88ba 0af2 f4be 6445 68bd 553c 6c3c
00000370: 0b92 393e a601 9c3e a4ee 843e b951 143f
00000380: 5311 223e 4fd2 15bc 823b d23b 120c 673c
00000390: f665 bbbe 64bb 8ebe 46e6 8e3e d3bd 3e3d
000003a0: 3ba7 1b3e 2e01 c4bc 0e59 bb3d 651e df3d
000003b0: 556c 0cbd c1e9 3ebe bfab 76bd 15bf 463e
000003c0: 34f1 723e ab1a 3f3e 830a ec3c 3467 5bbe
000003d0: d83e 88bd 87c3 21be e39f 8fbd 7360 203e
000003e0: 42d4 7c3e f86a 67be f293 2bbd 9b03 db3d
000003f0: 31ed 7d3e d567 0a3e 0bfe 1ebd fd5b a23c

fc1.bias f4 [64]
-0.12737116 0.25583518 -0.1774008 -0.05401006 0.047817327 0.25605196 0.11080506 0.2526046
0.29169634 0.23692256 0.17492205 0.13899694 -0.22470045 0.17930502 -0.15191892 -0.13025895
0.0558061 0.38397056 0.13398485 -0.24826147 -0.0619033 -0.17746112 0.1988901 -0.10146421
0.22563428 -0.19453405 0.06496067 -0.1730679 0.13784921 0.247542 0.24178204 -0.10300097
0.11691749 -0.01165336 0.11754963 0.4717427 0.10752232 0.21791059 -0.14355233 0.05084197
-0.10612166 0.25233388 -0.04951472 -0.2485738 0.22329122 0.16898552 -0.24307927 0.12585281
0.17994691 0.15087742 0.1118671 0.12178025 -0.15084386 -0.24137568 0.11984436 -0.009911248
-0.019680545 0.11253856 0.23435028 0.07965673 0.20376255 0.24283755 0.05053472 0.20263872
00000000: 966d 02be d4fc 823e 8ea8 35be a739 5dbd
00000010: 1adc 433d 3e19 833e c3ed e23d 6455 813e
00000020: 3959 953e d49b 723e c41e 333e 3755 0e3e
00000030: e017 66be bc9b 373e a290 1bbe 9a62 05be
00000040: f094 643d ca97 c43e 5333 093e 4138 7ebe
00000050: 518e 7dbd 5eb8 35be d9a9 4b3e 78cc cfbd
00000060: ac0c 673e ef33 47be 1a0a 853d b638 31be
00000070: 5828 0d3e a67b 7d3e b695 773e 2cf2 d2bd
00000080: 7072 ef3d bced 3ebc dcbd f03d 4288 f13e
00000090: a934 dc3d f423 5f3e 62ff 12be ab3f 503d
000000a0: 5056 d9bd e831 813e f2cf 4abd 218a 7ebe
000000b0: 74a6 643e 8a0a 2d3e c6e9 78be 8fdf 003e
000000c0: 0144 383e 9c7f 1a3e 941a e53d ec67 f93d
000000d0: d076 1abe 302b 77be f670 f53d ca62 22bc
000000e0: 1839 a1bc 9e7a e63d 85f9 6f3e 1123 a33d
000000f0: 21a7 503e 68aa 783e 7ffd 4e3d 8680 4f3e

fc2.weight f4 [128, 64]
0.04010745 -0.09249307 -0.012553915 0.0042975866 -0.012039553 -0.22830863 0.034108933 -0.07515695
-0.17187874 0.042108275 -0.019824442 -0.0011031895 1.0194155 -0.011258937 -0.6070329 0.045664135
-0.13364877 -0.14445597 0.027789153 0.056592785 -0.08963201 -0.026592612 0.07028359 0.008656022
-0.080838956 -0.19925432 -0.09930398 0.085495315 0.124423735 0.09793557 -0.06658496 0.1417456
0.104097694 0.06171619 0.17108507 0.24978082 0.18136972 -0.19762829 -0.0359748 -0.06217046
-0.10852634 0.18589641 -0.44782066 -0.13594115 -0.11693189 0.02647476 0.11469165 -0.07198528
-0.07623584 0.07536255 0.085615024 0.8793716 -0.028405847 -0.09789474 0.037657846 -0.062747255
0.08497139 0.034861498 -0.11819936 0.08220452 0.06059097 -0.053237356 0.09294881 0.11131639
0.056524035 0.15344708 -0.004800126 -0.074480556 0.096972324 0.4472543 0.070493236 0.010392084
-0.02415172 0.018682115 0.112081006 -0.13940619 1.2046075 0.008655657 0.93908024 -0.086080186
-0.113350086 -0.1937859 0.059714645 -0.600773 0.057388075 0.04998231 0.008592627 -0.44370142
-0.24921288 -0.40894705 -0.0271621 0.097520135 -0.008719483 -0.051216584 -0.10686219 0.1296015
0.022224046 -0.20291783 -0.20395334 0.96850276 -0.5474788 -0.0035861745 -0.014202863 -0.0320115
-0.045940414 0.34339824 0.08059279 -0.7667683 0.06981806 -0.015624799 0.08017334 -0.2401405
-0.040628735 -0.06975541 0.03497943 -0.16084418 0.11931659 0.052252434 0.28257775 -0.07712379
-0.010349382 -0.019028388 0.03169003 -0.15613455 0.05842871 0.024759652 0.22931895 0.23983349
0.03855926 -0.08009055 0.009356111 0.043088935 -0.02174131 0.05426564 -0.03147962 0.0014725486
-0.02106918 0.07788371 -0.041709665 -0.014494362 -0.25889868 0.0066368803 0.03416609 -0.1142636
-0.024627741 0.04762576 0.016850602 0.0788939 0.0617651 -0.023835465 0.079747155 0.009907237
-0.12878451 0.07302021 -0.04341115 -0.054687012 -0.00045845323 0.0129510835 0.0068264115 -0.15168954
-0.057773642 -0.019495642 -0.09611488 0.18224807 0.23668739 0.053274762 0.09674412 0.08627824
-0.1023341 -0.12206413 -0.09658775 0.053264726 0.040505514 -0.09090918 -0.1310722 0.104290396
0.06480119 -0.07879343 -0.083373815 -0.60815567 -0.028350271 -0.027474523 -0.3471835 -0.1294619
-0.13088454 -0.0033835394 -0.0041781417 0.08818733 0.022386206 0.08844454 0.10654495 0.030639216
-0.1369523 -0.039025925 0.12325618 -0.1607187 -0.058802523 0.12979192 0.054185443 -0.012223953
-0.093532324 0.058570888 0.0036826353 0.0030056091 -0.088284545 -0.09827065 0.55190784 0.061093573
0.11371094 -0.54713184 -0.021670192 -0.08178111 0.12853265 0.022210399 0.020371169 0.031043952
0.030849906 0.087850556 -0.0060040737 -0.059172075 0.03855343 -0.057361323 -0.1155844 0.016662715
-0.030884882 -0.029368708 0.010647927 0.07271846 -0.13370153 -0.00030176423 -0.07000913 -0.09827233
-0.111374296 -0.09221521 0.62876797 -0.031662725 -0.087590486 -0.044298667 -0.057591453 0.10243882
0.084126316 0.04390188 -0.031722702 -0.8013531 0.07406576 -0.10014081 -0.43616423 -0.028047187
0.012255221 0.06016869 0.06344432 -0.041745834 0.08057058 -0.026461642 -0.14912266 -0.14244285
00000000: b647 243d 026d bdbd f0ae 4dbc c5d2 8c3b
00000010: 8c41 45bc bdc9 69be cfb5 0b3d e3eb 99bd
00000020: fb00 30be ba79 2c3d de66 a2bc e698 90ba
00000030: 357c 823f 6877 38bc 8266 1bbf 510a 3b3d
00000040: 39db 08be 44ec 13be 14a6 e33c d6cd 673d
00000050: fd90 b7bd c0d8 d9bc d8f0 8f3d fdd1 0d3c
00000060: e58e a5bd 5309 4cbe e35f cbbd 2b18 af3d
00000070: dfd1 fe3d 7292 c83d b25d 88bd c225 113e
00000080: 2c31 d53d 1eca 7c3d ed30 2f3e 8bc6 7f3e
00000090: fcb8 393e 125f 4abe 505a 13bd 74a6 7ebd
000000a0: 0f43 debd a15b 3e3e c048 e5be 2834 0bbe
000000b0: fd79 efbd 99e1 d83c 75e3 ea3d 056d 93bd
000000c0: 8921 9cbd ae57 9a3d ee56 af3d 7f1e 613f
000000d0: 61b3 e8bc 0a7d c8bd 1d3f 1a3d a281 80bd
000000e0: 7b05 ae3d eeca 0e3d 8212 f2bd d85a a83d
000000f0: 3d2e 783d 6a0f 5abd f25b be3d d9f9 e33d
00000100: bf85 673d 3b21 1d3e 604a 9dbb 4389 98bd
00000110: 6d99 c63d 84fe e43e c25e 903d 8f43 2a3c
00000120: d4d9 c5bc 3c0b 993c ba8a e53d 7fc0 0ebe
00000130: 9430 9a3f 75d0 0d3c 9067 703f cf4a b0bd
00000140: 1724 e8bd d06f 46be 5897 743d 42cc 19bf
00000150: c20f 6b3d 40ba 4c3d 17c8 0c3c d52c e3be
00000160: a931 7fbe 8261 d1be 0d83 debc a3b8 c73d
00000170: 2adc 0ebc 7bc8 51bd 90da dabd 41b6 043e
00000180: 340f b63c b1c9 4fbe 25d9 50be ccef 773f
00000190: 9227 0cbf 0606 6bbb 20b3 68bc 7e1e 03bd
000001a0: 042c 3cbd e5d1 af3e d50d a53d ed4a 44bf
000001b0: c5fc 8e3d 28ff 7fbc ec31 a43d 64e7 75be
000001c0: 516a 26bd eddb 8ebd 9746 0f3d 56b4 24be
000001d0: 425c f43d a606 563d 08ae 903e 14f3 9dbd
000001e0: 7490 29bc 6ce1 9bbc 68cd 013d bce1 1fbe
000001f0: f152 6f3d c1d4 ca3c 96d2 6a3e e996 753e
00000200: 51f0 1d3d 8406 a4bd 604a 193c 067e 303d
00000210: d51a b2bc a645 5e3d c6f0 00bd 8802 c13a
00000220: 4699 acbc 7f81 9f3d c1d7 2abd c379 6dbc
00000230: 5e8e 84be 307a d93b bef1 0b3d 0903 eabd
00000240: 1ec0 c9bc 3b13 433d 460a 8a3c 2093 a13d
00000250: 67fd 7c3d 9842 c3bc 7a52 a33d f751 223c
00000260: 16e0 03be 9f8b 953d e4cf 31bd 7dff 5fbd
00000270: 8d5c f0b9 c830 543c 17b0 df3b 8154 1bbe
00000280: 0ea4 6cbd 53b5 9fbc e1d7 c4bd 3d9f 3a3e
00000290: 2e5e 723e a336 5a3d c821 c63d a5b2 b03d
000002a0: 8a94 d1bd c2fc f9bd cccf c5bd 1d2c 5a3d
000002b0: 1ce9 253d 982e babd ca37 06be 3496 d53d
000002c0: 7cb6 843d 735e a1bd e4bf aabd 17b0 1bbf
000002d0: d43e e8bc 4012 e1bc 09c2 b1be a991 04be
000002e0: 9906 06be 5fbe 5dbb cbe8 88bb 8f9b b43d
000002f0: 4763 b73c 6922 b53d 3d34 da3d 18ff fa3c
00000300: 393d 0cbe a6d9 1fbd bc6d fc3d 7193 24be
00000310: eada 70bd 2ce8 043e 8ef1 5d3d fa46 48bc
00000320: e08d bfbd 07e8 6f3d 5e58 713b c1f9 443b
00000330: 87ce b4bd 1f42 c9bd d549 0d3f 413d 7a3d
00000340: 48e1 e83d d510 0cbf b085 b1bc db7c a7bd
00000350: 109e 033e 95f2 b53c 70e1 a63c e34f fe3c
00000360: f1b8 fc3c feea b33d d2bd c4bb 6b5e 72bd
00000370: 34ea 1d3d b5f3 6abd 84b7 ecbd 3f80 883c
00000380: 4b02 fdbc a596 f0bc a574 2e3c 6aed 943d
00000390: 0ee9 08be 1c36 9eb9 f260 8fbd 0143 c9bd
000003a0: 3518 e4bd 54db bcbd f0f6 203f c6b0 01bd
000003b0: a462 b3bd 8572 35bd 04e5 6bbd 72cb d13d
000003c0: 6b4a ac3d 75d2 333d aaef 01bd 7a25 4dbf
000003d0: caaf 973d a016 cdbd eb50 dfbe 37c3 e5bc
000003e0: 1fca 483c 7273 763d 18ef 813d aefd 2abd
000003f0: 3002 a53d 16c6 d8bc 9cb3 18be 8adc 11be

fc2.bias f4 [128]
0.018070389 0.06619125 0.072504684 0.04783699 -0.027124282 0.0007143998 -0.06412383 0.051365554
0.09158308 0.09978768 0.014581696 0.052851602 -0.11019555 -0.18664783 0.08981793 -0.054363314
0.14068496 0.1435858 0.07093191 0.074170426 0.11939984 -0.020186836 0.07054705 -0.15494403
-0.04042 -0.10365762 0.07633538 0.11101639 -0.06006824 0.11811876 -0.029810194 0.00078252994
-0.006753832 0.02365057 0.070263855 0.12633309 -0.12820049 -0.08707055 0.02076453 0.028718963
-0.05161112 0.14018004 -0.084603764 -0.03578219 0.12974408 0.10965971 -0.091334894 -0.047557496
0.0015857671 0.049144834 -0.04489999 -0.06375313 0.087818064 -0.04804906 0.09305488 -0.017372694
0.11236918 -0.025566991 0.058229692 0.0014615142 -0.06435626 0.0349518 0.03815621 0.07074072
-0.09115141 0.10892191 0.08732768 -0.016949322 0.038953755 0.09961637 -0.0714615 0.14850448
-0.010306209 -0.08485755 0.056847595 -0.049728274 -0.123762906 -0.045004547 0.010697105 0.07568543
0.029348703 0.030071527 0.11008191 0.02013854 0.086911984 0.0873523 -0.03609237 -0.005321329
0.10750261 0.02225674 -0.07211732 0.047212847 0.08484077 0.10068322 0.0100479685 0.10995031
0.028897153 0.055515587 0.027357863 -0.038874984 -0.07858001 -0.010182709 0.043066457 0.104193814
-0.061895713 0.10684728 0.1806117 0.06616188 0.12507436 -0.1586446 -0.52113694 0.040582288
-0.06951111 0.12742549 0.13220677 0.14001632 0.039806172 -0.10857397 -0.040241018 0.13876902
0.0055440892 0.07455077 0.0950077 0.07480591 -0.03299366 -0.05797004 -0.023618802 -0.023248876
00000000: 5a08 943c 478f 873d 567d 943d b8f0 433d
00000010: be33 debc 8f46 3b3a 5b53 83bd b064 523d
00000020: e98f bb3d 7c5d cc3d 11e8 6e3c ec7a 583d
00000030: 34ae e1bd 9c20 3fbe 76f2 b73d 11ac 5ebd
00000040: b80f 103e 2808 133e c044 913d aae6 973d
00000050: e787 f43d dd5e a5bc f97a 903d a6a9 1ebe
00000060: 718f 25bd 724a d4bd b955 9c3d 905c e33d
00000070: 1d0a 76bd 40e8 f13d 8234 f4bc b222 4d3a
00000080: 404f ddbb d7be c13c 7fe6 8f3d 765d 013e
00000090: fd46 03be 0b52 b2bd 601a aa3c 0844 eb3c
000000a0: 2f66 53bd 5b8b 0f3e bd44 adbd 5890 12bd
000000b0: a2db 043e 4595 e03d ca0d bbbd a6cb 42bd
000000c0: 84d9 cf3a 184c 493d 0de9 37bd 0091 82bd
000000d0: f5d9 b33d 17cf 44bd 8f93 be3d 2e51 8ebc
000000e0: d021 e63d de71 d1bc 4282 6e3d 4790 bf3a
000000f0: 37cd 83bd 9e29 0f3d b049 1c3d 83e0 903d
00000100: 97ad babd 7312 df3d dbd8 b23d 4ed9 8abc
00000110: f98d 1f3d ab03 cc3d 685a 92bd 8f11 183e
00000120: 60db 28bc ccc9 adbd 06d9 683d e0af 4bbd
00000130: 6877 fdbd b056 38bd e942 2f3c f600 9b3d
00000140: b16c f03c 9058 f63c a072 e13d 94f9 a43c
00000150: e9fe b13d c3e5 b23d 98d5 13bd 8b5e aebb
00000160: 542a dc3d c453 b63c 3fb2 93bd 4262 413d
00000170: ffc0 ad3d 0133 ce3d 3ca0 243c a12d e13d
00000180: b9b9 ec3c 5064 633d 991d e03c 603b 1fbd
00000190: 8eee a0bd 61d5 26bc 7466 303d 9163 d53d
000001a0: 5c86 7dbd bfd2 da3d 46f2 383e e17f 873d
000001b0: 7e13 003e bb73 22be 3b69 05bf 9d39 263d
000001c0: d75b 8ebd d47b 023e 3661 073e 7060 0f3e
000001d0: cc0b 233d 085c debd c4d3 24bd 7719 0e3e
000001e0: 31ab b53b 13ae 983d 6693 c23d d733 993d
000001f0: 5c24 07bd fe71 6dbd 387c c1bc 6d74 bebc

fc3.weight f4 [102, 128]
-0.05828675 -0.03248255 -0.012230834 0.045082536 0.08578608 0.050047506 -0.045315225 -0.019852234
0.013841933 -0.082177415 0.01591962 -0.015754024 0.045801513 -0.054977108 0.041845284 0.0056723426
0.032194804 -0.008813724 0.027050877 0.05443263 0.023879033 0.071748815 -0.02064914 -0.02927099
0.036671884 -0.046338066 0.005851682 0.024719747 0.019912528 0.059658036 -0.027921686 0.08528242
-0.07196319 0.096675076 0.092709556 0.075892575 0.0960387 -0.025632732 0.04639653 0.032296635
0.06138942 0.021840714 -0.021788983 0.03694118 -0.005161913 -0.007699086 -0.07951951 0.09408318
0.088940084 0.035399124 0.09122045 -0.05408754 0.050124697 0.089232944 -0.031764183 -0.024645705
-0.027408423 -0.0007604652 -0.01543491 0.012078305 0.023959499 0.00024840535 -0.0030565213 0.044783533
0.08884392 -0.003544153 -0.05261215 -0.014528562 0.080232255 -0.054276247 0.08197578 0.0022148513
0.0032510653 0.008695364 0.058716446 -0.013140025 0.07296343 0.034135673 -0.055878542 0.09701164
0.084873326 0.075930454 -0.06190057 0.09597521 0.030470228 -0.027275603 0.020678386 0.09293124
0.049040534 -0.023184719 -0.04170249 0.029540919 0.074258946 0.09298797 -0.06641791 0.11730827
0.048246592 0.09181499 0.026334664 0.061177503 -0.016872955 -0.044731285 -0.068751 -0.054974444
-0.006129765 -0.019077491 -0.06492293 0.034771584 0.053349886 0.007456766 -0.11602523 0.06401717
0.07003168 -0.041879267 0.041520674 0.0527808 0.023149196 0.021903269 0.0065810718 -0.059958953
0.015640682 0.04062401 0.09185087 -0.0030386008 0.039673083 0.047818948 -0.0018170087 0.059729196
0.013024722 0.009617323 0.0012242148 0.09573771 0.10949497 0.03835887 -0.030098751 0.052639812
-0.023893757 0.07820483 0.064747885 -0.07183088 -0.054238576 -0.09302809 0.07642862 0.021636315
0.038866602 -0.030015266 -0.016283602 0.07150999 0.029975686 -0.05223219 0.004521255 -0.06764021
0.008888284 0.016314432 0.07294461 0.061436646 -0.005664299 0.033239994 0.007936548 0.05846065
0.06153799 -0.04586144 0.060893375 0.08196701 0.02554582 -0.036617983 -0.022815883 0.02127196
-0.0043301606 -0.016833074 0.107278526 -0.07731173 0.04958628 0.029536325 -0.01786708 -0.04456889
-0.042875543 0.0660849 -0.07033434 0.01592254 -0.024770731 0.016229123 0.11393869 -0.046094682
0.026766485 -0.0426627 -0.047952272 -0.04725286 -0.017371932 0.07475938 5.2768828e-05 -0.009264085
0.029471345 0.103663124 0.026117684 0.101673484 0.025512395 0.024555527 -0.014468752 -0.05723917
0.070426576 -0.03410533 0.035293903 -0.014655951 0.049876597 0.0054849614 -0.02826615 -0.015351955
0.082043335 0.018925777 -0.028990151 0.013874283 0.026670672 -0.0021508639 0.11646739 -0.027749972
-0.028058771 -0.015026704 0.008873984 -0.017557414 -0.052867185 0.01677046 -0.013656173 -0.033627287
-0.0021326204 0.07535111 -0.056545563 -0.010347999 -0.039393 0.10488102 -0.01691574 0.036245115
0.019789154 0.035780262 0.010149946 0.012559953 0.11576287 -0.03416911 -0.06625527 0.00015043118
0.0014560717 0.055232473 -0.010720896 0.06225802 -0.07320249 -0.0044800136 0.09298541 0.034959197
-0.035078213 0.07374119 -0.03661611 -0.04622488 0.08586145 -0.023325428 0.0377586 0.036516197
00000000: 16be 6ebd 6c0c 05bd d663 48bc 77a8 383d
00000010: 9db0 af3d 9dfe 4c3d 759c 39bd 27a1 a2bc
00000020: 46c9 623c a24c a8bd dd69 823c 950e 81bc
00000030: 5e9a 3b3d ad2f 61bd f665 2b3d 0fdf b93b
00000040: b3de 033d 7067 10bc cd99 dd3c c0f4 5e3d
00000050: f69d c33c 0bf1 923d 6328 a9bc b7c9 efbc
00000060: 4235 163d fccc 3dbd 77bf bf3b 1181 ca3c
00000070: 991f a33c fc5b 743d 05bc e4bc 8da8 ae3d
00000080: 7061 93bd 95fd c53d 82de bd3d 916d 9b3d
00000090: f0af c43d bcfb d1bc 4a0a 3e3d 7a49 043d
000000a0: 7973 7b3d 4ceb b23c cf7e b2bc a24f 173d
000000b0: 4425 a9bb 9d48 fcbb 20db a2bd afae c03d
000000c0: 3826 b63d acfe 103d cad1 ba3d e58a 5dbd
000000d0: 8e4f 4d3d c3bf b63d 291b 02bd cae5 c9bc
000000e0: a187 e0bc f559 47ba b4e2 7cbc 15e4 453c
000000f0: b646 c43c 673c 8239 eb4f 48bb f06e 373d
00000100: cdf3 b53d 0545 68bb d67f 57bd 3509 6ebc
00000110: cf50 a43d c550 5ebd ebe2 a73d 0a27 113b
00000120: d30f 553b 0077 0e3c a880 703d 4249 57bc
00000130: da6d 953d d9d1 0b3d e6e0 64bd 0aae c63d
00000140: 11d2 ad3d 6d81 9b3d 748b 7dbd a78e c43d
00000150: b39c f93c 1671 dfbc b865 a93c bc52 be3d
00000160: bade 483d e1ed bdbc 3bd0 2abd ccff f13c
00000170: 1315 983d 7a70 be3d 1d06 88bd 513f f03d
00000180: 389e 453d 7f09 bc3d cbbb d73c 4395 7a3d
00000190: 2739 8abc 2738 37bd 53cd 8cbd e22c 61bd
000001a0: 32dc c8bb 6648 9cbc 50f6 84bd a66c 0e3d
000001b0: 6985 5a3d e357 f43b a39e edbd 6f1b 833d
000001c0: c56c 8f3d 9889 2bbd 9511 2a3d ae30 583d
000001d0: 62a3 bd3c 7c6e b33c 08a6 d73b 8597 75bd
000001e0: e320 803c 5d65 263d 4f1c bc3d 4323 47bb
000001f0: 3e80 223d cddd 433d b228 eeba 9aa6 743d
00000200: a565 553c fa91 1d3c d575 a03a 2212 c43d
00000210: e63e e03d 311e 1d3d a891 f6bc d89c 573d
00000220: d7bc c3bc db29 a03d 8a9a 843d 121c 93bd
00000230: 4529 5ebd 8385 bebd 9c86 9c3d a43e b13c
00000240: 9632 1f3d 93e2 f5bc 3065 85bc d473 923d
00000250: 928f f53c 6cf1 55bd 0927 943b f386 8abd
00000260: 2aa0 113c d8a5 853c fc63 953d fea4 7b3d
00000270: 959b b9bb a926 083d 4c08 023c 6f74 6f3d
00000280: 420f 7c3d 35d9 3bbd 556b 793d 52de a73d
00000290: 7845 d13c bdfc 15bd 60e8 babc 8942 ae3c
000002a0: 05e4 8dbb 84e5 89bc d8b4 db3d 9d55 9ebd
000002b0: fc1a 4b3d 2af6 f13c fc5d 92bc de8d 36bd
000002c0: 449e 2fbd 8557 873d 730b 90bd fd6f 823c
000002d0: fdeb cabc f0f2 843c b058 e93d c7cd 3cbd
000002e0: 6345 db3c 15bf 2ebd 9a69 44bd 378c 41bd
000002f0: 954f 8ebc 721b 993d 1954 5d38 64c8 17bc
00000300: e46d f13c 554d d43d c1f4 d53c 303a d03d
00000310: 5fff d03c ac28 c93c 580e 6dbc 9f73 6abd
00000320: cf3b 903d 08b2 0bbd 5790 103d 841f 70bc
00000330: 674b 4c3d 31bb b33b 6a8e e7bc c486 7bbc
00000340: 5606 a83d 3b0a 9b3c c17c edbc f650 633c
00000350: 747c da3c 82f5 0cbb 7486 ee3d e953 e3bc
00000360: 82db e5bc 9132 76bc 3064 113c 91d4 8fbc
00000370: 438b 58bd 3462 893c 24be 5fbc c4bc 09bd
00000380: 6fc3 0bbb af51 9a3d 529c 67bd a78a 29bc
00000390: 8e5a 21bd dccb d63d e192 8abc c275 143d
000003a0: dd1c a23c 538e 123d f64b 263c 43c8 4d3c
000003b0: 1515 ed3d e9f4 0bbd d8b0 87bd 10bd 1d39
000003c0: a9d9 be3a 723b 623d b2a6 2fbc 4402 7f3d
000003d0: 30eb 95bd 14cd 92bb 226f be3d 6031 0f3d
000003e0: 2cae 0fbd 9f05 973d c6fa 15bd 4d56 3dbd
000003f0: 21d8 af3d f814 bfbc c3a8 1a3d 0292 153d

fc3.bias f4 [102]
0.06320102 -0.030893572 0.09527813 -0.039937146 0.007003159 -0.04622932 0.07903987 0.08944305
-0.0014130453 0.03801386 0.047360353 0.07869277 0.010643413 -0.04256285 0.013928193 -0.043659844
-0.026812023 -0.03762503 0.03095556 0.0417509 -0.034278136 0.053098667 0.02659314 0.10670647
-0.021765646 0.03403883 0.101369746 -0.0119566815 0.09466952 -0.008111469 -0.039044023 -0.013063487
0.013069242 -0.02920533 0.055032805 -0.011113789 0.05491979 -0.003811309 0.024891734 0.04580633
0.02436027 0.06862552 0.03295581 0.028907062 -0.05103897 0.059097614 -0.05198027 0.09902354
0.020655794 0.076299615 0.0730204 -0.016441163 0.0076807523 -0.05897878 0.06271201 0.079896264
0.045799058 -0.07357467 -0.056707777 -0.056338176 0.07611112 0.02699763 -0.002072441 0.067339115
-0.02619768 0.032484706 0.041840523 0.08541711 0.09453043 -0.064066425 -0.054666076 0.06719347
0.07343324 -0.03816293 -0.04556528 -0.051857255 0.069017574 -0.015353812 -0.06111889 -0.0035142074
0.07832182 -0.013916861 -0.020061653 -0.020276695 -0.031474028 0.045557894 -0.036782127 -0.06120449
-0.04281631 -0.019648204 0.05749308 0.06577045 -0.016736902 0.057114493 0.10661569 0.10449418
0.10203604 0.08902036 0.057641406 -0.037385266 0.0049757147 0.0108513795
00000000: 896f 813d 8414 fdbc 2e21 c33d 2295 23bd
00000010: c17a e53b f55a 3dbd a8df a13d eb2d b73d
00000020: ef35 b9ba 6cb4 1b3d eefc 413d ad29 a13d
00000030: b661 2e3c 6256 2ebd 1333 643c aad4 32bd
00000040: e3a4 dbbc b41c 1abd 8496 fd3c fe02 2b3d
00000050: 3b67 0cbd fd7d 593d dbd9 d93c ec88 da3d
00000060: de4d b2bc 4d6c 0b3d f19a cf3d f5e5 43bc
00000070: 18e2 c13d f8e5 04bc a0ec 1fbd 3c08 56bc
00000080: 6020 563c 0440 efbc 146a 613d 9c16 36bc
00000090: 93f3 603d 28c7 79bb c0e9 cb3c 6b9f 3b3d
000000a0: 308f c73c 898b 8c3d acfc 063d 81ce ec3c
000000b0: 3d0e 51bd 5710 723d 43e9 54bd dbcc ca3d
000000c0: 5736 a93c f942 9c3d b88b 953d 9eaf 86bc
000000d0: d2ae fb3b bc93 71bd 286f 803d a7a0 a33d
000000e0: cb97 3b3d 51ae 96bd 6a46 68bd dcc2 66bd
000000f0: 26e0 9b3d 222a dd3c cad1 07bb 17e9 893d
00000100: 849c d6bc af0e 053d f860 2b3d 2aef ae3d
00000110: 2c99 c13d 4235 83bd 89e9 5fbd bb9c 893d
00000120: 2b64 963d bc50 1cbd a9a2 3abd 4668 54bd
00000130: 1659 8d3d 8e8e 7bbc cd57 7abd 9e4e 66bb
00000140: 3167 a03d 8c03 64bc 5658 a4bc 501b a6bc
00000150: e9ea 00bd ea9a 3a3d dba8 16bd 8fb1 7abd
00000160: 2860 2fbd 45f5 a0bc dd7d 6b3d a8b2 863d
00000170: d41b 89bc e3f0 693d 5459 da3d 0b01 d63d
00000180: 45f8 d03d 4e50 b63d 6519 6c3d 4b21 19bd
00000190: 520b a33b fcc9 313c
